experiments/mpiigaze/resnet_preact/exp00/00/checkpoint_0010.pth (torch, 642256 bytes, 64 tensors)

conv.weight f4 [16, 1, 3, 3]
0	0xbe50dc83	-0.20396619
1	0x3c73c735	0.014879038
2	0x3d976269	0.07391817
3	0xbd9f404b	-0.07775935
4	0x3dbe8801	0.093032844
5	0x3dd207ee	0.10255419
6	0xbd87d220	-0.06631875
7	0xbdd47fe6	-0.10375957
8	0x3d16e16a	0.036836065
9	0xbcd69b70	-0.026197165
10	0xbcb137b9	-0.021633016
11	0x3e03e513	0.12880354
12	0xbde40509	-0.11133773
13	0xbd5f3b57	-0.05449995
14	0x3dc0e614	0.09418884
15	0xbd288eb4	-0.041151717
16	0xbdc3def2	-0.09564008
17	0x3b350edc	0.0027627265
18	0x3d30b722	0.0431434
19	0x3dda66ac	0.10664114
20	0x3e543c0c	0.20726031
21	0xbd98e000	-0.074645996
22	0x3d5dd0ae	0.05415409
23	0x3d2ac64d	0.04169302
24	0xbe29fc37	-0.16600119
25	0xbdd0d9b3	-0.10197773
26	0xbd4c19c3	-0.049829256
27	0x3d3424d9	0.043980453
28	0x3cf6b927	0.030117584
29	0x3d2b1d5c	0.041776046
30	0x3d8156e8	0.06315404
31	0xbc41ea0e	-0.011835588
32	0xbbc6febd	-0.0060728476
33	0x3d4cb2a0	0.049975038
34	0x3d3fa081	0.046783928
35	0xbc0f64c4	-0.008752052
36	0x3d993596	0.07480924
37	0x3c65c548	0.014024086
38	0xbd08ebe5	-0.03342809
39	0x3d9a0541	0.07520533
40	0xbc21177e	-0.009832261
41	0x3dbb7dd1	0.09154857
42	0xbd560fcd	-0.052261163
43	0xbbd7285f	-0.006566092
44	0x3d3adc5e	0.045620315
45	0x3c9c4c15	0.019079247
46	0xbdb75b4f	-0.089529626
47	0xbdf7f2fc	-0.121068925
48	0xbd44a029	-0.048004303
49	0xbcf13e7c	-0.02944874
50	0xbd656e61	-0.05601347
51	0x3d9dd125	0.07705907
52	0x3db05982	0.08610822
53	0x3c8126d9	0.015765594
54	0x3d84dfa0	0.064879656
55	0x3cf69ad9	0.030103134
56	0xbbbb1395	-0.0057091215
57	0xbc7e656a	-0.015527109
58	0xbdab4d95	-0.08364407
59	0xbd5bd6d0	-0.053671658
60	0xbd9e8227	-0.07739668
61	0xbc4ead74	-0.012614597
62	0xbcf05336	-0.029336553
63	0x3cf14d72	0.029455874
64	0xbc043d92	-0.00807132
65	0x3d3d76a8	0.046255738
66	0x3df93493	0.12168231
67	0x3da71a28	0.08159286
68	0xbd5c61e5	-0.053804297
69	0x3d22f91d	0.039788354
70	0xbcef9340	-0.029245019
71	0xbd0660fb	-0.03280733
72	0x3d085aaa	0.03328959
73	0xbdbcee7c	-0.09225175
74	0xbd84753f	-0.064676754
75	0xbd087a98	-0.03332004
76	0xbdbe36b3	-0.09287777
77	0xbd9a48d2	-0.075334206
78	0x3d9fa92b	0.07795938
79	0x3c95837a	0.01825117
80	0x3d3648b5	0.044502933
81	0x3e3a56fa	0.18197241
82	0x3d52b2f2	0.051440187
83	0x3ddf182b	0.108932815
84	0x3d88ef2e	0.06686245
85	0xbdb07288	-0.08615595
86	0xbdb3ea2b	-0.08784898
87	0xbc0e82c3	-0.008698168
88	0xbdf5579f	-0.11979603
89	0xbe471b1e	-0.19443938
90	0xbcf95276	-0.030434828
91	0xbd42b939	-0.047539923
92	0x3da45c94	0.080254704
93	0xbc28a33c	-0.010292824
94	0xbcb598d1	-0.022167595
95	0x3dc9d198	0.0985443
96	0x3cb3345a	0.02187555
97	0x3d2f3cb6	0.042782508
98	0x3d8748f2	0.0660571
99	0x3d04870d	0.032355357
100	0x3aaa2824	0.0012981934
101	0xbd15563d	-0.036459196
102	0xbddacfb1	-0.10684145
103	0xbbfe7c44	-0.0077662785
104	0x3d039bb8	0.032130927
105	0xbe028a7b	-0.12748139
106	0x3d192037	0.037384238
107	0xbcc39288	-0.023873582
108	0xbde5a692	-0.112134114
109	0xbdaff01b	-0.08590718
110	0xbe43470d	-0.19070072
111	0x3dd4cdaa	0.1039079
112	0x3ddea5be	0.108714566
113	0xbdb8d0d1	-0.090242036
114	0x3e7c965d	0.24666734
115	0x3d91e2c8	0.07123333
116	0xbd940014	-0.072265774
117	0x3d960d42	0.073267475
118	0x3d4f4f8e	0.05061298
119	0xbd1ea564	-0.038731948
120	0xbcc23498	-0.02370672
121	0x3dddb465	0.10825423
122	0xbcedafab	-0.02901443
123	0xbce9d6f0	-0.028544873
124	0x3d67bbf5	0.056575734
125	0x3c90c887	0.017673744
126	0x3d86dbb7	0.06584876
127	0xbdb458ab	-0.088059746
128	0xbe18361d	-0.14864393
129	0x3e212dfe	0.15740201
130	0x3c97b496	0.018518727
131	0xbdf5e2aa	-0.12006123
132	0x3d853b2a	0.06505425
133	0xbda82835	-0.08210794
134	0xbdb55adb	-0.0885522
135	0x3d0e71e8	0.0347766
136	0xbd22830b	-0.039675754
137	0xbd2ec370	-0.042666852
138	0xbc2d2bdb	-0.010569538
139	0xbd4bbac8	-0.049738675
140	0x3caf1569	0.021372514
141	0xbd29de28	-0.04147163
142	0xbdda1535	-0.10648576
143	0x3cfae70e	0.030627754

stage1.block1.bn1.weight f4 [16]
0	0x3e9379ac	0.28803766
1	0x3e88ffef	0.26757762
2	0x3e99c7a4	0.30035126
3	0x3e776c81	0.24162485
4	0x3e57288e	0.21011564
5	0x3e65e8e9	0.2245213
6	0x3e757c66	0.23973235
7	0x3e8955a8	0.26823163
8	0x3e8ccbff	0.27499387
9	0x3ea53d9d	0.3227357
10	0x3e8217f4	0.254089
11	0x3e6bfeb9	0.23046388
12	0x3e7d1ee7	0.2471882
13	0x3e809db4	0.25120318
14	0x3e9bc39d	0.3042268
15	0x3e6a2785	0.22866638

stage1.block1.bn1.bias f4 [16]
0	0xbd56c6eb	-0.052435797
1	0xbac00a21	-0.0014651456
2	0x3c9187d2	0.01776496
3	0xbd84db29	-0.06487114
4	0x3c95510a	0.018227119
5	0xbca45a95	-0.020062724
6	0xbd1e1785	-0.03859665
7	0xbd6ccf5d	-0.057814945
8	0xbd31dbff	-0.043422695
9	0x3dacde07	0.08440786
10	0xbd13ad37	-0.036053862
11	0xbdcc3691	-0.09971345
12	0x3d68ae20	0.056806684
13	0xbcada5f9	-0.021197306
14	0xbba12cfb	-0.004918692
15	0xbc17ed6c	-0.009272914

stage1.block1.bn1.running_mean f4 [16]
0	0xbd89b19a	-0.06723328
1	0xbd8b0d9e	-0.06789707
2	0x3ce36b74	0.027761199
3	0x3df6157e	0.12015818
4	0x3dca799c	0.098864764
5	0xbd8e678e	-0.06953345
6	0xbdbd4601	-0.09241868
7	0x3dc7e371	0.09760178
8	0xbdba524d	-0.09097729
9	0xbd4a54e4	-0.049397364
10	0x3dc94cc0	0.09829092
11	0xbdc92bd9	-0.098228164
12	0xbc1166dc	-0.008874621
13	0x3db7be96	0.08971898
14	0xbdd23109	-0.10263259
15	0xbdc96ee7	-0.09835606

stage1.block1.bn1.running_var f4 [16]
0	0x3b6889dd	0.0035482564
1	0x3b4d9620	0.003137
2	0x3be65543	0.007029207
3	0x3b95db48	0.0045732595
4	0x3b55b97f	0.0032611785
5	0x3b776da7	0.0037754567
6	0x3b4ddcee	0.0031412202
7	0x3b64d2b7	0.0034915635
8	0x3b82f1b0	0.0039960966
9	0x3be53420	0.006994739
10	0x3b6c62cc	0.003606963
11	0x3b5b24f8	0.0033438783
12	0x3bf28876	0.0074015213
13	0x3b2e9512	0.0026639146
14	0x3bbd4773	0.0057763397
15	0x3b4ad9b8	0.0030952524

stage1.block1.conv1.weight f4 [16, 16, 3, 3]
0	0x3bde6708	0.0067871846
1	0xbd4ef8e2	-0.050530322
2	0x3a953b75	0.0011385517
3	0xbd41f683	-0.047354233
4	0xbd9b3e80	-0.0758028
5	0xbdc6aa6f	-0.097004764
6	0xbcec746a	-0.028864104
7	0xbd3a7b05	-0.045527477
8	0xbd2e115f	-0.042497035
9	0x3c39459b	0.011308099
10	0x3c597606	0.013272768
11	0x3d072483	0.032993805
12	0xbd519e40	-0.05117631
13	0xbd34a105	-0.044098873
14	0x3c233f05	0.0099637555
15	0xbd02e566	-0.031957053
16	0xbd74fb27	-0.05980983
17	0x3b469beb	0.0030305337
18	0xb9fbaf73	-0.0004800517
19	0x3bc51a0b	0.0060150675
20	0x3d26a629	0.040685806
21	0xbc374b46	-0.01118738
22	0xbcd8a0f1	-0.02644393
23	0xbb6f27cb	-0.0036492224
24	0xbd90a585	-0.0706282
25	0xbd29b8ea	-0.041436113
26	0xbd46d7e0	-0.04854572
27	0xbcade314	-0.021226443
28	0xbc8f0786	-0.017459642
29	0x3c98aff6	0.018638592
30	0x3cc6d378	0.024270758
31	0x3ccb64aa	0.024828274
32	0x3c16b3e4	0.009198163
33	0xbd20cb82	-0.03925658
34	0xbd2dec0c	-0.04246144
35	0x3ccde3a0	0.025132954
36	0xbc83089c	-0.015995316
37	0xbc8ce3a3	-0.01719839
38	0x3ce19eaf	0.027541487
39	0x3da194b3	0.0788969
40	0x3d2a4c27	0.04157653
41	0x3cbd15dd	0.023081714
42	0xbcb11e35	-0.02162085
43	0x3d6df10f	0.05809122
44	0x3b90c8a9	0.004418452
45	0x3c01d681	0.007924677
46	0xbb58791e	-0.0033031176
47	0x3cce3426	0.02517135
48	0xbcce6b09	-0.025197523
49	0x3d264903	0.040596973
50	0xbccf4a2e	-0.025303926
51	0xbce052e5	-0.027383277
52	0xbcf58296	-0.029969495
53	0x3c54b5ef	0.0129828295
54	0x3d2c208d	0.04202323
55	0xbaca1cef	-0.001542
56	0xbb8ca1cd	-0.004291749
57	0xbca560f2	-0.020187829
58	0x3c17fc39	0.009276443
59	0x3c8349df	0.016026435
60	0x3b6f8548	0.0036547948
61	0x3b79a46b	0.0038092386
62	0x3cd5a408	0.026079193
63	0x3ab1a70d	0.0013553813
64	0x3d3b93c0	0.045795202
65	0xbd184e4d	-0.03718405
66	0xbd76ddb4	-0.060270026
67	0xbcb567fc	-0.02214431
68	0x3d495986	0.04915764
69	0xbd881985	-0.066454925
70	0xba550d9a	-0.0008127332
71	0xbc1bb1ad	-0.00950281
72	0x3c1e5815	0.009664555
73	0x3d88c778	0.06678671
74	0xbca820df	-0.020523487
75	0x3c1c117c	0.009525653
76	0xbd9fe799	-0.078078456
77	0xbcb61a6e	-0.0222294
78	0x3af0bd4b	0.001836696
79	0x3ac606fc	0.0015108283
80	0xbcae99bb	-0.021313539
81	0x3d5d47fd	0.05402373
82	0xbd7361f6	-0.059419595
83	0xbd8f62e6	-0.07001285
84	0xbbf722f0	-0.0075420067
85	0xbcf4b811	-0.029872926
86	0x3b9b3f56	0.004737775
87	0xbd4b40c5	-0.049622316
88	0x3d040307	0.03222945
89	0xbdacbea1	-0.08434797
90	0xbbb5ed89	-0.005551998
91	0xbc2a6c08	-0.010401733
92	0xbc8e7030	-0.01738748
93	0xbd8e31c9	-0.069430895
94	0x3c340e08	0.010989673
95	0x3d1a37e8	0.037650973
96	0x3cab1b26	0.020886969
97	0x3cd69120	0.026192248
98	0x3d322ae0	0.04349792
99	0xbba6a8b4	-0.005086029
100	0xbd1c4bd5	-0.038158257
101	0x3cf8db6d	0.030378068
102	0xbba97959	-0.0051719365
103	0xbc7a2771	-0.015268193
104	0xbc3634df	-0.011121004
105	0x3d0824c1	0.033238176
106	0x3d698476	0.05701109
107	0xbbde8662	-0.006790922
108	0xbd0f14eb	-0.03493206
109	0xbca0d041	-0.019630553
110	0xbd63c92b	-0.05561177
111	0x3c9075e0	0.017634332
112	0x3c1b966a	0.009496311
113	0x3c4b3097	0.012401721
114	0x3d96754f	0.073465936
115	0x3bb33536	0.0054689897
116	0xbd4675f9	-0.04845235
117	0x3ca427cf	0.020038513
118	0x3d6de30e	0.058077864
119	0x3d103408	0.03520587
120	0xbd36d14e	-0.044633202
121	0xbc99324f	-0.018700747
122	0xbc4d1e9f	-0.012519508
123	0xbd64069f	-0.055670377
124	0x3c86b0d0	0.016441733
125	0x3c900815	0.017581979
126	0xbcbfbccc	-0.023405455
127	0xbb8e1737	-0.0043362635
128	0xbdbbc0a0	-0.091676
129	0xbd2ed7f9	-0.042686436
130	0x3d8b395f	0.06798052
131	0xbccb6c8e	-0.024832036
132	0x3d4fc1dc	0.050721988
133	0x3d4bc8db	0.049752098
134	0xbc0be1cb	-0.00853772
135	0xbc7ccfb3	-0.015430379
136	0xbd1c451e	-0.038151853
137	0x3d0e726b	0.034777086
138	0xbd1b1384	-0.03786041
139	0xbde0c654	-0.10975328
140	0xbc63793f	-0.013883888
141	0x3cdaa7f9	0.026691424
142	0xbd9b028f	-0.075688474
143	0xbc4fa0bb	-0.0126725985
144	0x3b01bac5	0.0019795161
145	0xbcd6bdb6	-0.026213508
146	0x3d08f587	0.033437278
147	0xbc05b85b	-0.00816163
148	0x3cf36a96	0.02971391
149	0xbcb3ad47	-0.021933211
150	0x3dc29503	0.09501078
151	0x3c1eb7e8	0.009687401
152	0x3c110e59	0.008853518
153	0x3cf99b3a	0.030469526
154	0xbcf613ff	-0.030038832
155	0xbaa90e54	-0.0012897947
156	0x3d46c766	0.048530005
157	0xbd2a7c58	-0.04162249
158	0x3c32b9bb	0.010908539
159	0x3cbcb46b	0.023035249
160	0x3cc24bc5	0.02371777
161	0x3c9d91ed	0.019234622
162	0x3dbc1ba6	0.09184961
163	0x3c948479	0.018129574
164	0x3d6e5895	0.058189947
165	0x3da32039	0.0796513
166	0x3c937e53	0.018004572
167	0x3da22034	0.079162985
168	0xbdae6d89	-0.08516986
169	0x3c5afa07	0.013365275
170	0x3d291bf9	0.041286442
171	0x3d1f976e	0.038962774
172	0xbbd8a4cf	-0.0066114436
173	0xbbd4964f	-0.0064876447
174	0xbd869eb3	-0.06573238
175	0xbc873089	-0.016502636
176	0x3c2721e3	0.01020095
177	0xbc2b6e40	-0.010463297
178	0xbcda4af2	-0.026647065
179	0xbd254c2f	-0.040355857
180	0x3dcd54a8	0.100259125
181	0x3df10b3f	0.11769723
182	0x3cf15941	0.029461505
183	0xbd49de6f	-0.049284395
184	0x3d427de2	0.047483332
185	0x3cfd0769	0.030887323
186	0x3ab70fa7	0.0013966457
187	0x3c190b96	0.009341141
188	0xbcf3cd41	-0.029760959
189	0xbcde4690	-0.027133256
190	0x3d2cf7dc	0.042228565
191	0xbc1fff0b	-0.009765397
192	0xbc848176	-0.016175013
193	0xbd88c1e5	-0.066776074
194	0x3bf6c07a	0.007530269
195	0x3cc61a63	0.024182504
196	0x3b00581b	0.0019583765
197	0xbbba8381	-0.005691946
198	0xbcec3794	-0.028835095
199	0xbd27bc47	-0.04095104
200	0xbd7aba07	-0.061212566
201	0x3d036e13	0.032087397
202	0x3c26ac7b	0.0101729585
203	0xbc07ebb0	-0.008295938
204	0xbd67d051	-0.05659515
205	0x3da568a9	0.08076603
206	0x3c6b54f5	0.014363517
207	0xbcbc9a23	-0.023022717
208	0x3da547ea	0.08070357
209	0xbba7161d	-0.0050990717
210	0xbd997ee0	-0.074949026
211	0x3c27ed77	0.010249487
212	0xbd3b8eb2	-0.04579038
213	0xbcd878e3	-0.02642483
214	0x3be21ed8	0.0069006495
215	0xbdb4d41d	-0.0882952
216	0xbc36a38b	-0.01114739
217	0xbc2d1f4d	-0.010566545
218	0xbd40be23	-0.04705633
219	0x3c9f17de	0.01942056
220	0x3c9b89eb	0.018986663
221	0xbd85f43f	-0.06540727
222	0xbd702f87	-0.058639076
223	0xbc072cb8	-0.008250408
224	0x3d19bd4b	0.03753404
225	0x3cc6ff8a	0.024291772
226	0x3c6b81b6	0.014374187
227	0x3c640a45	0.013918464
228	0xbb7533cc	-0.0037414907
229	0x3be309bd	0.006928651
230	0xbc8a9b69	-0.016919808
231	0xbcf18742	-0.029483441
232	0x3b907822	0.004408852
233	0xbd8261d7	-0.06366318
234	0x3d1afda8	0.03783956
235	0x3da9d1ad	0.082919456
236	0x3c7d605e	0.01546487
237	0xbc533b7a	-0.012892598
238	0x3c67ce45	0.0141483
239	0xbd0fd846	-0.035118364
240	0xbcbf2467	-0.023332788
241	0x3c060efa	0.008182282
242	0xbd12efe1	-0.035873298
243	0x3cc1dc1a	0.023664523
244	0xbc83208f	-0.016006736
245	0x3d6e6625	0.05820288
246	0x3db3ae45	0.08773474
247	0x3d55d6bb	0.052206736
248	0x3bf6bf44	0.007530125
249	0x3d1c5993	0.038171362
250	0xbb5b89c6	-0.0033498867
251	0x3d2ecf9c	0.04267846
252	0x3bd4d3e5	0.0064949864
253	0xbbd3b671	-0.0064609577
254	0x3b81d05f	0.0039616073
255	0x3d16af14	0.03678806

stage1.block1.bn2.weight f4 [16]
0	0x3eb353e1	0.35024932
1	0x3eba5213	0.36390743
2	0x3eba12b9	0.3634241
3	0x3eab5297	0.3346145
4	0x3ea67fbf	0.32519338
5	0x3ec4530a	0.38344604
6	0x3ecbbc3b	0.39792046
7	0x3ea28cf3	0.3174816
8	0x3e9ed2e9	0.31020287
9	0x3ec36c2e	0.38168472
10	0x3eb0eab3	0.3455406
11	0x3eaff3a6	0.34365577
12	0x3ec04568	0.37552953
13	0x3ea8d9df	0.32978722
14	0x3eab7c76	0.33493394
15	0x3eac4090	0.33643007

stage1.block1.bn2.bias f4 [16]
0	0x3af20367	0.0018464149
1	0x3c95c4da	0.018282343
2	0xbd507109	-0.05088905
3	0x3c496478	0.01229202
4	0xbac6bcd1	-0.0015162473
5	0x3d00a2fd	0.031405438
6	0xbc930163	-0.017944997
7	0xbd128681	-0.035772804
8	0xbcf29d87	-0.02961613
9	0x3cf32557	0.029680891
10	0x3d6c2f5f	0.057662364
11	0x3d92f9ae	0.07176529
12	0x3d577128	0.05259815
13	0xbc973fbd	-0.01846301
14	0x3d250db9	0.04029629
15	0xbcc6ca46	-0.024266373

stage1.block1.bn2.running_mean f4 [16]
0	0xbde2098a	-0.11036976
1	0x3d6e44a9	0.05817095
2	0x3e44752e	0.19185326
3	0x3d402ef3	0.046919774
4	0x3d126eea	0.035750307
5	0xbd312e70	-0.043257177
6	0x3d01b525	0.031666894
7	0x3b9a17d4	0.0047025476
8	0x3d65fc84	0.05614902
9	0xbcd41d5d	-0.025892908
10	0x3cc7e6b9	0.02440201
11	0xbdb7e93e	-0.08980034
12	0xbe20485e	-0.15652606
13	0x3d8b55a3	0.06803443
14	0xbd571f6d	-0.052520204
15	0x3d5bdc6c	0.053677008

stage1.block1.bn2.running_var f4 [16]
0	0x3c327cdf	0.010894029
1	0x3c194014	0.009353656
2	0x3c1c79c3	0.009550515
3	0x3bacf90c	0.005278712
4	0x3c771b55	0.0150822
5	0x3ba7ee72	0.0051248604
6	0x3c511a04	0.01276255
7	0x3b9b53ee	0.00474023
8	0x3c1ea66f	0.009683236
9	0x3c0fdca2	0.00878063
10	0x3c463826	0.012098348
11	0x3c472a42	0.012156071
12	0x3c632dd9	0.013865911
13	0x3c2fea93	0.010737079
14	0x3bf50c6c	0.0074782874
15	0x3bc95f97	0.0061454284

stage1.block1.conv2.weight f4 [16, 16, 3, 3]
0	0xbcfadc46	-0.030622613
1	0xbcb0a2b3	-0.021561956
2	0xba617388	-0.00086002843
3	0x3b8dd555	0.0043284097
4	0x3c396cd2	0.011317449
5	0xbd576673	-0.052587938
6	0x3c1e943d	0.009678897
7	0xbca1d6c6	-0.019755732
8	0x3d0ffc6b	0.035152834
9	0x3c2c8a03	0.010530951
10	0x3d6f4842	0.05841852
11	0x3d21a9f7	0.03946873
12	0x3bf98b4a	0.0076154815
13	0x3d2496b0	0.04018277
14	0x3be4cc28	0.006982345
15	0xbc17f271	-0.009274111
16	0xbc0e05c5	-0.008668368
17	0x3d3f8c6a	0.04676477
18	0x3cb04e54	0.021521725
19	0x3d6dbedc	0.058043346
20	0x3b59e6ea	0.0033249208
21	0x3c164436	0.009171536
22	0x3c8599c0	0.016308665
23	0x3cb3aaf9	0.021932112
24	0x3d1aaefe	0.03776454
25	0xbd086fa8	-0.03330961
26	0x3d55c527	0.052189972
27	0x3ba90063	0.005157517
28	0xbd317683	-0.043325912
29	0x3d43724f	0.047716435
30	0x3ac867b5	0.0015289696
31	0x3d48ff6b	0.04907171
32	0x3c05865a	0.008149708
33	0x3d81a44b	0.063301645
34	0xbd20c723	-0.03925241
35	0xbd281791	-0.0410381
36	0x3d35ee54	0.04441674
37	0x3ccd70bb	0.025078168
38	0xbbe0b184	-0.006857099
39	0xba432411	-0.0007444034
40	0xbd2a0f70	-0.04151863
41	0x3da5bcd0	0.08092654
42	0xbcba8e30	-0.022772878
43	0xbb00f6b4	-0.0019678297
44	0x3d2b14b4	0.04176779
45	0xbce4f0cd	-0.027946854
46	0xbcafa2df	-0.021439968
47	0x3d8387a3	0.06422355
48	0xbdc7d3a6	-0.097571656
49	0xbc1b1b1d	-0.0094669135
50	0xbb9b60ca	-0.0047417628
51	0xbc93e6a7	-0.01805432
52	0x3d0d5dee	0.034513406
53	0x3cd1fbbe	0.025632735
54	0xbd564a20	-0.052316785
55	0x3d28bc72	0.04119534
56	0xbd885b21	-0.066580065
57	0x3cc9df41	0.024642589
58	0x3d5e700e	0.054306082
59	0xbd83b473	-0.06430902
60	0x3d6aafb8	0.057296485
61	0x3c784104	0.01515222
62	0x3d380fd9	0.04493699
63	0xbccd001a	-0.025024462
64	0xbd304896	-0.043037973
65	0xbd3528cd	-0.044228364
66	0x3d715402	0.058918007
67	0xbcba9c0b	-0.022779485
68	0x3d1388a4	0.036018983
69	0x3c1e3233	0.009655523
70	0x3d019a8e	0.031641535
71	0xbca371b0	-0.019951671
72	0x3d887cf1	0.06664456
73	0x3d2cd661	0.042196635
74	0xbb156c82	-0.0022800271
75	0xbbfd5f38	-0.007732298
76	0xbcc98b83	-0.024602657
77	0xbcca994e	-0.024731304
78	0x3d397909	0.045281444
79	0x3dc7d713	0.09757819
80	0x3d12b402	0.0358162
81	0xba502ed4	-0.0007941548
82	0x3daef713	0.085432194
83	0x3d28fca4	0.041256562
84	0x3cbf2e0f	0.023337392
85	0xbcaa2cb1	-0.020773264
86	0xbcc3152f	-0.023813812
87	0x3c796265	0.015221213
88	0x3c0cdfb8	0.008598261
89	0xbc90ad15	-0.017660657
90	0xbcbba530	-0.022905916
91	0xbd02160e	-0.031759314
92	0x3d7ed84e	0.062218003
93	0xbc882dc7	-0.01662339
94	0xbd8034e5	-0.06260089
95	0xbb90eb99	-0.0044226167
96	0x3d36886c	0.044563696
97	0xbd5605d8	-0.052251667
98	0xbc112b70	-0.008860454
99	0x3d08bc35	0.033382613
100	0x3b1f2d12	0.0024288339
101	0x3d238565	0.039922137
102	0xbcc48922	-0.023991171
103	0xbd807a0d	-0.06273279
104	0xbd1a9076	-0.037735425
105	0x3d52f0eb	0.05149929
106	0x3c320f08	0.010867842
107	0x3d2c6dc1	0.042096857
108	0x3db4ab39	0.08821721
109	0x3b0579b1	0.0020366723
110	0x3c0bf9ec	0.008543473
111	0x3d32d6c0	0.043661833
112	0xbd513759	-0.051078174
113	0xbcc121ce	-0.02357569
114	0xbd460282	-0.048342235
115	0x3c8aa3de	0.016923841
116	0x3d1a031a	0.037600614
117	0x3cde5327	0.02713926
118	0x3c0f4098	0.008743428
119	0xbc6e88bc	-0.014558967
120	0xbd2bbeec	-0.041930124
121	0xbc1682d4	-0.009186465
122	0xbbd424d4	-0.006474117
123	0x3b2f0c42	0.0026710187
124	0x3de53dfa	0.11193462
125	0x3d256de3	0.040388
126	0x3d4b7e53	0.04968102
127	0x3c50622a	0.012718717
128	0x3cb69926	0.022289824
129	0x3c3c42c0	0.011490524
130	0x3d2521b7	0.040315356
131	0xbcd2eaa2	-0.025746647
132	0x3c4cab72	0.012492048
133	0xbc75041e	-0.014954595
134	0xbd5917cb	-0.053001206
135	0xbb04488b	-0.002018484
136	0x3c1bca7f	0.009508728
137	0x3c61bb26	0.01377753
138	0x3d37b245	0.044847745
139	0x3c24769e	0.010038046
140	0x3dada7aa	0.08479245
141	0xbd742229	-0.05960289
142	0xbc00771e	-0.0078409
143	0x3d78d26d	0.060747553
144	0xb91ac206	-0.00014758864
145	0x3d7d2f26	0.061812542
146	0xbc03f63c	-0.008054312
147	0x3b865f6d	0.004100731
148	0xbc2daf99	-0.010600948
149	0x3d5831e3	0.05278195
150	0x3cd9d10e	0.026588943
151	0xbc22c744	-0.009935204
152	0x3c2572f7	0.010098211
153	0x3dc8f58d	0.0981246
154	0x3c9b3863	0.018947786
155	0xbd117e45	-0.03552081
156	0xbc250d9b	-0.010074045
157	0xbd0bc68d	-0.0341249
158	0xbd5cc1e6	-0.053895853
159	0x3d12d8bc	0.035851225
160	0x3d8566e4	0.065137655
161	0x3d28dca7	0.041226055
162	0xbd0ebc1b	-0.03484736
163	0x3d1b3493	0.037891936
164	0xbd4114a9	-0.047138844
165	0x3b0de8d1	0.0021653662
166	0x3d8e5617	0.06950014
167	0xbba18a86	-0.0049298434
168	0xbdb50199	-0.08838195
169	0x3d1ba476	0.03799864
170	0x3d8c38c1	0.068467624
171	0xbc02165c	-0.007939901
172	0xbd2a6b4b	-0.04160623
173	0xbc0a7fff	-0.008453368
174	0xbd273609	-0.040823016
175	0x3d1c2162	0.038117774
176	0x3cc918c0	0.024547935
177	0x3c747b7c	0.014922019
178	0xbd0f6a44	-0.035013452
179	0xbcefda67	-0.029278947
180	0xbce5b088	-0.028038278
181	0xbd95267b	-0.0728273
182	0x3c5826d4	0.013192851
183	0xbc288099	-0.010284566
184	0x3d0e9bbc	0.03481649
185	0xbd91c138	-0.07116932
186	0x3cd36ee5	0.025809715
187	0x3b91d4d8	0.004450422
188	0x3da5143f	0.08060502
189	0xbd3dfe55	-0.046385128
190	0xbacaaa2a	-0.001546209
191	0x3cef5a39	0.029217826
192	0xbbba1f69	-0.005680014
193	0x3d5a8364	0.05334796
194	0xbcae03a9	-0.02124198
195	0xbd09fcd3	-0.033688378
196	0xbc37b4ea	-0.011212567
197	0xbdb6133f	-0.0889039
198	0xbcc3d764	-0.023906417
199	0xbb91c265	-0.0044482225
200	0xbc1dfd04	-0.009642843
201	0x3d126f6b	0.035750788
202	0xbcc53591	-0.024073394
203	0x3c6da646	0.014504975
204	0x3e3e15b4	0.18562967
205	0x3d86c531	0.0658058
206	0x3d6414da	0.055683948
207	0x3d0b4131	0.03399772
208	0xbc44d4a3	-0.012013587
209	0xbcef96fd	-0.029246802
210	0xbc98dc4b	-0.018659731
211	0x3da2c299	0.07947273
212	0xbd61fa92	-0.055170603
213	0xbd24f8ca	-0.040276326
214	0x3c5736b9	0.0131356055
215	0xbcb49958	-0.022045776
216	0x3c4421c9	0.011970946
217	0x3d2f92be	0.042864554
218	0xbd8529f3	-0.06502142
219	0xbcae3a91	-0.021268161
220	0xbc3386fa	-0.010957474
221	0x3ca206d6	0.01977865
222	0xbcc88451	-0.024477156
223	0x3c056605	0.008141999
224	0x3d88f26a	0.06686862
225	0x3ab8527d	0.0014062669
226	0xbd5612fe	-0.052264206
227	0x3da81481	0.08207036
228	0x3c06f6e1	0.008237571
229	0xbd2b0911	-0.041756693
230	0x3da63d4f	0.081171624
231	0xbd23f5e8	-0.040029436
232	0xbc5bf4c0	-0.013425052
233	0x3dd275b5	0.10276357
234	0x3c6ceb16	0.014460346
235	0xbda9d2ec	-0.08292183
236	0x3baf1990	0.0053436235
237	0xbcac8be8	-0.021062806
238	0xbc05f35d	-0.008175698
239	0xbceaae15	-0.028647462
240	0xbccde023	-0.02513129
241	0x3d394c56	0.045238815
242	0xbcb5c236	-0.022187334
243	0xbdfbf60a	-0.123027876
244	0xbd258045	-0.04040553
245	0xbd294059	-0.041321132
246	0x3c587937	0.013212494
247	0xbdcd801a	-0.10034199
248	0xbd8094b3	-0.06278362
249	0x3cc95084	0.024574526
250	0xbcec127a	-0.028817404
251	0xbaadbe4e	-0.0013255568
252	0x3cfeaadd	0.031087333
253	0x3d5207bb	0.051276904
254	0xbbaa51f3	-0.0051977574
255	0x3d049659	0.032369945

stage2.block1.bn1.weight f4 [16]
0	0x3e845d3a	0.25852376
1	0x3e938b0f	0.2881703
2	0x3e99f97d	0.30073157
3	0x3e93d5ea	0.2887414
4	0x3ea6b08a	0.32556564
5	0x3e9e9d66	0.3097946
6	0x3e92ae34	0.2864853
7	0x3e8d56ff	0.27605435
8	0x3e6448a8	0.22293341
9	0x3e868d1b	0.2627953
10	0x3e95d789	0.29266003
11	0x3ea8e62c	0.32988107
12	0x3e9d603f	0.30737492
13	0x3e8f146e	0.27945274
14	0x3e96b2aa	0.29433185
15	0x3e87124f	0.26381156

stage2.block1.bn1.bias f4 [16]
0	0xbceae5ed	-0.02867409
1	0xbc7a8a60	-0.01529178
2	0xbc93e74c	-0.018054627
3	0xbd0cf5c7	-0.03441408
4	0xbca8d24b	-0.020608088
5	0x3d10c0e7	0.035340216
6	0x3c348820	0.011018783
7	0x3c2e9404	0.010655407
8	0xbda9536f	-0.08267867
9	0x3c4fe495	0.012688776
10	0xbce8a1f0	-0.02839753
11	0x3ca27522	0.019831244
12	0xbb58f679	-0.0033105894
13	0xbd6129a1	-0.05497134
14	0xbc964c0a	-0.018346805
15	0xbced51b5	-0.028969625

stage2.block1.bn1.running_mean f4 [16]
0	0x3e6c8c0d	0.231003
1	0x3da33f9c	0.07971117
2	0x3d98eed3	0.07467427
3	0x3e358d36	0.17729649
4	0x3e51f007	0.2050172
5	0xbd95611f	-0.07293915
6	0xbcc41272	-0.023934577
7	0x3dcfa5f3	0.10139074
8	0x3e5f4a65	0.21805723
9	0x3d2d66a0	0.0423342
10	0x3ea0ca36	0.31404275
11	0xbe02e67d	-0.12783237
12	0x3d55e50e	0.052220397
13	0x3e69302e	0.22772285
14	0x3e34ba1d	0.17649122
15	0x3c660c03	0.01404095

stage2.block1.bn1.running_var f4 [16]
0	0x3d8900ce	0.066896066
1	0x3cf778a8	0.0302089
2	0x3d573585	0.052541275
3	0x3c8c6cd9	0.017141746
4	0x3d068255	0.032839138
5	0x3d5d46af	0.054022487
6	0x3d114ade	0.03547179
7	0x3ccbd89d	0.024883563
8	0x3d098ba5	0.03358044
9	0x3d68fa61	0.056879405
10	0x3ce470d1	0.027885826
11	0x3d0dad83	0.0345893
12	0x3d3081a4	0.043092385
13	0x3ce73cbd	0.028227204
14	0x3d500257	0.05078348
15	0x3d16ada5	0.036786694

stage2.block1.conv1.weight f4 [32, 16, 3, 3]
0	0x3d68bec8	0.05682257
1	0x35a751c0	1.2466262e-06
2	0xba547cb8	-0.0008105743
3	0x3d9468e1	0.072465666
4	0xbcb07cec	-0.021543942
5	0x3c784e3c	0.015155371
6	0x3cbe5bcf	0.023237137
7	0x3c97e910	0.01854375
8	0x3c0db115	0.008648177
9	0xbca5f7f0	-0.020259827
10	0xbbd37e4a	-0.006454264
11	0xbc8bbac3	-0.017056828
12	0xbb4d7a8f	-0.0031353568
13	0x3d31fa25	0.043451447
14	0xbadae688	-0.0016700784
15	0xbcf707c8	-0.030155078
16	0xbc75cae8	-0.01500199
17	0x3c18aa0f	0.009317889
18	0xbcff8c0d	-0.031194711
19	0xbd05709e	-0.032578103
20	0xbb1aded7	-0.0023631358
21	0xbd2deb97	-0.042461004
22	0xbc0c071a	-0.008546615
23	0x3ce5155d	0.027964288
24	0xbb38ed29	-0.002821753
25	0xbd53e671	-0.051733438
26	0xbcffb86c	-0.031215869
27	0x38e0dc24	0.00010722157
28	0x3d12c2a5	0.03583016
29	0x3c777258	0.015102945
30	0x3cedcf6a	0.029029567
31	0x3c22751e	0.009915618
32	0x3b577995	0.0032878865
33	0x3d200333	0.03906555
34	0xbd0d9537	-0.03456613
35	0xbd2e0604	-0.042486206
36	0x3cce85d3	0.025210297
37	0x3d0b5b4a	0.034022607
38	0x3c8fabb0	0.017537922
39	0xbd2e30bc	-0.042526945
40	0x3b3fffae	0.0029296684
41	0x3bfef865	0.007781076
42	0xbd779e45	-0.060453672
43	0x3ce1ced9	0.027564453
44	0x3c2dbc8b	0.010604034
45	0xbd264699	-0.04059467
46	0xbc0dbb4b	-0.008650611
47	0xbd555118	-0.05207929
48	0xbc71e4b4	-0.014764
49	0x3cbcb04d	0.023033286
50	0xbd8e6874	-0.069535166
51	0xbd753f8b	-0.059875052
52	0xbc9f321d	-0.019433076
53	0xbd95af9c	-0.073088855
54	0xbdcc78ed	-0.09984002
55	0xbda88b4d	-0.082296945
56	0xbc9083a3	-0.017640894
57	0xbd8e2f02	-0.0694256
58	0xbd1048d3	-0.0352257
59	0x3c4e70de	0.012600152
60	0xbd036b29	-0.032084618
61	0xbd8bae92	-0.06820406
62	0x3c8958b5	0.016765932
63	0xbca93eb7	-0.020659788
64	0xbd227870	-0.03966564
65	0xbd1719c6	-0.036889814
66	0xbd885a1e	-0.066578135
67	0x3b3cb260	0.0028792843
68	0xbcc60183	-0.024170643
69	0xbc8b8bdd	-0.017034465
70	0xbbaea54f	-0.005329765
71	0xbd72afb6	-0.059249602
72	0x3c3c1b7e	0.011481164
73	0xbc9e1219	-0.019295739
74	0xbc2d0cea	-0.010562161
75	0xbcba665b	-0.022753885
76	0xbc88856b	-0.016665181
77	0xbcddc23f	-0.027070163
78	0xbb449145	-0.0029993814
79	0xbc732b50	-0.0148418695
80	0x3c698e33	0.014255094
81	0x3c53b325	0.012921129
82	0x3cb3989a	0.021923352
83	0x3c8aa3d2	0.016923819
84	0x3ccd9f94	0.025100507
85	0x3d065dca	0.032804288
86	0x3d5b1c6d	0.053493906
87	0xbc01e3de	-0.007927863
88	0xbc83d5d2	-0.016093168
89	0x3aa122a6	0.0012293651
90	0x3c1ad5b8	0.009450369
91	0xbcb1af4f	-0.021690039
92	0xbc33dbc2	-0.010977687
93	0xbc715126	-0.01472882
94	0xbc6d7c22	-0.014494928
95	0xbd1cac70	-0.038250387
96	0x3ccdcfcd	0.025123501
97	0x3d3deea4	0.046370164
98	0xbc0ffc22	-0.0087881405
99	0xbd09b070	-0.03361553
100	0xbbc63da3	-0.006049828
101	0xbd90b8a6	-0.07066469
102	0xbd1153dc	-0.035480365
103	0xbd80fe87	-0.06298547
104	0x3c392355	0.011299928
105	0xbca60085	-0.02026392
106	0xbd118702	-0.035529144
107	0x3c7e8636	0.015534928
108	0x3cd3d839	0.025859939
109	0x3b44057f	0.0029910502
110	0x3bd44d81	0.0064789657
111	0xbb30f8c2	-0.002700374
112	0x3d2d7321	0.042346124
113	0x3ce91864	0.028454013
114	0x3d5b68a1	0.05356658
115	0x3cef2fd4	0.02919761
116	0xbbd8f838	-0.006621387
117	0x3a169034	0.0005743534
118	0xbcb076ba	-0.021540988
119	0xbb1dcc63	-0.0024078123
120	0xbdd3773a	-0.10325475
121	0x3d4a0e14	0.049329832
122	0x3c54472e	0.012956424
123	0xbd6397f6	-0.055564843
124	0x3d35bacb	0.044367593
125	0x3d873c1b	0.06603261
126	0xbcb62119	-0.022232579
127	0xbd82ba69	-0.06383211
128	0xbdba88b1	-0.09108103
129	0x3cc0fcba	0.02355801
130	0xbb003269	-0.0019561297
131	0xba8f73a4	-0.0010944498
132	0x3d34758f	0.044057425
133	0x3d839eb3	0.06426754
134	0xbc68be44	-0.014205519
135	0x3c7ec892	0.015550749
136	0xbd20049b	-0.039066892
137	0x3be0ee83	0.0068643703
138	0xbc83ae28	-0.016074255
139	0xbc850949	-0.01623978
140	0xbd319c45	-0.04336192
141	0xbca66303	-0.020310884
142	0x3c261750	0.010137394
143	0x3c545b61	0.01296124
144	0xbce7ae72	-0.028281424
145	0x3cda80af	0.02667269
146	0x3ae297e8	0.0017287703
147	0x3b2ec437	0.0026667246
148	0xbd416084	-0.047211185
149	0xbb10719c	-0.0022040373
150	0xbc1d9f49	-0.009620496
151	0xbd2bd144	-0.041947618
152	0x3c8790d7	0.016548557
153	0xbd1ad6d0	-0.037802517
154	0x3d0d4439	0.03448889
155	0x3c41ed50	0.011836365
156	0x39edeb1b	0.0004537933
157	0xbcb4d9da	-0.022076536
158	0xbb81f861	-0.0039663767
159	0xbd55fab1	-0.05224103
160	0xbd45e875	-0.04831739
161	0xbcd17d6d	-0.025572503
162	0xbcd3bee6	-0.025847863
163	0xbbab6aed	-0.0052312524
164	0x3cb7051f	0.02234131
165	0x3c1b0509	0.00946165
166	0x3b43b8a6	0.0029864698
167	0x3cc84831	0.024448486
168	0x3d2c592d	0.042077232
169	0x3d2fdabe	0.04293322
170	0x3d0414aa	0.03224627
171	0xbcbcf26b	-0.023064813
172	0xbc8913b7	-0.016733034
173	0x3d1aee71	0.03782505
174	0x3c9d3b9b	0.019193461
175	0x3d5e21dc	0.05423151
176	0x3d26db0b	0.04073624
177	0xb89408d4	-7.058834e-05
178	0x3ce04ecb	0.027381321
179	0x3d8ca50d	0.068674184
180	0xbcc7f050	-0.024406582
181	0x3c80a155	0.01570193
182	0x3d4d42c3	0.050112497
183	0xbcbf3c2d	-0.023344124
184	0x3cbcea1a	0.023060847
185	0x3d036a63	0.03208388
186	0xbcd61a13	-0.02613548
187	0x3cce0206	0.02514745
188	0x3cd510e7	0.026009036
189	0xbd162207	-0.036653545
190	0xbbe22283	-0.006901087
191	0x3cf3da62	0.029767219
192	0x3c4db519	0.012555384
193	0xbd7ccb2a	-0.06171719
194	0xbc787551	-0.015164689
195	0xbd52fc13	-0.051509928
196	0x3bf0ba0f	0.0073463987
197	0xbd08bda2	-0.033383973
198	0x3cd47e00	0.025938988
199	0xbcd113e6	-0.025522184
200	0xbc8a2617	-0.016863866
201	0xbcaf9b5a	-0.021436382
202	0x3b62be37	0.003459824
203	0x3b92ade2	0.004476295
204	0xbc76814c	-0.015045475
205	0xbd31d2f8	-0.043414086
206	0x3c224110	0.009903207
207	0xbd8d99d5	-0.06914107
208	0x3c9ae4dd	0.018907959
209	0xbcf679d9	-0.030087398
210	0xbc137493	-0.008999961
211	0xbd058b2f	-0.03260344
212	0x3cd99b20	0.026563227
213	0xbd6f4cd5	-0.058422882
214	0x3be32337	0.006931688
215	0x3cc08463	0.023500627
216	0x3b3e7d20	0.002906628
217	0xbd71e099	-0.059052084
218	0xbc550b93	-0.013003248
219	0xbc0067d9	-0.007837259
220	0xbb94d5a7	-0.004542071
221	0x3d1150ec	0.035477564
222	0xbb9fe804	-0.0048799533
223	0xbcf5d130	-0.030006975
224	0x3c3bd25a	0.011463726
225	0xbd9ebcf2	-0.07750882
226	0xbbc19936	-0.0059081567
227	0x3bd663b3	0.006542647
228	0x3d0b9b93	0.034083914
229	0x3a4fdd34	0.0007929385
230	0x3d09bddb	0.033628326
231	0xbaaf0fcf	-0.0013356152
232	0xbc921df7	-0.017836554
233	0xbc9441aa	-0.018097717
234	0xbc667907	-0.014066941
235	0x3b541512	0.0032361192
236	0x3cc76af2	0.024342988
237	0xbafd618e	-0.0019331442
238	0x3d1d7517	0.038441744
239	0xbd016f48	-0.031600267
240	0x3d43e8d4	0.047829464
241	0x3d691ce3	0.056912314
242	0x3c4762dc	0.012169566
243	0x3c8bddde	0.017073568
244	0xbc722ac9	-0.014780709
245	0x3bea4fa1	0.007150606
246	0xbb0ea3d7	-0.0021765137
247	0x3c0b062c	0.008485358
248	0x3cb94dcb	0.022620102
249	0x3aa512ac	0.0012594066
250	0x3c4b81ae	0.012421055
251	0x3b3863eb	0.0028135728
252	0x3cd7f031	0.02635965
253	0xbd20b8a3	-0.039238583
254	0x3d1d29d5	0.038369972
255	0xbcc8b629	-0.024500923

stage2.block1.bn2.weight f4 [32]
0	0x3eb4f0eb	0.35340056
1	0x3ea380d3	0.31934223
2	0x3eb015a0	0.343915
3	0x3e94d52d	0.2906889
4	0x3ea592f1	0.3233867
5	0x3e96c2c1	0.2944546
6	0x3e967583	0.2938653
7	0x3eb203e7	0.34768602
8	0x3ea795c1	0.3273144
9	0x3eaa0188	0.33204293
10	0x3eab6f75	0.33483472
11	0x3ea6c7e9	0.32574394
12	0x3eac0e0c	0.33604467
13	0x3e9f8c56	0.31161755
14	0x3ea070d1	0.31336072
15	0x3ea14a69	0.31502083
16	0x3eafe932	0.343576
17	0x3ea17f7c	0.31542575
18	0x3e990abc	0.29891002
19	0x3e8d1275	0.27553144
20	0x3ea44b54	0.3208872
21	0x3e9b6b36	0.30355233
22	0x3e95a522	0.2922755
23	0x3e9eed2f	0.31040332
24	0x3e93f8c8	0.28900743
25	0x3e9d2037	0.3068864
26	0x3ea74029	0.32666138
27	0x3ea8db63	0.3297988
28	0x3ea11834	0.31463778
29	0x3ea96406	0.33084124
30	0x3e8e7199	0.27821043
31	0x3eb8f19e	0.3612184

stage2.block1.bn2.bias f4 [32]
0	0x3d11eed4	0.035628155
1	0xbaed16dd	-0.0018088479
2	0xbcc77a16	-0.024350207
3	0xbd1366d0	-0.03598672
4	0xbd810203	-0.06299212
5	0xbcae9756	-0.021312397
6	0xbceca236	-0.028885942
7	0xbd0f0a18	-0.034921736
8	0xbce174ba	-0.02752148
9	0x3bf13e37	0.007362153
10	0xbcf882e0	-0.030335844
11	0xbd1310d5	-0.035904724
12	0xbc737857	-0.014860234
13	0xbac526dc	-0.0015041488
14	0xbc3b0f1e	-0.011417178
15	0x3c9c40f8	0.019073948
16	0xbc478ef4	-0.012180079
17	0xbd4e248b	-0.05032782
18	0xbbc950bd	-0.006143658
19	0xbd262a47	-0.040567663
20	0x3d23eaec	0.04001896
21	0xbc2d4dd0	-0.010577634
22	0xbc525a7c	-0.012838956
23	0xbcd6ff8c	-0.026244901
24	0x3bab5a25	0.005229252
25	0xbbf34a74	-0.007424647
26	0xb873f59c	-5.8164456e-05
27	0xbc5dabe3	-0.0135297505
28	0xbc0d8326	-0.008637225
29	0xbc86ffb2	-0.016479347
30	0xbc3eddbf	-0.011649548
31	0x3c97e058	0.018539593

stage2.block1.bn2.running_mean f4 [32]
0	0xbe09e6fd	-0.13467021
1	0xbcaaf73a	-0.02086984
2	0xbda8ae49	-0.08236367
3	0x3d518e15	0.05116089
4	0x3d092da9	0.03349081
5	0xbd4022c9	-0.046908174
6	0x3cc368fe	0.023853775
7	0x3c7350b1	0.014850781
8	0xbb5fb2d9	-0.00341337
9	0x3be7815a	0.0070649805
10	0xbd28587e	-0.041100018
11	0xbd51d072	-0.05122418
12	0xbc93939d	-0.018014723
13	0x3c1ee106	0.009697204
14	0xbce55b36	-0.027997594
15	0xbc898b75	-0.016790131
16	0x3d916e79	0.07101149
17	0xbd8b243c	-0.067940205
18	0x3dc7af43	0.097502254
19	0xbc1e531c	-0.0096633695
20	0xbddd7dbc	-0.108149976
21	0xbd824104	-0.06360057
22	0xbcaa23c1	-0.020769002
23	0xbd1eb07a	-0.03874252
24	0xbcf0ec13	-0.029409444
25	0x3bfdae79	0.007741746
26	0xbdda18b1	-0.10649241
27	0xbd9c6f1e	-0.076383814
28	0x3d86b994	0.06578365
29	0xbd7dea46	-0.061991
30	0x3c58f000	0.013240814
31	0xbdb855e3	-0.090007566

stage2.block1.bn2.running_var f4 [32]
0	0x3c07b4f4	0.008282889
1	0x3c16c6fd	0.009202716
2	0x3c07106e	0.008243663
3	0x3c20a403	0.009804728
4	0x3c2c37b4	0.010511328
5	0x3bc33444	0.0059571583
6	0x3bf17f3d	0.0073699043
7	0x3c101b84	0.008795623
8	0x3be930b9	0.007116404
9	0x3bfa2fdf	0.007635101
10	0x3bbd05ce	0.0057685142
11	0x3c1fe328	0.009758748
12	0x3c1dcb13	0.009630936
13	0x3bca819f	0.006180003
14	0x3be7082c	0.0070505347
15	0x3b9ded67	0.0048195603
16	0x3beb5bf7	0.007182594
17	0x3bdd39c8	0.006751273
18	0x3c0eb358	0.008709751
19	0x3bd189f8	0.006394621
20	0x3c1ddd8e	0.009635342
21	0x3bbae0b2	0.0057030553
22	0x3bf70a5d	0.007539077
23	0x3bd488ca	0.006486033
24	0x3bbed484	0.0058236737
25	0x3be4ce2b	0.006982585
26	0x3c263953	0.010145503
27	0x3bc785fc	0.00608897
28	0x3bf61662	0.0075099925
29	0x3beaf85a	0.007170719
30	0x3c3048bc	0.010759529
31	0x3bfc05d8	0.0076911263

stage2.block1.conv2.weight f4 [32, 32, 3, 3]
0	0xbcf91248	-0.030404225
1	0xbd199406	-0.03749468
2	0x3b78cbb2	0.0037963209
3	0x3d1dd0bf	0.038529154
4	0x3c392b24	0.011301789
5	0xbc20bc51	-0.009810523
6	0x3c966403	0.018358236
7	0xbbaf217b	-0.0053445674
8	0xbc903c90	-0.017607003
9	0xbd137475	-0.035999734
10	0xbc209be9	-0.009802797
11	0xbcbf0f64	-0.023322769
12	0xbcd9bce8	-0.026579335
13	0x3d0db534	0.034596637
14	0x3c87f2a4	0.016595192
15	0x3d35e34e	0.044406228
16	0xbbdfa647	-0.0068252417
17	0xbc4040e2	-0.011734219
18	0x39c54d89	0.00037632536
19	0xbd98b9a2	-0.07457282
20	0x3d0a70a0	0.033798814
21	0xbc8f202e	-0.0174714
22	0xbc61e47b	-0.013787384
23	0xbd54e76d	-0.051978517
24	0x3c25424f	0.01008661
25	0xbc1ff2ce	-0.009762479
26	0x3bed5879	0.007243213
27	0xbc2eb1a8	-0.010662474
28	0x3cbcda15	0.023053208
29	0xbc3ca198	-0.011513136
30	0xb9bbe59f	-0.000358385
31	0x3c3bd910	0.011465326
32	0xba874e34	-0.0010322989
33	0x3cc5563f	0.024088977
34	0xbb545ed4	-0.0032405155
35	0xbb8f5578	-0.0043742023
36	0xbd8e6c2e	-0.069542274
37	0xbd3159a3	-0.043298375
38	0x3d12402a	0.035705723
39	0xbd044161	-0.032288913
40	0x3c20c519	0.009812617
41	0xbd2160fd	-0.039399136
42	0xbc2dc2e1	-0.010605545
43	0xbc0c2f73	-0.008556235
44	0xbc85750d	-0.016291166
45	0xbca8c84b	-0.02060332
46	0xbc7fc19e	-0.015610127
47	0x3bfe719a	0.007765007
48	0xbcab3c8c	-0.020902894
49	0xbce0037b	-0.02734541
50	0xbc608719	-0.013704085
51	0x3c7bc7c2	0.01536745
52	0xbcdc9374	-0.02692578
53	0x3d49934e	0.049212746
54	0xbc9b047f	-0.018923042
55	0xbd2ac1cc	-0.041688725
56	0x3c087762	0.008329244
57	0xbd0678af	-0.032829937
58	0xbcb65b7b	-0.022260418
59	0xbcf9f5c4	-0.030512698
60	0x3c805475	0.015665272
61	0x3d1360d4	0.035981014
62	0x3cb93a61	0.022610845
63	0xbc4bbbfa	-0.012434954
64	0x3c5fb290	0.013653412
65	0x3d4d40a5	0.050110478
66	0xbd20c8b4	-0.039253905
67	0x3c6c619a	0.014427567
68	0x3ce3a5d3	0.027789032
69	0xbd24f734	-0.040274814
70	0x3a37c23a	0.0007009838
71	0xbc8f116c	-0.017464362
72	0x3c8c2cd4	0.01711122
73	0xbb7b9165	-0.0038386222
74	0x3d2dc7ae	0.042426758
75	0xbc4584c7	-0.012055582
76	0x3cd45d0d	0.025923276
77	0xbc76dbd6	-0.015067061
78	0x3d303deb	0.0430278
79	0xbb95abf2	-0.0045676166
80	0xbd7efe33	-0.062254142
81	0x3bbf34cc	0.0058351513
82	0xbcf16eb8	-0.02947174
83	0x3b683e2c	0.0035437448
84	0x3c264e8b	0.010150562
85	0xbc8c65f9	-0.017138468
86	0xbd12a723	-0.035803925
87	0xbb5d3ca8	-0.0033758078
88	0x3bc23688	0.005926911
89	0x3d645c73	0.05575223
90	0xbbf1133f	-0.0073570306
91	0x3cfafb10	0.030637294
92	0xbb20ac3e	-0.0024516727
93	0x3b2e4750	0.0026592799
94	0xbbd68a53	-0.0065472513
95	0x3d69e340	0.057101488
96	0xbc829391	-0.015939506
97	0x3c89cbd4	0.016820826
98	0x3c9b7aad	0.018979395
99	0xbcd973f2	-0.026544545
100	0x3bc0ca88	0.0058835186
101	0x3cc8e158	0.024521515
102	0xbcd226c7	-0.025653256
103	0xbcd26922	-0.025684897
104	0x3ccbc7dc	0.024875574
105	0x3a840581	0.0010072441
106	0xbd4c09b7	-0.049813952
107	0x3c2cfb79	0.010558003
108	0xbc04ac16	-0.008097669
109	0xbd0e37af	-0.034721073
110	0xbcccde84	-0.025008447
111	0x3ae447d1	0.0017416422
112	0xbc8b6933	-0.017017936
113	0xbd503e3e	-0.05084061
114	0x3d271633	0.040792655
115	0xbb1257a7	-0.0022330077
116	0xbc24673b	-0.010034378
117	0x3cb96295	0.022630015
118	0x3d07bb4b	0.0331376
119	0xbd0def13	-0.034651827
120	0x3d458a0d	0.04822736
121	0x3c1997f7	0.00937461
122	0xbcdb3e87	-0.026763214
123	0xbc59bcc4	-0.013289634
124	0x3cc23f46	0.023711812
125	0xbd7bd90b	-0.061486285
126	0x3cbc6ac5	0.02300013
127	0x3b8034d0	0.0039125457
128	0x3a93d605	0.0011278993
129	0x3c34b3ab	0.011029164
130	0xb9d5804c	-0.00040722114
131	0xbb25faba	-0.0025326447
132	0xbc509c50	-0.01273258
133	0x3cfed0e3	0.031105464
134	0x3d5197bb	0.051170092
135	0x3d812d47	0.06307464
136	0x3d8c43a4	0.06848839
137	0xbb0580cd	-0.002037096
138	0xbce9e4c2	-0.028551463
139	0x3be72ee7	0.0070551517
140	0x3d00c3ec	0.031436846
141	0x3c5f9274	0.013645757
142	0x3caf65cc	0.021410845
143	0xbc80cfce	-0.015724089
144	0x3cff0a57	0.03113286
145	0x3c4cb7c2	0.012494983
146	0xbce974a0	-0.028497994
147	0x3d0fbfb3	0.035094928
148	0x3d3ddb23	0.046351563
149	0xbc60a5f0	-0.013711438
150	0xbc0f742c	-0.008755725
151	0x3b90d271	0.004419618
152	0x3c909a83	0.017651802
153	0xbd0244b7	-0.031803813
154	0xbc66763d	-0.014066276
155	0xbd3e8f09	-0.046523128
156	0x3c0ce215	0.008598824
157	0xbb03678c	-0.0020050732
158	0x3cec5899	0.02885084
159	0xbcbb8d1e	-0.022894438
160	0xbce7583b	-0.028240314
161	0x3d59dadb	0.053187232
162	0x3d33277e	0.043738835
163	0xbd115844	-0.035484567
164	0xbcedbe76	-0.029021483
165	0x3c76902f	0.0150490245
166	0xbd36758e	-0.044545703
167	0xbc3095cc	-0.010777902
168	0x3cf1033f	0.029420493
169	0x3c042de9	0.008067586
170	0xbd21962d	-0.03944986
171	0x3c860fc3	0.016364938
172	0x3d00588a	0.031334437
173	0x3c4747f2	0.012163149
174	0xbb7fd2e0	-0.0039035603
175	0xbc3a0a93	-0.01135506
176	0xbd3df7b3	-0.046378803
177	0x3c24aba1	0.010050685
178	0x3cae5178	0.021279082
179	0x3ccfe564	0.025377937
180	0x3abadb32	0.0014255999
181	0xb99bc8a2	-0.00029713387
182	0x3d384135	0.04498406
183	0xbc566751	-0.013086156
184	0xbbd75b5e	-0.006572171
185	0x3cf3b505	0.029749403
186	0x39251ad3	0.00015745619
187	0xbd19ec73	-0.03757901
188	0xbcf67de4	-0.030089326
189	0x3cd7749d	0.026300723
190	0x3b880e0f	0.0041520665
191	0xbcf743ea	-0.030183751
192	0xbc6903a8	-0.014222063
193	0x3c55cce6	0.01304934
194	0xbb81cf21	-0.0039614593
195	0x3c983965	0.018582055
196	0xbd5127b1	-0.051063243
197	0xbd44f9ba	-0.04808972
198	0x3d3631e8	0.044481188
199	0x3bf9a5bb	0.0076186336
200	0xbb597c3d	-0.0033185624
201	0xbc5df9e3	-0.013548347
202	0x3d1df851	0.03856689
203	0xbcee8e61	-0.029120626
204	0x3bf62cab	0.007512649
205	0xbd058bef	-0.032604154
206	0xbb8e7f81	-0.0043486957
207	0xbcbf4eff	-0.023353098
208	0x3cddffde	0.027099546
209	0x3d176840	0.036964655
210	0xbc0e665e	-0.008691398
211	0x3c48b8a4	0.012251053
212	0x3cb37ba3	0.02190954
213	0xba1b7d4a	-0.000593145
214	0x3b3c331f	0.0028716994
215	0x3d86b4f3	0.06577482
216	0x3be88328	0.007095713
217	0xbceae9ce	-0.02867594
218	0xbc4dc0f6	-0.0125582125
219	0x3caf797f	0.021420239
220	0xb9fb298e	-0.0004790541
221	0x3ce1d7a0	0.027568638
222	0xbcc1b57f	-0.023646114
223	0xba826886	-0.0009949363
224	0x3d69c84c	0.057075784
225	0xbd31e450	-0.043430626
226	0xbd19f27f	-0.037584778
227	0x3c1b4c0d	0.009478581
228	0x3ccbb2de	0.024865564
229	0x3d29c053	0.04144318
230	0x3c4da19f	0.0125507405
231	0xbc2a7f1a	-0.01040628
232	0xbb0cfe1b	-0.0021513763
233	0x3cc9594e	0.024578717
234	0x3d006944	0.03135039
235	0x3c667bb3	0.014067578
236	0xbd625819	-0.055259798
237	0xbc7051a2	-0.0146679
238	0x3c96961f	0.01838213
239	0xbd64ce1b	-0.05586062
240	0x3d06b3f8	0.032886475
241	0xbcdd6684	-0.027026422
242	0xbcc1639c	-0.023607068
243	0xbcc36abb	-0.023854604
244	0xbc84bfb8	-0.0162047
245	0xbca314c2	-0.019907359
246	0xbd1dd020	-0.03852856
247	0xbc9cadfd	-0.019125933
248	0xbc6dbaf6	-0.014509907
249	0xbcdeb422	-0.027185503
250	0x3c5f2a82	0.0136209745
251	0x3d40d454	0.047077492
252	0xbcf81515	-0.03028349
253	0xbc9e1c5e	-0.019300636
254	0x3b550150	0.0032502003
255	0xbd403be1	-0.046932105

stage2.block1.shortcut.conv.weight f4 [32, 16, 1, 1]
0	0xbb7ae429	-0.0038282967
1	0xbd2aa78d	-0.041663695
2	0x3d821ffb	0.06353756
3	0xbcce3048	-0.025169507
4	0x3dce7086	0.10080056
5	0xbe266c11	-0.16252162
6	0xbd8a42e5	-0.0675104
7	0x3c68f441	0.014218391
8	0x3ba4b95f	0.005026981
9	0xbdbb156f	-0.091349475
10	0xbcc31bdb	-0.023816993
11	0xbd50993c	-0.050927386
12	0x3e021f67	0.12707292
13	0xbd04359e	-0.032277696
14	0xbbf52546	-0.00748125
15	0xbcd8367e	-0.026393171
16	0xba69bfb3	-0.000891681
17	0x3bf7a875	0.0075579234
18	0xbcc2f3cf	-0.023797898
19	0x3c4ed72e	0.012624545
20	0x3d8632d5	0.06552664
21	0x3d9c71b5	0.076388754
22	0xbd27dad8	-0.04098019
23	0x3d37f6d0	0.044913113
24	0x3d73d342	0.059527643
25	0x3df9dd3b	0.122003995
26	0xbccaf724	-0.024776049
27	0x3b8ece82	0.0043581137
28	0x3d1784b6	0.036991797
29	0x3d2beeb9	0.04197571
30	0x3db8c70a	0.09022339
31	0x3cb1faa7	0.021725966
32	0x3d0e503d	0.03474449
33	0x3c92c12b	0.017914375
34	0x3ca57b54	0.020200409
35	0xbd0c453a	-0.034245707
36	0x3ca2b74f	0.019862799
37	0xbc64fa31	-0.013975666
38	0xbc3219b9	-0.010870391
39	0x3e1fc54f	0.15602611
40	0xbdafd214	-0.08584991
41	0xbd1fabed	-0.03898232
42	0xbd9e173f	-0.077192776
43	0x3dfcaee2	0.12338044
44	0x3b6832ca	0.0035430663
45	0xbdfae7d3	-0.12251248
46	0xbda5fe79	-0.081051774
47	0xbc6038ee	-0.013685448
48	0x3c474572	0.012162553
49	0x3beb430e	0.0071796244
50	0xbd7c2388	-0.061557323
51	0xbdd37898	-0.10325736
52	0x3ba8ad79	0.0051476327
53	0x3cd0de24	0.02549655
54	0x3da768dd	0.08174298
55	0x3d09c5d6	0.033635937
56	0xbdec0ae3	-0.11525514
57	0x3c7806fe	0.015138386
58	0x3cd0248d	0.025408054
59	0x3d132619	0.035925005
60	0x3d4b635e	0.04965531
61	0x3da83129	0.082125016
62	0xbd004ef8	-0.03132531
63	0x3d18b4a8	0.037281662
64	0x3c171f6b	0.009223799
65	0xbdff7da5	-0.12475137
66	0xbd213c95	-0.039364416
67	0xbdee597a	-0.1163816
68	0x3ce757ad	0.02824005
69	0x3dae462a	0.085094765
70	0xbe35d176	-0.17755684
71	0xbdb698fc	-0.08915898
72	0x3d314821	0.043281678
73	0xbd2bf976	-0.04198595
74	0x3d936d05	0.07198528
75	0xbdfb089c	-0.122575015
76	0xbdb335ed	-0.0875052
77	0x3cb5c373	0.022187924
78	0x3d87afdb	0.06625339
79	0xbd53f529	-0.051747475
80	0xbc046c9a	-0.008082533
81	0xbd140a6f	-0.036142763
82	0xbd4973c6	-0.049182676
83	0x3d9120a1	0.070863016
84	0x3c63cf52	0.0139044095
85	0x3da129a1	0.07869268
86	0xbcea8f07	-0.028632654
87	0xbdc7b1a4	-0.09750679
88	0x3dad7ccd	0.084710695
89	0x3d8a1915	0.06743065
90	0xbc6f281a	-0.014596963
91	0x3dc54da6	0.09633951
92	0x3d7bf531	0.06151313
93	0xbd4f55f3	-0.050619077
94	0xbd5f99ea	-0.054590143
95	0x3c9e1435	0.019296745
96	0xbd1b1f8d	-0.037871886
97	0xbe0e3abb	-0.13889591
98	0xbd40cd9a	-0.047071077
99	0xbcd00ed8	-0.025397703
100	0xbe47f8a5	-0.19528444
101	0xbd789de3	-0.060697448
102	0xbdd517a5	-0.104049005
103	0xbd5d8725	-0.054083962
104	0x3d265a83	0.040613662
105	0xbd859a6f	-0.065235965
106	0x3da7a70f	0.08186161
107	0xbd42233a	-0.047396876
108	0xbd89498c	-0.06703481
109	0xbd5a73f5	-0.05333324
110	0x3e0c32e4	0.13691288
111	0xbd0887b8	-0.033332556
112	0x3cf6dccd	0.030134583
113	0xbe0f3593	-0.1398528
114	0xbcee898b	-0.02911832
115	0xbda62f17	-0.081144504
116	0x3c4a13ac	0.012333792
117	0x3dc9a281	0.09845448
118	0xbd91f1c6	-0.07126193
119	0x3c984581	0.01858783
120	0xbd0a758c	-0.033803508
121	0x3de5fad5	0.11229483
122	0x3dbd22de	0.09235166
123	0x3cc0cf12	0.023536239
124	0xbd90f353	-0.070776604
125	0x3be788f2	0.0070658857
126	0xbd4356de	-0.047690265
127	0xbdb8f4a1	-0.09031034
128	0x3ce6ade9	0.028159099
129	0x3d9ffdfc	0.078121156
130	0xbcd50725	-0.026004383
131	0xbcd9c446	-0.026582848
132	0xbd0835d3	-0.033254456
133	0xbb054ae0	-0.0020338818
134	0xbe363a11	-0.17795588
135	0xbe02f013	-0.12786894
136	0xbd56680a	-0.052345313
137	0xbdfc9001	-0.12332154
138	0x3e0050d3	0.12530832
139	0xbd13cab0	-0.03608197
140	0xbd6054be	-0.054768316
141	0xbcc702af	-0.024293272
142	0xbd55fb21	-0.05224145
143	0xbd23415d	-0.039857257
144	0x3e0966e4	0.13418156
145	0xbd2e8f34	-0.042617038
146	0xbdb6b5dc	-0.08921406
147	0x3dcaf095	0.09909169
148	0x3de57dfc	0.1120567
149	0xbd00e45d	-0.031467784
150	0x3dda6eab	0.106656395
151	0xbdbf12d9	-0.09329767
152	0xbd29bf20	-0.041442037
153	0x3d83057a	0.06397529
154	0xbd841269	-0.06448824
155	0x3dc4801d	0.09594748
156	0xbe3922a8	-0.18079627
157	0x3dbf0781	0.09327603
158	0xbdaa44de	-0.083139166
159	0xbe3a17fa	-0.18173209
160	0xbd9d5aff	-0.07683372
161	0xbb9ac43f	-0.0047231014
162	0xbd94bb6b	-0.0726231
163	0x3da8f4dc	0.08249828
164	0xbd2e97ce	-0.04262524
165	0xbe07a523	-0.13246588
166	0xbc9c49f3	-0.01907823
167	0x3c858a53	0.01630131
168	0x3c3d1591	0.011540786
169	0xbd3ffcb9	-0.046871874
170	0x3cb4479c	0.022006802
171	0x3b216faa	0.0024633207
172	0xbc991ca4	-0.018690415
173	0xbdc53037	-0.09628337
174	0x3de4afa0	0.1116631
175	0xbc23887c	-0.009981271
176	0x3d3b9ecf	0.04580575
177	0x3de78d2d	0.11306224
178	0xbcbffc8b	-0.023435852
179	0xbd9609f4	-0.07326117
180	0xbe0373ae	-0.12837097
181	0xbda87165	-0.08224753
182	0xbe1ed3ba	-0.15510455
183	0x3d342019	0.043975923
184	0x3badde0f	0.0053060125
185	0xbccc3d85	-0.024931679
186	0x3d0f26ec	0.03494923
187	0xbdbc5e24	-0.091976434
188	0xbddce497	-0.107857876
189	0xbe15f129	-0.14642777
190	0x3e0b9091	0.13629366
191	0xbccf9015	-0.025337258
192	0x3d1a665e	0.03769528
193	0xbd7486f7	-0.059699025
194	0x3cc2d4a7	0.023783041
195	0xbc7dd478	-0.015492551
196	0xbae316e9	-0.0017325553
197	0xbe20de1a	-0.15709725
198	0x3dfc7d39	0.12328572
199	0x3d77ca96	0.060495935
200	0x3c920ee5	0.017829368
201	0x3da0e207	0.07855611
202	0xbc9faced	-0.019491637
203	0x3d79b254	0.060961083
204	0x3d7a7008	0.061141998
205	0xbddf6efd	-0.10909841
206	0xbd561d3e	-0.05227398
207	0xbe043d4e	-0.12914011
208	0x3ce4aa4c	0.027913235
209	0x3da29a42	0.079395786
210	0xbcf36d2d	-0.029715145
211	0xbd45a84a	-0.048256196
212	0x3b1c60d2	0.002386142
213	0x3d0bbabc	0.03411363
214	0xbc0191bb	-0.00790828
215	0x3d363726	0.044486187
216	0x3cc20575	0.023684243
217	0xbd39ee35	-0.045393188
218	0xbe4edb87	-0.2020093
219	0x3d3e51c3	0.046464693
220	0xbd18cc1c	-0.03730403
221	0xbde5d921	-0.11223055
222	0xbd37681b	-0.044777017
223	0xbd0253e9	-0.031818304
224	0xbdabff1a	-0.08398266
225	0xbc7d1756	-0.015447458
226	0xbde2b41d	-0.1106951
227	0xbdf445e8	-0.11927396
228	0xbd98858d	-0.07447348
229	0x3d8768f0	0.06611812
230	0x3d54b3df	0.05192935
231	0x3e063bb1	0.13108708
232	0x3c543c01	0.012953759
233	0x3a803427	0.0009781168
234	0xbca51eae	-0.02015623
235	0x3c01e2c6	0.007927602
236	0xbda24263	-0.079228185
237	0x3cb6511c	0.022255473
238	0xb946ff4a	-0.00018977854
239	0x3d81121a	0.06302281
240	0x3cf7b5fe	0.030238148
241	0x3d7080e2	0.058716662
242	0x3ddea9db	0.10872241
243	0xbc867b33	-0.016416168
244	0xbd6ed98c	-0.058312938
245	0x3c5b1cdb	0.013373579
246	0x3d19f026	0.03758254
247	0xbba56576	-0.0050474955
248	0xbc008b3c	-0.007845696
249	0xbd9df1ad	-0.077121116
250	0x3d7dd534	0.061970904
251	0xbc7d803a	-0.015472466
252	0x3e4f3df4	0.20238477
253	0x3bb7bea1	0.0056074415
254	0x3c3db167	0.011577941
255	0x3dfa3663	0.12217405

stage3.block1.bn1.weight f4 [32]
0	0x3e821b73	0.25411567
1	0x3e8559be	0.2604503
2	0x3e89108a	0.2677043
3	0x3e97d7f5	0.2965695
4	0x3e85ce11	0.2613378
5	0x3e93a9be	0.2884044
6	0x3e813466	0.2523529
7	0x3e8bdb3a	0.27315694
8	0x3e87600f	0.26440474
9	0x3e853a3e	0.26020998
10	0x3e769da4	0.24083573
11	0x3e82f68d	0.25578728
12	0x3e8de45a	0.2771328
13	0x3e873073	0.2640415
14	0x3e95014c	0.29102552
15	0x3e873ae7	0.26412126
16	0x3e990ba0	0.29891682
17	0x3e774ca9	0.24150337
18	0x3e853c83	0.2602273
19	0x3e8c9d71	0.27463868
20	0x3e90f41d	0.28311244
21	0x3e8bbd2c	0.27292764
22	0x3e976172	0.29566532
23	0x3e8c985c	0.2745999
24	0x3e97dd7d	0.2966117
25	0x3e91a0a7	0.2844288
26	0x3ea21767	0.3165848
27	0x3e93a3e0	0.28835964
28	0x3e69da85	0.22837265
29	0x3e9ebec8	0.3100493
30	0x3e8aa1c2	0.27076536
31	0x3e8bbd91	0.27293065

stage3.block1.bn1.bias f4 [32]
0	0xbd2ead73	-0.042645883
1	0xbd6782e3	-0.056521308
2	0xbd0c6cad	-0.03428333
3	0xbd6428f6	-0.055703126
4	0xbd13c680	-0.036077976
5	0xbc768402	-0.015046122
6	0xbd2f784e	-0.04283934
7	0xbd3b023b	-0.045656424
8	0x3c506c5c	0.012721147
9	0xbccf7b01	-0.025327208
10	0xbd43eaf1	-0.04783148
11	0xbcbbf839	-0.02294551
12	0xbb57e579	-0.0032943173
13	0xbd31cde5	-0.043409247
14	0xbd550ad4	-0.05201228
15	0xbd045efb	-0.032317143
16	0xbd321ada	-0.04348264
17	0xbcd69bec	-0.026197396
18	0xbd1ac761	-0.0377878
19	0xbce8cca7	-0.028417898
20	0xbc36d5fc	-0.011159416
21	0xbd993ed2	-0.07482685
22	0xbc5ef14c	-0.013607334
23	0xbcecc1a0	-0.028900921
24	0xbd295e37	-0.041349616
25	0xbd7ce2e4	-0.061739817
26	0xbde3051b	-0.11084958
27	0xbc5a1ad3	-0.013312059
28	0xbd4e657a	-0.050389744
29	0xbd5484b8	-0.051884383
30	0xbdb64308	-0.08899504
31	0xbcfd10a8	-0.030891731

stage3.block1.bn1.running_mean f4 [32]
0	0xbd6aab14	-0.05729206
1	0xbd940969	-0.07228357
2	0xba49b4fe	-0.00076945114
3	0xbd25d830	-0.040489376
4	0xbc81e02f	-0.01585397
5	0x3c2cfe45	0.010558669
6	0xbda332cb	-0.07968672
7	0xbd2c67e4	-0.042091265
8	0xbd29cf0b	-0.041457217
9	0xbd7c4398	-0.0615879
10	0xbdcf84e1	-0.101327665
11	0xbd33a565	-0.043858904
12	0xbd272b76	-0.040812932
13	0x3cac4ab8	0.021031722
14	0xbdeef772	-0.1166829
15	0xbbf8d423	-0.007593648
16	0xbdf26da4	-0.118373185
17	0x3d969bd3	0.0735394
18	0xbd5fc071	-0.054626886
19	0xbd66660c	-0.056249663
20	0xbd663481	-0.056202415
21	0xbcc73bc8	-0.024320498
22	0xbdc03202	-0.09384538
23	0xbe26638a	-0.16248909
24	0xbd9479b3	-0.07249775
25	0x3b7b4b41	0.0038344415
26	0xbdce4947	-0.1007257
27	0xbe366fce	-0.17816088
28	0x3d344d55	0.044019062
29	0xbd35be32	-0.044370838
30	0xbda1b020	-0.07894921
31	0xbcf91f4b	-0.03041043

stage3.block1.bn1.running_var f4 [32]
0	0x3c89d2d2	0.01682416
1	0x3c822f40	0.015891671
2	0x3c69a2cc	0.014260005
3	0x3c98b7a8	0.018642262
4	0x3ccd120d	0.025033021
5	0x3c96fc97	0.018430991
6	0x3c89c7ee	0.016818967
7	0x3c5e5e50	0.013572291
8	0x3c8bdac6	0.017072093
9	0x3ca4af17	0.02010302
10	0x3c83c596	0.016085427
11	0x3c934928	0.01797922
12	0x3ca0f2e5	0.019647071
13	0x3c8e7c0d	0.017393136
14	0x3c7e0978	0.015505187
15	0x3c903016	0.017601054
16	0x3cb2d64a	0.021830697
17	0x3ce1eb8a	0.027578134
18	0x3c84557c	0.016154043
19	0x3c94b160	0.018150985
20	0x3cc1750c	0.023615383
21	0x3c42296c	0.011850696
22	0x3c93c899	0.018039988
23	0x3c8500f5	0.016235808
24	0x3c8c2f89	0.01711251
25	0x3c88bfaf	0.016692964
26	0x3c92b7dc	0.017909937
27	0x3ca48fac	0.02008804
28	0x3c91724c	0.017754696
29	0x3cbdf966	0.023190212
30	0x3c5e3e6c	0.013564687
31	0x3ca171a5	0.01970751
