experiments/mpiigaze/resnet_preact/exp00/00/checkpoint_0040.pth (torch, 642256 bytes, 64 tensors)

conv.weight f4 [16, 1, 3, 3]
0	0xbe11b968	-0.14230883
1	0xbd213ef3	-0.039366674
2	0x3d97a15d	0.074038245
3	0xbdb7d832	-0.08976783
4	0x3cf8d6d9	0.030375885
5	0x3df005c8	0.11719853
6	0xbd34ed72	-0.044171758
7	0xbccb8a1b	-0.024846127
8	0x3c0bba84	0.0085283555
9	0xbd2b040c	-0.041751906
10	0xbc74edf3	-0.01494931
11	0x3df42ae1	0.11922241
12	0xbdb35ebb	-0.08758303
13	0xbd34c305	-0.044131298
14	0x3dee1036	0.11624186
15	0xbd134b5c	-0.03596054
16	0xbdadcf70	-0.08486831
17	0x3aeef7b1	0.0018231777
18	0x3d720a49	0.05909184
19	0x3db947ca	0.09046896
20	0x3e0c7f29	0.13720383
21	0xbdae749a	-0.08518334
22	0xbcc3ec15	-0.023916284
23	0x3d0c431b	0.034243684
24	0xbdb80f90	-0.08987343
25	0xbd6e1cc9	-0.05813292
26	0xbcc44cc4	-0.023962386
27	0x3d35212a	0.04422108
28	0x3cfeb779	0.031093346
29	0x3d18f885	0.03734638
30	0x3b4f9f00	0.0031680465
31	0x3afe3d37	0.0019396906
32	0xbb82d93d	-0.003993182
33	0x3b3d8acb	0.0028921838
34	0x3c144254	0.009049017
35	0x3b1581e1	0.002281301
36	0x3cb60f19	0.022223996
37	0x3c1d7778	0.009611003
38	0xbc4c6cbb	-0.012477095
39	0x3c67b701	0.014142753
40	0x3a0fedbb	0.00054904417
41	0x3d69bf32	0.057067104
42	0xbce65657	-0.028117342
43	0xbc24a782	-0.010049703
44	0x3d5d0315	0.053958017
45	0xbc773269	-0.015087702
46	0xbdaec819	-0.08534259
47	0xbda6b853	-0.08140626
48	0xbd54cd9e	-0.051953904
49	0xbd2858f4	-0.041100457
50	0xbd193aa5	-0.037409443
51	0x3db348b1	0.08754099
52	0x3dd97ceb	0.10619529
53	0x3da76dda	0.081752494
54	0x3c9247ab	0.01785644
55	0x3cdfda5f	0.027325807
56	0xbb1b90cd	-0.002373743
57	0xbd18a7d8	-0.037269443
58	0xbd221bdb	-0.039577346
59	0xbcec2908	-0.028828159
60	0xbd1c8479	-0.038212273
61	0xba343e07	-0.0006875698
62	0xbcfb4a02	-0.030674938
63	0x3d1872f4	0.037219003
64	0xbaea4d9a	-0.001787591
65	0x3c407b7f	0.011748194
66	0x3d9d71fb	0.07687756
67	0x3cc3fef7	0.023925288
68	0xbd01de6f	-0.03170627
69	0x3d1bc5e4	0.03803052
70	0xbc4470f1	-0.011989818
71	0xbc228300	-0.009918928
72	0x3d13e99f	0.03611147
73	0xbd40e576	-0.04709383
74	0xbd92c1b5	-0.07165853
75	0xbc4ad8e4	-0.012380812
76	0xbdd3f950	-0.10350287
77	0xbd9ecb60	-0.077536345
78	0x3d1bfe8b	0.038084548
79	0x3cff496e	0.031162944
80	0x3cf7c605	0.03024579
81	0x3e2308b4	0.15921289
82	0x3daf5cca	0.0856262
83	0x3dad2ba6	0.08455591
84	0x3d355606	0.04427149
85	0xbd5f921d	-0.054582704
86	0xbdca6e11	-0.09884275
87	0x3baad31c	0.0052131545
88	0xbde6f65b	-0.11277457
89	0xbe29b1d9	-0.1657175
90	0xbd8f6fe9	-0.07003767
91	0xbd3c6272	-0.045992322
92	0x3d46ba64	0.0485176
93	0xbbef0895	-0.007294724
94	0x3c52ffa6	0.012878334
95	0x3d9be9c4	0.07612947
96	0x3d0190a9	0.0316321
97	0x3c93fe5f	0.01806563
98	0x3d8b9212	0.0681497
99	0x3bc85ed5	0.0061148205
100	0xbba8b526	-0.0051485477
101	0x3c457afa	0.012053246
102	0xbd939721	-0.0720656
103	0xbd814c1d	-0.063133456
104	0xbc0f08de	-0.008730141
105	0xbcae3b27	-0.02126844
106	0x3ce603d9	0.028078007
107	0xbbf513cf	-0.007479168
108	0xbcf5368c	-0.029933237
109	0xbdaa5dd3	-0.08318677
110	0xbde24ff5	-0.11050407
111	0x3dcb1139	0.09915394
112	0x3cd93ddc	0.026518755
113	0xbd95defa	-0.0731792
114	0x3e2ca593	0.16860037
115	0x3d89f831	0.06736792
116	0xbd1adf98	-0.037810892
117	0x3cfa6c65	0.030569265
118	0x3d368ef0	0.04456991
119	0xbcd47453	-0.025934374
120	0xbb9fdd1f	-0.0048786546
121	0x3d5145a1	0.051091794
122	0x3bd4bcf3	0.006492251
123	0xbcf317f0	-0.0296745
124	0x3ccbe6e9	0.02489038
125	0x3bfdecbe	0.007749169
126	0x3dc181f4	0.09448615
127	0xbd6163d2	-0.055026837
128	0xbdda8b31	-0.1067108
129	0x3e165da5	0.1468416
130	0xbccb0d3f	-0.02478659
131	0xbe040e6b	-0.12896125
132	0x3da4b0e7	0.08041554
133	0xbd36bb3f	-0.044612166
134	0xbd6a72e4	-0.057238474
135	0xb98750a9	-0.00025809303
136	0xbc967c4f	-0.018369822
137	0xbd1f91f2	-0.038957544
138	0x3af4d643	0.0018679578
139	0xbbd59f25	-0.0065192156
140	0xbc9497ab	-0.018138727
141	0xbc9dbdec	-0.0192556
142	0xbd11e9a1	-0.035623197
143	0xbcd28fae	-0.025703277

stage1.block1.bn1.weight f4 [16]
0	0x3d9a7ed5	0.075437225
1	0x3d4e080a	0.050300635
2	0x3da04271	0.07825173
3	0x3dc79d28	0.09746772
4	0x3d350f57	0.044204082
5	0x3d8ff538	0.07029194
6	0x3d5c222a	0.05374352
7	0x3da28439	0.07935376
8	0x3e002457	0.12513863
9	0x3dcaeda7	0.0990861
10	0x3dbbc0c5	0.09167627
11	0x3de28930	0.11061323
12	0x3d9aaf43	0.0755296
13	0x3d970a20	0.07374978
14	0x3d8b1c9a	0.06792565
15	0x3d6cba6c	0.057794973

stage1.block1.bn1.bias f4 [16]
0	0x3b9b8b9f	0.0047468687
1	0x3cb95f5f	0.022628484
2	0xbb9bac89	-0.0047507924
3	0xbdc9529e	-0.09830211
4	0xbc27a65b	-0.010232533
5	0x3d0f5b11	0.034998957
6	0xbcb8eed1	-0.022574814
7	0xbd0b1bc0	-0.03396201
8	0xbdcbfd77	-0.09960454
9	0x3d2773f3	0.040882062
10	0xbd51b4ab	-0.05119769
11	0xbdf158f4	-0.117845446
12	0x3cd43171	0.025902482
13	0xbd675e40	-0.05648637
14	0x3cb156f4	0.021647908
15	0xbc163113	-0.009166974

stage1.block1.bn1.running_mean f4 [16]
0	0xbd51b211	-0.051195208
1	0xbd142053	-0.03616364
2	0x3c88134a	0.01661076
3	0x3d7a9fdc	0.06118761
4	0x3d56c52c	0.05243413
5	0xbc9c5cee	-0.019087281
6	0xbd86778b	-0.0656577
7	0x3d839ccc	0.06426391
8	0xbdb5d5d1	-0.08878673
9	0xbcf9e0c8	-0.030502692
10	0x3d8584ce	0.06519471
11	0xbd86ea76	-0.065876886
12	0x3c6e9881	0.014562727
13	0x3d5573e7	0.052112486
14	0xbd432d45	-0.047650594
15	0xbd9fb383	-0.07797911

stage1.block1.bn1.running_var f4 [16]
0	0x3b148b69	0.0022666103
1	0x3afd140b	0.0019308341
2	0x3b46dd4d	0.0030344308
3	0x3aa8beed	0.0012874283
4	0x3a73b63a	0.0009296868
5	0x3b472702	0.003038824
6	0x3ac0901b	0.0014691384
7	0x3ac48a63	0.0014994856
8	0x3b56e93e	0.0032792832
9	0x3bad4e44	0.005288871
10	0x3b047594	0.0020211684
11	0x3abf686e	0.0014603266
12	0x3b63321e	0.0034667323
13	0x3a6cb7e8	0.000903009
14	0x3b3aa28f	0.002847824
15	0x3af86103	0.001894981

stage1.block1.conv1.weight f4 [16, 16, 3, 3]
0	0xbc9aa284	-0.018876322
1	0x3c032777	0.008005015
2	0x3c589fff	0.01322174
3	0xbcaab5d5	-0.020838657
4	0xbc33242a	-0.010933915
5	0xbc96f9bd	-0.018429631
6	0xbcf3678b	-0.02971246
7	0xbcb54800	-0.022129059
8	0xbccd4c04	-0.025060661
9	0x3bc7c057	0.0060959267
10	0x3c3408ab	0.010988395
11	0x3c724c55	0.014788707
12	0xbbc0d286	-0.0058844713
13	0xbba3d98b	-0.0050002984
14	0xba8343d4	-0.0010014721
15	0xbccbd824	-0.024883337
16	0xbccea749	-0.025226252
17	0xbc95e3e0	-0.018297136
18	0x3c9f79ef	0.019467322
19	0x3c4ccb14	0.0124995895
20	0x3c5125f7	0.012765399
21	0xbc8e7cb5	-0.01739345
22	0xbc195121	-0.009357722
23	0xbaab4f17	-0.0013069835
24	0xbd2d1f93	-0.04226644
25	0xbce384ca	-0.02777328
26	0xbce4b802	-0.027919773
27	0xbb16bbef	-0.00230002
28	0x3c95f8cc	0.018307112
29	0x3d251680	0.04030466
30	0xbc6d5942	-0.014486613
31	0x3b0c2d5b	0.0021389339
32	0x3c8bde81	0.017073872
33	0xbccb2e28	-0.024802282
34	0xbc44d748	-0.012014218
35	0x3bc81787	0.0061063203
36	0x3bc8e495	0.0061307647
37	0x3c196a1a	0.0093636755
38	0x3cf4fa7a	0.029904593
39	0xbb8d89bb	-0.0043193973
40	0xba9388b0	-0.0011255946
41	0x3c6d25dc	0.014474358
42	0xbc86c5dd	-0.01645177
43	0xbb06e4f9	-0.0020583256
44	0x3c005d77	0.007834784
45	0xbb613110	-0.003436152
46	0x3ab26a03	0.0013611916
47	0xbca42cd9	-0.020040916
48	0x3bea27e1	0.007145867
49	0x3c2db845	0.010603015
50	0xbc8440dd	-0.01614421
51	0x3af0e4b5	0.0018378707
52	0xbc2966df	-0.010339468
53	0xbccb1c02	-0.024793629
54	0xbc15ca0a	-0.009142408
55	0xbc212a83	-0.009836796
56	0xbbf1e7df	-0.0073823775
57	0xbc511dbb	-0.012763436
58	0xbbbc32f9	-0.005743381
59	0xbb5fe455	-0.0034163196
60	0x3b76a179	0.0037632866
61	0x3bd6ec1a	0.006558907
62	0x3bf55a08	0.007487539
63	0xbcb4c574	-0.02206681
64	0x3c2327c7	0.009958214
65	0x3ca9ad6f	0.020712582
66	0xbd047689	-0.032339606
67	0xbbe436f6	-0.0069645597
68	0x3c329f97	0.010902307
69	0xbcdc6779	-0.026904808
70	0xbbbadea7	-0.0057028118
71	0xbac7f2be	-0.0015254838
72	0xbb5bf4aa	-0.003356258
73	0xbb943e4d	-0.0045240284
74	0xbc31b5f0	-0.0108466
75	0xbc175f8a	-0.009239087
76	0xbca77323	-0.020440644
77	0xbc330f64	-0.010928962
78	0xbbdf0cca	-0.0068069445
79	0xbbfe3b9a	-0.00775857
80	0xbb9a9463	-0.004717396
81	0x3b90c6c7	0.0044182274
82	0xbb094650	-0.002094645
83	0xbceab79a	-0.028652001
84	0xbc934298	-0.01797609
85	0xbadcf501	-0.0016857685
86	0xbc78d2d4	-0.015186984
87	0xbcbebf55	-0.023284594
88	0x3b1541f4	0.0022774907
89	0xbd19acf9	-0.037518475
90	0xbd190a7f	-0.037363525
91	0xbc422c2b	-0.011851351
92	0x3c3a7e2d	0.011382622
93	0xbccb8271	-0.024842473
94	0xbbcf5c58	-0.006328147
95	0x3c08e372	0.008355008
96	0x3ba084e5	0.0048986548
97	0x3ba40f8e	0.005006737
98	0x3c8ac4ff	0.016939638
99	0x3be8084d	0.0070810677
100	0x3a61afc6	0.0008609261
101	0x3bd374fd	0.006453155
102	0x39363f82	0.00017380531
103	0x3ae357ec	0.0017344928
104	0x3b6f16a3	0.0036481998
105	0x3bd48f3f	0.006486803
106	0x3c30a43a	0.010781342
107	0x3bc1d1f5	0.0059149214
108	0xbca12a37	-0.01967345
109	0x3986103e	0.00025570573
110	0xbd2ee38a	-0.042697467
111	0x39ed77bb	0.0004529337
112	0x3ca2c0ed	0.019867385
113	0xbc2755fe	-0.010213373
114	0x3ccea43d	0.0252248
115	0x3c9a5664	0.018840022
116	0xbc602a52	-0.013681965
117	0xbbcc9521	-0.0062433635
118	0x3cb0263b	0.021502605
119	0x3cf0d37e	0.029397722
120	0xbd039405	-0.032123584
121	0xbba39615	-0.0049922564
122	0x3bdfb88b	0.006827419
123	0xbd14d29e	-0.036333673
124	0xbbd325d0	-0.0064437166
125	0x3b0864c6	0.0020812019
126	0xbbe17164	-0.0068799723
127	0x3c45c98f	0.012071981
128	0xbd04b54e	-0.032399468
129	0xbd05cd0d	-0.032666255
130	0x3bc49cf4	0.0060001556
131	0xbc8895fd	-0.016673082
132	0xbcfbbf5d	-0.030730898
133	0xbba2b5c5	-0.0049655163
134	0xbc5a8725	-0.013337885
135	0xbc11dc21	-0.0089025805
136	0xbc30ed77	-0.0107988035
137	0xbbc11f97	-0.0058936584
138	0xbc579600	-0.013158321
139	0xbc888bb8	-0.016668186
140	0xbc006143	-0.007835689
141	0x3ae1ac74	0.0017217533
142	0xbb906579	-0.0044066277
143	0x3a48833e	0.0007648951
144	0xba12f44a	-0.000560586
145	0xbc9472a5	-0.018121073
146	0xbc82f1d9	-0.015984463
147	0x3b2e6d3b	0.00266154
148	0xba9b9c72	-0.0011872186
149	0xbc4b3caf	-0.012404605
150	0x3d2d6a09	0.04233745
151	0x3ce585d7	0.028017921
152	0x3bc2ce70	0.0059450194
153	0x3c260a5b	0.010134305
154	0xbbac39ca	-0.0052559124
155	0xbb050f61	-0.0020303356
156	0x3cbcfe86	0.023070585
157	0x3b487268	0.003058577
158	0x3b437de5	0.0029829678
159	0x3cd76c52	0.026296768
160	0x3c506877	0.012720219
161	0x3b90e2a0	0.004421547
162	0x3cd2e019	0.025741624
163	0xb9c8b573	-0.00038282163
164	0xbafc3739	-0.0019242532
165	0x3d0fd847	0.035118368
166	0x3c94f5a6	0.01818354
167	0x3c99402c	0.018707357
168	0xbc97f8fa	-0.018551338
169	0xbb78a46b	-0.0037939798
170	0x3c05d273	0.008167851
171	0x3ceba91a	0.028767157
172	0x3cebc365	0.028779695
173	0x3cc75eb3	0.024337148
174	0x3ae090e5	0.0017133026
175	0x3bffc594	0.0078055356
176	0x3c057ffc	0.00814819
177	0xbc494f2f	-0.012286945
178	0xbca87f78	-0.020568594
179	0xbce01f0b	-0.027358552
180	0x3d1679f0	0.036737382
181	0x3d19f96f	0.037591394
182	0x3ca45a70	0.020062655
183	0x3aef0792	0.0018236509
184	0x3c4963f5	0.012291898
185	0x3b82cd67	0.003991771
186	0xba81fbdb	-0.0009916978
187	0xbb906435	-0.004406477
188	0xbc836749	-0.016040461
189	0xbcb470a7	-0.022026373
190	0xbd27b1a3	-0.040940892
191	0xbd8d9a4b	-0.06914195
192	0x3c321ca6	0.010871088
193	0xbb3eeb8f	-0.0029132103
194	0xbbd000e3	-0.006347762
195	0x3cd2081d	0.025638634
196	0x3cdb5ebc	0.026778571
197	0x3cbf7ec0	0.023375869
198	0xbc348994	-0.011019129
199	0xbc91857b	-0.017763844
200	0xbd17c994	-0.037057474
201	0x3c323b47	0.010878391
202	0xba6602f3	-0.0008774243
203	0xbc9fe818	-0.01951985
204	0x3c80b690	0.015712053
205	0x3c5d29bc	0.01349872
206	0xbbc2f221	-0.005949274
207	0x3cb11f87	0.021621479
208	0x3ceef48d	0.029169345
209	0x3cb4b3a2	0.022058312
210	0xbb006aa3	-0.001959481
211	0xbb2f4f0a	-0.0026749992
212	0xbc0a2cbf	-0.00843352
213	0xb9fb03af	-0.00047877195
214	0xbc4b8d1a	-0.012423778
215	0xbce8b1bc	-0.028405063
216	0xbcade4ee	-0.021227326
217	0xbcb666e1	-0.022265853
218	0xbd3293c3	-0.043597948
219	0x3c75376a	0.014966825
220	0x3c2eadbc	0.010661539
221	0xbca549a8	-0.020176724
222	0x3c1a713b	0.00942641
223	0x3b922b06	0.004460695
224	0xbc60be9c	-0.01371732
225	0x3cd3cd99	0.025854873
226	0x3c669697	0.014073989
227	0x3c3e68e8	0.011621691
228	0x3c0761cb	0.008263062
229	0x3c8fad2d	0.017538631
230	0x3cc4f9f5	0.02404497
231	0xbd443ded	-0.04791062
232	0xbc5b2cba	-0.013377363
233	0x3cbb183e	0.022838708
234	0x3cbc7be0	0.023008287
235	0x3cd2c09a	0.025726605
236	0x3aa1d331	0.0012346265
237	0xbb96a359	-0.0045971093
238	0xbc81f66f	-0.015864579
239	0xbd418393	-0.04724462
240	0xbc656ec1	-0.014003457
241	0xbcbf8702	-0.023379806
242	0xbd33dec3	-0.043913614
243	0x3bd544ea	0.0065084593
244	0xbb40c7f9	-0.0029416068
245	0x3aad7008	0.001323224
246	0x3cfe5d4c	0.031050347
247	0x3cc782d9	0.024354385
248	0x3c327135	0.0108912485
249	0x3d170bec	0.036876604
250	0x3cbc384e	0.022976067
251	0x3c5c9c7f	0.013465046
252	0xbcd1f1ad	-0.025627935
253	0xbd41bbd0	-0.047298253
254	0xbd83b0d4	-0.06430212
255	0xbba77b1d	-0.005111112

stage1.block1.bn2.weight f4 [16]
0	0x3e0ec82e	0.1394355
1	0x3e3226a1	0.17397548
2	0x3df3c7b3	0.11903324
3	0x3e015446	0.12629804
4	0x3dd875c2	0.105693355
5	0x3e2fa0b6	0.1715115
6	0x3e2d9ea9	0.16955055
7	0x3e2a9f0c	0.16662234
8	0x3ddc6557	0.107615165
9	0x3e18c243	0.14917855
10	0x3e1ba55d	0.151998
11	0x3e025413	0.12727384
12	0x3e1e2d6c	0.15447015
13	0x3df16ff7	0.11788934
14	0x3e0bfe2d	0.13671179
15	0x3e2414e5	0.16023596

stage1.block1.bn2.bias f4 [16]
0	0x3b3a0cdf	0.002838902
1	0x3cd5065a	0.026004005
2	0xbc2159f9	-0.009848111
3	0xbcc57bb5	-0.02410684
4	0x3cab61f9	0.02092074
5	0x3d8fd14b	0.07022341
6	0x3c5f89af	0.013643666
7	0xbd2ac2bb	-0.041689616
8	0xbce14ed2	-0.027503405
9	0x3cecd3d6	0.028909605
10	0x3cc0f6bf	0.023555158
11	0x3d0c2a45	0.03422
12	0x3d8b4807	0.068008475
13	0x39cca69e	0.00039034052
14	0x3cd00b9b	0.025396159
15	0xbc536984	-0.012903575

stage1.block1.bn2.running_mean f4 [16]
0	0xbcc8cbd6	-0.024511259
1	0xb903c118	-0.00012565067
2	0x3c7d4e4e	0.015460564
3	0x3b81bf0e	0.003959543
4	0x3a00b2ac	0.00049094367
5	0xbbd7860b	-0.0065772585
6	0xb89ccdc7	-7.476989e-05
7	0x3b4aee9a	0.0030964972
8	0x3a5ca047	0.0008416217
9	0xbc2cb021	-0.010540039
10	0x3bacd0e2	0.005273924
11	0xbca7d3ec	-0.020486794
12	0xbc9b601c	-0.018966727
13	0x3ca9b445	0.020715842
14	0xbc5deb8b	-0.013544927
15	0x3c318a12	0.010836141

stage1.block1.bn2.running_var f4 [16]
0	0x3977492d	0.00023583016
1	0x39f661ab	0.00046993545
2	0x38ea5ee7	0.000111756664
3	0x389a0263	7.343737e-05
4	0x394abd41	0.00019334724
5	0x3942b8d5	0.00018570137
6	0x3975a999	0.00023428201
7	0x393a5ee0	0.00017773686
8	0x3901df80	0.00012385659
9	0x399bc7ec	0.00029712857
10	0x3997cbaa	0.00028952706
11	0x399b9bad	0.0002967989
12	0x39a1f9cb	0.00030894423
13	0x39194312	0.00014616203
14	0x392cb348	0.00016469986
15	0x3971df8e	0.00023066832

stage1.block1.conv2.weight f4 [16, 16, 3, 3]
0	0xbba8802f	-0.005142234
1	0x3b157c2d	0.002280961
2	0x3c2e1d82	0.010627152
3	0xbbada359	-0.0052990136
4	0x3b60ab9b	0.0034281972
5	0x3be0a1da	0.0068552317
6	0xb92f0fd2	-0.00016695194
7	0x3beeecc6	0.007291409
8	0x3ca3472c	0.019931398
9	0x3c9f07dc	0.019412927
10	0x3ccb0a81	0.024785282
11	0x3b589c18	0.0033052024
12	0x3c974994	0.018467702
13	0x3c887182	0.016655687
14	0xbb4e9d1f	-0.0031526757
15	0xb94a0736	-0.00019266907
16	0x3b83f09e	0.0040264865
17	0x3aa29655	0.0012404422
18	0x3c103d00	0.008803606
19	0x3c2b3c4d	0.010451389
20	0x3babf6a4	0.0052479077
21	0xbc1e4147	-0.009659118
22	0xbc05d300	-0.008167982
23	0x3adf87d9	0.0017054036
24	0xbb729745	-0.0037016433
25	0xbc66fa90	-0.014097825
26	0x3acdd0af	0.0015702451
27	0x3c20b7f8	0.009809487
28	0xb94c0855	-0.0001945806
29	0x3b4f7114	0.0031653093
30	0xb96fdc93	-0.00022874986
31	0xbae9306d	-0.0017790921
32	0xbbe22a49	-0.0069020134
33	0xbb76121b	-0.0037547413
34	0xbcadab7c	-0.021199934
35	0xbcaf8aef	-0.021428553
36	0x3d10d7dc	0.03536211
37	0x3c9d08de	0.019169267
38	0xbb3d20a3	-0.0028858564
39	0x3ccc1bf0	0.024915665
40	0x3c2e387f	0.010633587
41	0x3c131105	0.008976226
42	0x3c379b00	0.0112063885
43	0x3bee9926	0.0072814403
44	0x3a92ffc8	0.0011215145
45	0xbd04ff83	-0.032470237
46	0xbc92f0dc	-0.017937116
47	0x3c9462d9	0.01811354
48	0xbd1dac97	-0.038494673
49	0x3bc0cdc6	0.005883905
50	0x3d15f1c5	0.036607523
51	0xbcea7abd	-0.02862298
52	0x3c8177db	0.015804222
53	0x3cd6af2c	0.026206575
54	0xbbde27ca	-0.0067796456
55	0xbc5bb896	-0.013410708
56	0xbc46cc5c	-0.012133684
57	0x3b7f569c	0.0038961535
58	0xbb6e5dcd	-0.0036371828
59	0xbbe8bffc	-0.0071029644
60	0x3ca59f33	0.020217514
61	0x394d5a45	0.00019583952
62	0x3c52cb2b	0.012865822
63	0x3b7fc1ff	0.0039025543
64	0x3ba85034	0.005136514
65	0xbbf534d3	-0.007483104
66	0xbb9c4728	-0.0047692247
67	0x3b9af23d	0.004728584
68	0x3c1a5db4	0.009421755
69	0xbb3fb0a8	-0.0029249582
70	0x3c91b88e	0.017788198
71	0x3c28daef	0.010306104
72	0x3d0fbab7	0.035090175
73	0x3ccb5f9e	0.024825867
74	0xbb0b2005	-0.0021228802
75	0x3c948305	0.018128881
76	0x3c707b12	0.01467778
77	0x39e7a595	0.00044183122
78	0x3c1e5097	0.009662769
79	0x3c9c1ca1	0.01905662
80	0x3abbdf76	0.0014333564
81	0x3ca44f1a	0.02005725
82	0x3c8bafb5	0.017051557
83	0x3c613130	0.013744637
84	0x3c89a087	0.016800178
85	0x3c187b7e	0.009306787
86	0x3be36479	0.0069394675
87	0x3c1803e5	0.009278272
88	0x3c21045b	0.009827699
89	0x3b5481dd	0.0032426037
90	0xba96eb73	-0.0011514261
91	0xbc0d1a50	-0.00861223
92	0x3c9837a6	0.018581223
93	0xbcb4bb02	-0.022061829
94	0xbcdde732	-0.027087782
95	0xbbb0299a	-0.005376053
96	0xbc1786c0	-0.0092484355
97	0xbc9b034a	-0.018922467
98	0xbb6d62ce	-0.0036222222
99	0x3b6db159	0.0036269038
100	0xba909eb9	-0.0011033631
101	0xbc0d5271	-0.008625613
102	0x3b24e483	0.0025160618
103	0xbbfdedac	-0.00774928
104	0xbcb8ef06	-0.022574913
105	0x3cb529e3	0.0221147
106	0x3bcc8a16	0.006242047
107	0xbc504a6a	-0.012713054
108	0x3bd74d81	0.0065705185
109	0x3bb7a8c6	0.005604836
110	0x3bc240b5	0.005928124
111	0x3c96304c	0.018333577
112	0xbb73dd43	-0.003721074
113	0xbad8f24f	-0.0016551706
114	0x3caa2441	0.02076924
115	0xbae2c524	-0.0017301184
116	0x3bd12c14	0.0063834284
117	0x3cc02e94	0.02345971
118	0x3cc4ea3a	0.02403747
119	0x3cdd2a44	0.026997693
120	0xbb65772e	-0.0035013664
121	0x3b646285	0.0034848761
122	0x3af86c48	0.0018953169
123	0x3b3f9e63	0.0029238693
124	0x3c8df14c	0.017326973
125	0x3bc7fa4a	0.006102835
126	0xbaf16083	-0.0018415604
127	0x3b193997	0.0023380273
128	0x3c93455f	0.017977415
129	0xb9a34ddc	-0.00031147792
130	0x3c2d52ff	0.01057887
131	0x3c560286	0.013062125
132	0x3c4d9b15	0.0125491815
133	0x3b93bd84	0.004508676
134	0x3bef51d4	0.007303456
135	0x3c28965b	0.010289754
136	0xbb5ec449	-0.0033991507
137	0x3c017c49	0.007903167
138	0x3bf79b25	0.0075563365
139	0xbc0bc757	-0.008531413
140	0x3bd40d0b	0.0064712814
141	0xbbed0a8b	-0.007233923
142	0xbc003d77	-0.007827154
143	0x3c146f64	0.009059761
144	0xba8165c8	-0.0009872252
145	0x3c2d2459	0.010567748
146	0x3bfceedc	0.007718904
147	0x3b8619a5	0.0040924125
148	0x3bb1c624	0.0054252315
149	0x3be0155c	0.0068384837
150	0xbc3387b3	-0.010957646
151	0x3ad514b3	0.0016256779
152	0x3c0c2324	0.0085533
153	0x3d2779eb	0.040887754
154	0x3bf0b985	0.0073463344
155	0xbcd50cff	-0.026007174
156	0x38d99a38	0.00010376092
157	0x3c93e2b5	0.018052438
158	0x3cb1ba37	0.02169524
159	0xbcd5f0b1	-0.026115747
160	0x3c84aa05	0.016194353
161	0x3d59829d	0.05310308
162	0x3c5697da	0.013097728
163	0xba5adfa4	-0.0008349365
164	0xbca40053	-0.020019686
165	0x3cb4b79a	0.022060204
166	0x3d0a50db	0.033768516
167	0x3c8c8985	0.017155418
168	0xbbcbd957	-0.0062209773
169	0x3ca3fe4c	0.02001872
170	0x3ca870c4	0.020561583
171	0xbb7a14d1	-0.003815938
172	0x3ba2ab52	0.0049642706
173	0x3c921c75	0.017835835
174	0x3adce215	0.0016852046
175	0x3c419db1	0.011817382
176	0x3ca556d5	0.020183006
177	0x3c48c39d	0.012253669
178	0x3b141056	0.0022592745
179	0xbbf6ca34	-0.0075314287
180	0xbc848483	-0.016176468
181	0xbc289cd7	-0.0102913
182	0xbb05aa67	-0.0020395757
183	0xbc1f6e28	-0.009730853
184	0x3c0eb545	0.00871021
185	0x3c2d51dc	0.010578599
186	0x3b747f83	0.0037307448
187	0x3be25bfc	0.006907938
188	0x3cc81e77	0.02442859
189	0xbd007651	-0.031362835
190	0x3c25bf97	0.010116479
191	0x3cb728d0	0.022358328
192	0xbc44946e	-0.011998279
193	0x3c6576ee	0.014005406
194	0xbc96405f	-0.018341241
195	0x3aa84c05	0.0012840038
196	0xbc420e7f	-0.011844276
197	0xbd7711c8	-0.060319692
198	0xbc94a2d6	-0.018144052
199	0xbcbebdc4	-0.023283847
200	0xbd4532d7	-0.048144188
201	0x3cefc954	0.029270805
202	0x3c40c463	0.011765572
203	0x3b7abf1c	0.0038260883
204	0x3d881ee8	0.0664652
205	0x3d85f890	0.0654155
206	0x3d42b3f8	0.047534913
207	0xbc0362f3	-0.008019197
208	0xbc396b2f	-0.0113170585
209	0xbd227bad	-0.039668728
210	0xbbc03ba5	-0.005866485
211	0x3cbdb891	0.023159297
212	0xbc8f7d01	-0.017515661
213	0xbcc79e66	-0.024367522
214	0x3c32c3c7	0.010910935
215	0xbbdc11f3	-0.006716007
216	0x3c6a4e8f	0.014300956
217	0x3cd2b7e3	0.02572245
218	0xbc6b8436	-0.014374783
219	0x3c121571	0.008916245
220	0x3ceda999	0.029011535
221	0x3cbea0c7	0.023270024
222	0x3bad401a	0.0052871825
223	0x3cd94e71	0.026526662
224	0x3d0a211f	0.033722993
225	0xbad9bff3	-0.0016612991
226	0xbbcf2fec	-0.0063228514
227	0x3d1d49c8	0.03840044
228	0xbc047f04	-0.0080869235
229	0x3b84352d	0.0040346594
230	0x3d85de02	0.06536485
231	0xbc97e547	-0.018541945
232	0x3ba27a9c	0.004958464
233	0x3d882ff5	0.06649772
234	0x3b76f422	0.0037682136
235	0xbb356e05	-0.0027683985
236	0xbb818466	-0.0039525507
237	0xbb3a780a	-0.0028452897
238	0x3aedcae1	0.0018142128
239	0xbcad26f5	-0.02113674
240	0xbc369978	-0.011144988
241	0x3be52d54	0.006993929
242	0xbbe7f683	-0.007078947
243	0xbd388e48	-0.045057565
244	0xbc832fcc	-0.016014002
245	0xba15fe98	-0.00057218364
246	0xbc93a255	-0.018021742
247	0xbcaefde9	-0.021361308
248	0xbc3dd641	-0.011586727
249	0x3ba702f5	0.005096788
250	0xbbf4a60a	-0.0074660825
251	0xbcc11bcd	-0.023572827
252	0x3d0e7440	0.034778833
253	0x3cb04cd2	0.021521006
254	0x3d4d560f	0.0501309
255	0xbca90c85	-0.020635853

stage2.block1.bn1.weight f4 [16]
0	0x3dbd298f	0.09236442
1	0x3dfba371	0.12287033
2	0x3df847be	0.12123059
3	0x3dae75fe	0.08518599
4	0x3e0296fc	0.12752908
5	0x3de39bb1	0.1111368
6	0x3deb87f6	0.11500542
7	0x3dc8d28d	0.098057844
8	0x3dc1b68f	0.094586484
9	0x3dc69a3d	0.09697387
10	0x3dbdf60a	0.09275444
11	0x3e0633fc	0.13105768
12	0x3de724a3	0.11286285
13	0x3dd16557	0.10224407
14	0x3de6783c	0.11253402
15	0x3dc7b41e	0.097511515

stage2.block1.bn1.bias f4 [16]
0	0xbc8cc212	-0.017182384
1	0xbd0d9d2d	-0.034573723
2	0xbccba676	-0.024859648
3	0x3c3f8e03	0.011691573
4	0xbc99da8d	-0.018780971
5	0x3b0cbb2f	0.0021473875
6	0xbb5c0253	-0.0033570721
7	0xbcf367e9	-0.029712634
8	0xbd4d06c5	-0.050055284
9	0x3ca774eb	0.020441493
10	0x3b0ebb6a	0.0021779188
11	0x3c780841	0.015138687
12	0x3c384072	0.011245834
13	0xbd3a993b	-0.04555629
14	0xbc8bd5d6	-0.017069738
15	0xbcfda9d8	-0.030964777

stage2.block1.bn1.running_mean f4 [16]
0	0x3d759b52	0.059962578
1	0x3d5a7631	0.053335372
2	0x3c02bbc7	0.00797934
3	0x3cdc9efa	0.026931275
4	0x3cd2030a	0.025636215
5	0x3c1f33fb	0.009716983
6	0x3b26d342	0.002545551
7	0x3cd269e4	0.025685258
8	0x3cfe74e2	0.031061593
9	0x3ca4f859	0.020137953
10	0x3d8290b2	0.06375255
11	0xbd79965d	-0.060934413
12	0x3cd580fc	0.026062481
13	0x3cc923c6	0.02455319
14	0x3d059489	0.032612357
15	0x3a2f2a38	0.00066820113

stage2.block1.bn1.running_var f4 [16]
0	0x3b8740ba	0.004127589
1	0x3b64edc7	0.0034931765
2	0x3b46a6b1	0.0030311758
3	0x3ab0ccb4	0.0013488741
4	0x3b4101b7	0.0029450485
5	0x3b8fcb4a	0.0043882476
6	0x3b6491ad	0.0034876869
7	0x3af0fb14	0.0018385374
8	0x3b02cf23	0.001995989
9	0x3b85822a	0.0040743547
10	0x3b117101	0.00221926
11	0x3b3e728e	0.002905998
12	0x3b7f208e	0.0038929316
13	0x3ae312da	0.0017324344
14	0x3b8ced18	0.0043007247
15	0x3ae6c4f1	0.00176063

stage2.block1.conv1.weight f4 [32, 16, 3, 3]
0	0x3c5d2696	0.013497969
1	0xbbcc69fe	-0.006238221
2	0xbb299a85	-0.0025879454
3	0x3cc106c1	0.02356279
4	0xbbba33d3	-0.0056824475
5	0xbb22e2f0	-0.0024854504
6	0x3cdd8cb8	0.027044639
7	0xbca6aa8f	-0.020345
8	0xbc1583f8	-0.009125702
9	0xbcfa31f0	-0.03054139
10	0xbc070f26	-0.008243358
11	0xbc3674ea	-0.011136273
12	0xbaf50c42	-0.001869567
13	0x3c77287f	0.015085339
14	0x3d0e057c	0.0346732
15	0xbd14c012	-0.036315985
16	0xba5f79c3	-0.0008524919
17	0x3c028ea4	0.0079685785
18	0xbccc9042	-0.024971131
19	0xbd1bd06e	-0.03804057
20	0x3b691d75	0.0035570536
21	0xbc71e2e8	-0.014763571
22	0xbcc49115	-0.023994962
23	0x3caa08bd	0.02075612
24	0xbb242a8f	-0.002504978
25	0xbc1e2d48	-0.009654351
26	0x3c8dee39	0.017325507
27	0x3af6e8b7	0.0018837665
28	0x3c6593a6	0.014012253
29	0x3c64f09f	0.013973384
30	0x3d000595	0.031255323
31	0x3c017a3a	0.007902676
32	0xbbdf557b	-0.00681561
33	0x3a9e7951	0.0012090598
34	0xbd2decf5	-0.042462308
35	0xbd35c33a	-0.044375636
36	0x3b444f5b	0.0029954526
37	0x3cf09d2c	0.02937182
38	0xbb4e2511	-0.0031455199
39	0xbc78e84e	-0.0151921045
40	0x393f387b	0.0001823622
41	0xbc8e025e	-0.017335113
42	0xba8fa6d4	-0.0010959753
43	0x3bf6caf3	0.0075315177
44	0xbc0ddb02	-0.008658173
45	0x3bdad32a	0.0066780047
46	0xbcc416c6	-0.02393664
47	0xbd357b76	-0.044307195
48	0xbb0ba6d1	-0.0021309147
49	0xbb1e0dc9	-0.0024117103
50	0xbc716548	-0.01473362
51	0xbd263742	-0.04058004
52	0xbcd56f91	-0.026054176
53	0xbca69cda	-0.020338465
54	0xbd8976f2	-0.0671214
55	0xbd2d4a26	-0.04230704
56	0x3cb5ff77	0.022216542
57	0xbd9026bd	-0.07038639
58	0xbd088dc5	-0.033338327
59	0x3ce2de47	0.02769388
60	0xbd1e230b	-0.03860764
61	0xbcc09ecd	-0.023513222
62	0x3d0698fd	0.032860745
63	0xbc8ee8af	-0.017444937
64	0x3b42f02f	0.0029745211
65	0x3a0b4829	0.0005313182
66	0xbc93b1d9	-0.01802914
67	0x3c5550ea	0.01301978
68	0xbca3e92f	-0.020008652
69	0xbc516d41	-0.012782396
70	0xbb8aade8	-0.004232157
71	0xbd07f526	-0.033192776
72	0xbc452058	-0.012031637
73	0xbd09df99	-0.033660505
74	0xbd03a564	-0.03214015
75	0x3b9f61b7	0.0048639434
76	0xbb5b0322	-0.0033418615
77	0xbc4c6ae6	-0.012476658
78	0x3c78ea1e	0.015192537
79	0x3ba76f55	0.0051097074
80	0xbc10139d	-0.008793739
81	0x3c3cc1bf	0.011520802
82	0x3b58687e	0.0033021267
83	0x3c74f7c4	0.01495165
84	0x3c23e8f0	0.010004267
85	0x3c4a2c76	0.012339702
86	0x3ce52de4	0.027975984
87	0xbc6e0c8c	-0.014529359
88	0xbceb06ae	-0.028689709
89	0xbc86496c	-0.016392432
90	0xbb666b6c	-0.0035159243
91	0x3b1a9764	0.002358877
92	0xbc5713a8	-0.013127245
93	0xbb605ebf	-0.003423616
94	0x3bb4d66b	0.0055187247
95	0xbc946f68	-0.018119529
96	0x3c0daced	0.008647186
97	0x3d10a4b2	0.035313316
98	0x3befb0fb	0.007314799
99	0xbcbf0b60	-0.023320854
100	0xbcbcbea6	-0.023040127
101	0xbd007aea	-0.03136722
102	0xbd0440d1	-0.032288376
103	0xbcb9473f	-0.02261698
104	0xbc77b442	-0.01511866
105	0xbc643bb5	-0.013930251
106	0xbb858736	-0.0040749563
107	0xbb9d8553	-0.0048071533
108	0xb974d188	-0.0002334771
109	0x3c9b326b	0.01894494
110	0xbc252405	-0.0100793885
111	0x3c946751	0.018115671
112	0x3c967cf1	0.018370124
113	0xbb2f6c9d	-0.002676762
114	0xb9b56632	-0.00034599152
115	0x3cb5911f	0.022163926
116	0x3a28319d	0.00064160844
117	0xbc96ae8b	-0.018393775
118	0xbd079a32	-0.033106036
119	0xbb25dd0c	-0.0025308756
120	0xbcdb1e06	-0.026747715
121	0xbc25bbc5	-0.0101155685
122	0x3cb8c470	0.022554606
123	0xbbe9e05e	-0.0071373424
124	0x3cf6a8ef	0.03010985
125	0x3d498b24	0.04920496
126	0xbc57e5ec	-0.013177376
127	0xbd2fc008	-0.042907745
128	0xbd522505	-0.051304836
129	0x3d2028d7	0.039101448
130	0x3bf5cae8	0.007500995
131	0xbbf2aeee	-0.007406107
132	0x3cec506b	0.02884694
133	0x3c445ff4	0.011985768
134	0xbb90071f	-0.00439538
135	0xba0fff01	-0.00054930156
136	0xbc577b85	-0.013152008
137	0xbccb7ffd	-0.024841303
138	0x3c61b524	0.013776097
139	0x3bf81e99	0.007572007
140	0xbba33333	-0.0049804687
141	0x3be8ca0b	0.0071041635
142	0x3bc53ee4	0.00601946
143	0x3bb8f6d3	0.005644658
144	0xbaab1f83	-0.0013055656
145	0xbca5b71e	-0.020228919
146	0xbd05a302	-0.03262616
147	0x3c6eccdb	0.014575209
148	0xbbd26a19	-0.006421339
149	0xbc7f11c4	-0.0155682005
150	0x3c49f416	0.012326261
151	0x3ac39f8b	0.0014924867
152	0xbc31b958	-0.010847412
153	0xbc184fbe	-0.009296356
154	0xbc32cc23	-0.010912928
155	0xbb9faa5e	-0.0048726043
156	0xbb6c67d2	-0.0036072624
157	0xbbd381bc	-0.0064546745
158	0xba3a56e5	-0.0007108285
159	0xbc6be7b5	-0.014398505
160	0xbc309780	-0.010778308
161	0xbcbbec1c	-0.022939734
162	0xbc35418e	-0.011062993
163	0x3c5499fd	0.012976167
164	0x3c7a72a6	0.015286123
165	0xbbb12925	-0.005406516
166	0x3d1232da	0.035693027
167	0x3d28635f	0.041110393
168	0xbc8d520e	-0.01725104
169	0x3d09e4cb	0.03366546
170	0x3cf838ea	0.030300576
171	0xbadf898c	-0.0017054542
172	0xbc85ebc6	-0.016347777
173	0x3cbd3995	0.023098746
174	0xbb4faeb8	-0.0031689834
175	0xbbba2628	-0.005680818
176	0x3ccab7a9	0.02474578
177	0xbc0a9ea0	-0.008460671
178	0x3b9b371a	0.004736793
179	0x3ccee5df	0.025256095
180	0x3bf0f9a7	0.0073539796
181	0xbce85b1c	-0.028363757
182	0x3c450bda	0.012026751
183	0x3ca007e3	0.01953501
184	0xbc59e0f6	-0.013298264
185	0x3ca000ca	0.019531626
186	0x3d11eeec	0.035628244
187	0x3c974672	0.018466208
188	0x3d2394f2	0.039936967
189	0xbce00488	-0.02734591
190	0xbca7c5ad	-0.020480001
191	0xbc1fd034	-0.009754229
192	0xbcb76c22	-0.022390429
193	0xbc9952a9	-0.018716173
194	0xbc99288a	-0.018696088
195	0xbcd2536f	-0.02567455
196	0xbcd79e02	-0.026320461
197	0xbd39633c	-0.045260653
198	0x3c482a9a	0.012217188
199	0xbc9656ba	-0.018351901
200	0xbc5d96a2	-0.013524683
201	0xbca2c032	-0.019867036
202	0xbd1e421f	-0.038637277
203	0xbcf77f6b	-0.030212125
204	0x3a8fc80a	0.001096965
205	0xbc0312e1	-0.008000107
206	0xbc6a8866	-0.0143147465
207	0xbcc6f14f	-0.024284987
208	0xbc4da0a8	-0.0125505105
209	0xbc340f46	-0.01098997
210	0xbc397dc8	-0.0113214925
211	0xbb6b5d68	-0.0035913829
212	0xba0510d7	-0.00050760567
213	0xbd113e22	-0.035459645
214	0xbbc69720	-0.006060496
215	0xbc1d4c45	-0.009600704
216	0xbbbeee10	-0.005826719
217	0xbbd6cc07	-0.0065550837
218	0x3ac83e2a	0.0015277315
219	0xbc1faea1	-0.009746225
220	0xbb8529d9	-0.0040638265
221	0x3bf07302	0.0073379287
222	0xbbe964b3	-0.0071226
223	0xbb1f0aee	-0.002426799
224	0x3c5cf830	0.013486907
225	0xbb685818	-0.0035452899
226	0xbc1b771e	-0.009488849
227	0xbc10b54a	-0.008832285
228	0x3c6cac2d	0.014445347
229	0x3bcaa312	0.0061839903
230	0xbbf30bba	-0.0074171694
231	0xbbf476c1	-0.0074604456
232	0xbc5f0003	-0.013610843
233	0xbc76bea5	-0.015060102
234	0x3c262b64	0.010142181
235	0x3b35def2	0.0027751294
236	0x3b8bd9a5	0.0042678886
237	0xbb7da009	-0.0038700125
238	0x3c9b0130	0.018921465
239	0xba25fe70	-0.00063321646
240	0x3c5577bf	0.013029038
241	0x3cf19624	0.029490538
242	0x3d064a81	0.032785896
243	0x3be81869	0.007082988
244	0x3b50ec09	0.003187897
245	0x3bcb2f90	0.0062007383
246	0xbc2d1dfc	-0.010566231
247	0xbbe033d6	-0.006842117
248	0x3c27ee87	0.01024974
249	0x3b7ff31f	0.0039054824
250	0x3c78e1f8	0.015190594
251	0x3c3fadf3	0.011699188
252	0x3c1644c7	0.009171671
253	0xbc56f101	-0.013118983
254	0x3cb17a06	0.02166463
255	0xbb41e18e	-0.0029583904

stage2.block1.bn2.weight f4 [32]
0	0x3dc729d6	0.097247764
1	0x3dd4f46a	0.10398181
2	0x3dd732c3	0.10507729
3	0x3dc21e62	0.09478451
4	0x3dbb68c1	0.091508396
5	0x3dca25e3	0.098705076
6	0x3db1a9ab	0.0867494
7	0x3de9acaf	0.1140989
8	0x3dde128d	0.10843382
9	0x3dd6d021	0.10488916
10	0x3de6129e	0.1123402
11	0x3dfa1ee1	0.12212921
12	0x3de569df	0.11201834
13	0x3db813a7	0.089881234
14	0x3de5f070	0.112275004
15	0x3dfe9799	0.12431259
16	0x3ddb040c	0.10694131
17	0x3e012bae	0.12614319
18	0x3d9f42a2	0.07776381
19	0x3db79662	0.0896423
20	0x3dd2cb0a	0.10292633
21	0x3ded6c3e	0.11592911
22	0x3dbcccda	0.0921876
23	0x3dda527f	0.10660266
24	0x3de29d09	0.11065108
25	0x3dbd84f6	0.09253876
26	0x3dc421c4	0.09576753
27	0x3dd35807	0.10319524
28	0x3db0987a	0.086228326
29	0x3dd5766e	0.10422979
30	0x3d97ac7c	0.07405946
31	0x3dbcb26d	0.092137195

stage2.block1.bn2.bias f4 [32]
0	0xbb8de904	-0.004330756
1	0xbc714cf1	-0.014727817
2	0xbc8c31fa	-0.017113674
3	0xbd844923	-0.06459262
4	0xbd36c404	-0.04462053
5	0xbc3e42d3	-0.011612612
6	0xbd13cba5	-0.036082882
7	0xbd4c1466	-0.04982414
8	0xbd0fee57	-0.035139408
9	0xbb9db45c	-0.0048127603
10	0xbd4cc00d	-0.04998784
11	0xbd4fc925	-0.050728936
12	0xbd3f0bcb	-0.046642106
13	0xb8939727	-7.0376605e-05
14	0xbd258f29	-0.04041973
15	0xbcdf2be7	-0.027242614
16	0xbcf5a45d	-0.029985601
17	0xbd403c30	-0.0469324
18	0xbc15c132	-0.0091403
19	0xbd197698	-0.037466615
20	0x3c47dcbd	0.012198624
21	0xbceb9ce3	-0.028761333
22	0xbc83053f	-0.015993712
23	0xbd221942	-0.03957487
24	0xbca951c2	-0.020668868
25	0xbc46e871	-0.012140379
26	0xba306b89	-0.0006729891
27	0xbc2a330c	-0.010388147
28	0xbc4e3536	-0.012585929
29	0xba814bfc	-0.0009864564
30	0xbc413611	-0.011792676
31	0xbb09363b	-0.0020936865

stage2.block1.bn2.running_mean f4 [32]
0	0xbd0126ef	-0.03153127
1	0xbb311bd4	-0.0027024643
2	0xbd106050	-0.0352481
3	0x3c28e729	0.010309019
4	0x3c171a58	0.009222589
5	0xbcb1ae26	-0.021689486
6	0x3ba2b716	0.004965673
7	0xbad614f2	-0.0016333146
8	0xbc36307a	-0.011119956
9	0xbbb7d123	-0.005609648
10	0xbc47be16	-0.012191316
11	0xbcb0188e	-0.021496084
12	0xbaa03c4f	-0.0012225005
13	0x3c8f4d48	0.017492905
14	0xbc19fed1	-0.009399132
15	0xbba7694f	-0.0051089893
16	0x3bfeae4a	0.0077722417
17	0xbcaf152a	-0.021372396
18	0x3cfb9a18	0.030713126
19	0x3a00ee6d	0.0004918341
20	0xbd08967f	-0.03334665
21	0xbbb8465a	-0.005623621
22	0xbb134202	-0.0022469764
23	0xbcb0f629	-0.021601753
24	0xbc8fb67a	-0.017543066
25	0xbabaf6ef	-0.0014264266
26	0xbcad034e	-0.02111974
27	0xbc7b86b5	-0.015351941
28	0x3c8779f1	0.016537638
29	0xbc80d13d	-0.015724773
30	0xbb99085e	-0.004670187
31	0xbcd774b2	-0.026300762

stage2.block1.bn2.running_var f4 [32]
0	0x39d0726a	0.00039758097
1	0x3a34d7cb	0.0006898611
2	0x3a225d6c	0.00061937305
3	0x39c9740f	0.00038424178
4	0x3a118b17	0.0005552037
5	0x39e74078	0.00044107786
6	0x39bb4355	0.00035717586
7	0x39dbd740	0.0004193131
8	0x3a402940	0.00073303655
9	0x39e20791	0.00043111717
10	0x39cea8a9	0.00039417043
11	0x3a2b188b	0.00065267895
12	0x3a3ee428	0.0007281923
13	0x39db9c2a	0.00041887286
14	0x39f9bee0	0.00047635194
15	0x3a1b40b0	0.000592242
16	0x3a24691b	0.00062717655
17	0x3a00fd66	0.0004920572
18	0x39db16b7	0.0004178786
19	0x3a11de8e	0.0005564474
20	0x3a2a057c	0.00064858026
21	0x39f23d4e	0.00046203512
22	0x39f2c40d	0.00046303906
23	0x39dad5e7	0.0004173957
24	0x39f55b41	0.0004679803
25	0x39c8a7d4	0.00038272014
26	0x3a0e925d	0.000543868
27	0x39f34271	0.00046398074
28	0x39f72a8f	0.0004714322
29	0x39f2a31d	0.00046279366
30	0x39cf6870	0.0003955993
31	0x3a196847	0.00058520254

stage2.block1.conv2.weight f4 [32, 32, 3, 3]
0	0xbc73f90a	-0.0148909185
1	0xbc21eac7	-0.009882635
2	0xbc4a7fdf	-0.012359588
3	0x3d177bc1	0.036983255
4	0x3c3b24a5	0.011422311
5	0xbc219f74	-0.009864677
6	0x3ca023de	0.019548353
7	0x3c31dc63	0.010855767
8	0xbc37b275	-0.011211981
9	0xbc01f028	-0.007930793
10	0x3bb78ef3	0.0056017577
11	0xbc38ee4f	-0.011287286
12	0xbc7082df	-0.01467964
13	0x3c4d3f58	0.012527309
14	0x3c17df11	0.009269492
15	0xbc399a2b	-0.01132826
16	0x3b849774	0.004046375
17	0x3c8e34df	0.017359195
18	0xbb8d506e	-0.0043125665
19	0xbce85609	-0.028361337
20	0x3b7508c3	0.0037389256
21	0xbcb9fb48	-0.022702828
22	0xbbd04332	-0.0063556666
23	0xbcd2eaed	-0.025746787
24	0xbc8ffd8b	-0.017576953
25	0xba531328	-0.0008051866
26	0xbc5976b2	-0.013272928
27	0xbc1999a0	-0.009375006
28	0xbc055167	-0.008137084
29	0xbc4a574b	-0.012349914
30	0x3ac4b4dd	0.0015007515
31	0x3b935856	0.0044966144
32	0xbb7df67e	-0.0038751657
33	0x3c68517b	0.014179583
34	0x3ad2ddc2	0.0016087817
35	0x3c8dd4f5	0.01731346
36	0x3b9cf776	0.004790242
37	0xbc770639	-0.015077167
38	0xbaccbbfb	-0.0015619987
39	0xbbcbfc3d	-0.0062251375
40	0xba642263	-0.0008702634
41	0xbc912cb2	-0.017721508
42	0x3c1a1808	0.009405144
43	0x3b739180	0.0037165582
44	0xbcb07be2	-0.021543447
45	0xbbf6dcc7	-0.007533643
46	0xbb8bcceb	-0.0042663715
47	0xbc4f7e57	-0.012664399
48	0xbcd06322	-0.025437895
49	0x3bca0025	0.006164568
50	0x3b5e6e66	0.0033940314
51	0xbce306b8	-0.027713165
52	0x3a976b69	0.0011552396
53	0x3cac2291	0.021012576
54	0x3c2e3801	0.01063347
55	0xba689198	-0.0008871793
56	0xbbdaf5a5	-0.006682115
57	0xbb2663ca	-0.0025389069
58	0xbc82f22b	-0.015984615
59	0xbc7eb054	-0.01554497
60	0x3c57d5c7	0.013173527
61	0xbbe9191f	-0.0071135904
62	0xbc391d23	-0.011298451
63	0xbc9880a1	-0.018616023
64	0xb873e7ab	-5.8151472e-05
65	0x3d10387e	0.035210125
66	0xbc56a7bb	-0.0131015135
67	0xbb59c8cd	-0.003323126
68	0xbcbc52a3	-0.022988623
69	0xbc98c1f3	-0.01864717
70	0xbc155ee5	-0.009116863
71	0xbcadb2d3	-0.021203434
72	0xbc88450f	-0.016634492
73	0x3c000a8f	0.007815017
74	0x3cbcd067	0.023048593
75	0x3cc00b79	0.02344297
76	0x3cf949a2	0.030430619
77	0xbc865860	-0.016399562
78	0x3ba71b59	0.0050996956
79	0xbb8b3cb8	-0.0042491816
80	0xbcf1c968	-0.029514983
81	0x3c9be669	0.019030767
82	0xbcc70125	-0.024292538
83	0xbd268d92	-0.040662356
84	0x3c5217a4	0.012823019
85	0xbc1a4561	-0.009415955
86	0x3b3b7370	0.0028602742
87	0x3c3443d8	0.011002503
88	0x3c562f71	0.013072834
89	0x3ca3a7bc	0.019977443
90	0xbbbc1fc9	-0.005741094
91	0xbc64657c	-0.013940211
92	0xbc27d6f7	-0.010244123
93	0x3b324de3	0.0027207069
94	0xbc0b3b03	-0.008497956
95	0x3c8ed56b	0.01743575
96	0x3cfd6cc4	0.030935653
97	0x3bfefb3c	0.0077814143
98	0xbc0616ad	-0.008184117
99	0xbcb5c1d0	-0.022187144
100	0xbbb14f44	-0.0054110605
101	0x3abc6f87	0.00143765
102	0xbc7bc823	-0.0153675405
103	0xbc15bad2	-0.00913878
104	0x3c96f9ee	0.018429723
105	0xbc3ff7dc	-0.011716809
106	0xba4c1bad	-0.00077861064
107	0x3c80be36	0.0157157
108	0xbb09a116	-0.0021000556
109	0xbc3783ba	-0.01120084
110	0xbcb28943	-0.021793967
111	0x3c4ea465	0.012612437
112	0xbc7ac76f	-0.015306338
113	0xbcf2ebc2	-0.029653434
114	0x3ca01a86	0.019543897
115	0x3be61dad	0.0070225806
116	0xbcb6ff83	-0.022338634
117	0x3caed200	0.02134037
118	0x3b9ecdbe	0.0048463037
119	0xbcfdefd3	-0.030998146
120	0xbacf0cde	-0.0015796681
121	0x3c4b3fe6	0.012405371
122	0xba227370	-0.0006197011
123	0xbb823246	-0.003973278
124	0xbcf56544	-0.029955514
125	0xbc61d5f2	-0.013783919
126	0x3c742f3d	0.014903841
127	0x3b3bec70	0.0028674863
128	0xbbc1d0c0	-0.0059147775
129	0x3bb42c99	0.0054984805
130	0x3bfc6d88	0.007703487
131	0xbbf4bbeb	-0.0074686906
132	0x3cb6191f	0.022228776
133	0xbc21462d	-0.009843391
134	0xbb519d20	-0.0031984523
135	0x3be1d0a5	0.0068913274
136	0x3c880e33	0.016608333
137	0x3ceb7df2	0.028746579
138	0x3bdc870e	0.006729967
139	0x3c02bdf7	0.007979861
140	0x3bdc1074	0.0067158286
141	0x3b4fd174	0.0031710537
142	0xbb30087c	-0.0026860526
143	0xbbb5b495	-0.0055452087
144	0x3bc67df5	0.0060574957
145	0x3b6c6a17	0.0036073977
146	0x3b64fca7	0.0034940632
147	0xba52b32b	-0.00080375624
148	0xbb99ef11	-0.0046976884
149	0xbc08ca77	-0.008349053
150	0xbc86dc6e	-0.016462531
151	0x3cc5683d	0.024097556
152	0xbc7ccf37	-0.015430263
153	0xbccee788	-0.025256887
154	0xbc497089	-0.012294897
155	0xbbdba406	-0.0067029027
156	0x3caf6cd7	0.021414204
157	0x3c1015a5	0.008794223
158	0xbc866cca	-0.016409297
159	0xbc6ad10b	-0.014332066
160	0xbcfd21d3	-0.030899918
161	0xba876f0e	-0.001033278
162	0x3d33c1bc	0.04388593
163	0x3c918c4f	0.0177671
164	0xbbfc2f5b	-0.007696075
165	0x3cbc3a56	0.022977035
166	0xbc7706e8	-0.01507733
167	0xbce3b05f	-0.027794061
168	0xba419014	-0.0007383835
169	0xbc194ead	-0.009357137
170	0xbd176778	-0.03696391
171	0xbbd9c419	-0.006645691
172	0xbc4ab4c8	-0.012372203
173	0xbc745b84	-0.014914397
174	0xbbb00bde	-0.0053725084
175	0x3bf7c3a0	0.007561162
176	0xbb816264	-0.0039484967
177	0xba4a2417	-0.0007711066
178	0x3b87ec61	0.0041480516
179	0x3aa63945	0.0012681863
180	0xbc51546d	-0.012776476
181	0xbc0d5ad6	-0.008627614
182	0x3cacd40b	0.021097204
183	0xbc931c89	-0.017957943
184	0x3c0bedd1	0.008540587
185	0x3bb659f7	0.005564924
186	0xbc181a6c	-0.009283643
187	0xbbb6c715	-0.0055779316
188	0xbcb4a4f8	-0.02205132
189	0x3c54c754	0.012986977
190	0xbcc45b86	-0.023969423
191	0xbcf0f9ac	-0.029415928
192	0xbc89c51e	-0.016817626
193	0xbcc470aa	-0.023979504
194	0xbcb2e346	-0.021836888
195	0xbbe9c29d	-0.0071337954
196	0xbcc37ecb	-0.02386417
197	0xbd18a887	-0.037270095
198	0x3c9ffcc1	0.019529702
199	0x3b3e847d	0.0029070668
200	0xbc7e36bc	-0.015515979
201	0x3c1983bb	0.009369786
202	0x3c9b4c4e	0.018957283
203	0xbbe8b774	-0.0071019474
204	0x3c25cc1f	0.010119467
205	0x3b869a15	0.0041077235
206	0xbc1856b0	-0.009298012
207	0xbc168bd1	-0.009188608
208	0x3c45f7f0	0.012083039
209	0x3c8a68a8	0.016895607
210	0xbb27755f	-0.0025552136
211	0x3c87aad5	0.016560951
212	0x3c968184	0.018372305
213	0xbc1341ba	-0.008987838
214	0x3c7688db	0.015047277
215	0xbc87d7bb	-0.01658236
216	0xb7b81707	-2.1945232e-05
217	0x3b8ef302	0.004362465
218	0xbcbcef71	-0.023063393
219	0x3c0fccff	0.008776902
220	0x3cfb5f33	0.030685043
221	0x3cc11933	0.023571586
222	0xbcc69b96	-0.024244111
223	0xbc539a22	-0.012915166
224	0x3b7ff0f4	0.0039053531
225	0xbca35392	-0.01993731
226	0x3a758846	0.00093663146
227	0x3c13df8a	0.009025464
228	0x3c1819f2	0.00928353
229	0x3c191bd3	0.009345013
230	0x3c293988	0.010328658
231	0x3c99c721	0.01877171
232	0xbc86a481	-0.016435863
233	0x3b115032	0.0022173044
234	0x3c61a6ee	0.013772709
235	0xbb535bc0	-0.0032250732
236	0xbd064e0e	-0.032789283
237	0xbc204073	-0.009780991
238	0xbb3c9558	-0.002877554
239	0xbcf0b813	-0.029384648
240	0x3bf71612	0.007540473
241	0xbba4f09f	-0.005033567
242	0xbcf07e21	-0.029357018
243	0xbc78536e	-0.01515661
244	0xbcccf645	-0.025019774
245	0xbcce5491	-0.025186809
246	0xbc4168a8	-0.011804737
247	0x3b743b22	0.0037266691
248	0xbc8bbc8a	-0.017057676
249	0xbbd8f6da	-0.006621224
250	0x3cca3dbf	0.024687646
251	0x3d0fe4ba	0.03513024
252	0xbd02d79f	-0.031943914
253	0xbb5a1d8d	-0.0033281774
254	0xbc711075	-0.014713396
255	0xbcab8190	-0.020935804

stage2.block1.shortcut.conv.weight f4 [32, 16, 1, 1]
0	0x3c8b000f	0.016967801
1	0xbc351dff	-0.011054515
2	0x3ccd8001	0.025085451
3	0x3c0dea64	0.00866184
4	0x3c1495a0	0.0090688765
5	0xbd29f14a	-0.041489877
6	0xbceb7995	-0.028744498
7	0x3d04cc8a	0.032421626
8	0xbb882ea1	-0.004155949
9	0xbce63de6	-0.028105687
10	0x3ad0b1e7	0.001592216
11	0xbd27638f	-0.04086643
12	0x3cbcd22b	0.023049435
13	0xbc178467	-0.009247876
14	0x3c6e3843	0.014539781
15	0x3c0b127b	0.008488293
16	0x3aa7d80c	0.0012805476
17	0x3b054560	0.002033554
18	0xbc674739	-0.014116102
19	0x3c8946a0	0.01675731
20	0x3c9a1ea9	0.018813448
21	0xbbf414ab	-0.007448753
22	0xbb42203c	-0.0029621264
23	0xbc010d30	-0.007876679
24	0x3c9004ab	0.01758035
25	0x3c89cd62	0.016821567
26	0xbced1851	-0.028942259
27	0x3c338532	0.010957049
28	0x3c89f6e7	0.016841365
29	0x3ab9a631	0.0014163909
30	0x3b91df90	0.0044516996
31	0x3b101334	0.0021984102
32	0xbc05c41e	-0.008164434
33	0x3b9cb9d2	0.0047828937
34	0xbbba5495	-0.0056863525
35	0x3bb8a33e	0.0056346944
36	0x39a93bf8	0.00032278872
37	0xbc8bc806	-0.017063152
38	0x3c45823c	0.012054976
39	0x3b4161e5	0.0029507813
40	0xbca329d2	-0.019917402
41	0x3b4ac110	0.0030937828
42	0xbcf9c4f5	-0.030489424
43	0x3cf77052	0.030204926
44	0xbc60ab8b	-0.013712774
45	0xbcbdd549	-0.023172991
46	0xbcd54007	-0.026031507
47	0x3b69650e	0.0035613212
48	0x3ca7d701	0.020488264
49	0x3d183912	0.0371638
50	0xbc0396df	-0.008031576
51	0xbc73a31e	-0.014870433
52	0xbc2c1f42	-0.010505499
53	0xbc2aa7df	-0.010416
54	0x3c1b65df	0.009484737
55	0xbc4f5f6b	-0.012657027
56	0xbcad22a0	-0.021134675
57	0xbbcf448a	-0.006325309
58	0x3ae0344e	0.0017105432
59	0xbcfa7fce	-0.03057852
60	0xbbc9ac9b	-0.0061546094
61	0x3ad8ac56	0.0016530852
62	0xbcd94faf	-0.026527254
63	0xbc9525b4	-0.018206455
64	0x3c99e3e7	0.01878543
65	0xbc02eeeb	-0.007991533
66	0xbc36d057	-0.0111580705
67	0xbd101c28	-0.035183102
68	0xbbdef1b4	-0.0068037156
69	0x3c225c47	0.009909696
70	0xbd35301a	-0.044235326
71	0xbcae372a	-0.021266539
72	0x3a9dc917	0.0012038079
73	0xbc303b21	-0.010756285
74	0x3c328722	0.010896476
75	0xbd049459	-0.032368038
76	0xbc2aff55	-0.010436852
77	0xbb459509	-0.0030148646
78	0x3c5e7884	0.013578538
79	0xbc773c4e	-0.015090061
80	0x3c8a21e2	0.01686186
81	0xbca00aec	-0.019536458
82	0xbbed43fe	-0.0072407713
83	0xbb8acd95	-0.004235933
84	0x3be2c28a	0.0069201635
85	0x3d273c47	0.04082897
86	0x3bf8ad90	0.0075890496
87	0xbcc70714	-0.024295367
88	0x3b415c6d	0.0029504553
89	0x3b7f60b1	0.0038967545
90	0x3b70b3ad	0.003672819
91	0x3d0ab3e4	0.033862963
92	0x3badf2fb	0.0053085065
93	0xbb206e31	-0.0024479742
94	0xbcddeb37	-0.027089698
95	0xbb452f4e	-0.003008801
96	0x3acab978	0.0015466651
97	0xbcdfc761	-0.027316751
98	0xbc8d0f96	-0.017219346
99	0x3a1e7454	0.0006044556
100	0xbc8a755b	-0.016901663
101	0x3aa1196a	0.0012290899
102	0xbceb463f	-0.02872002
103	0xbc0efe00	-0.0087275505
104	0x3c78cc5b	0.015185441
105	0xbcfdd6ee	-0.030986276
106	0x3cb6609d	0.022262866
107	0x3b0d2ebb	0.0021542746
108	0xbcbed2a9	-0.02329381
109	0x3c8a99f2	0.01691911
110	0x3cf82dbd	0.030295247
111	0xbb2b7a51	-0.0026165436
112	0x3c0c0888	0.008546956
113	0xbcde69ad	-0.02715
114	0xbc9fb1a5	-0.019493887
115	0xbc8e6e95	-0.017386714
116	0x3c270f65	0.010196541
117	0x3cbc429e	0.022980984
118	0xbca82a2f	-0.020527927
119	0x3aa1bd3b	0.001233972
120	0xbcb29b35	-0.021802524
121	0x3c861f4d	0.016372347
122	0x3c8b13ea	0.01697727
123	0x3c8a5038	0.016883954
124	0xbba4b8d4	-0.005026916
125	0x3cba2ee1	0.022727432
126	0x3c3175df	0.010831325
127	0xbc750a7e	-0.014956115
128	0x3c38450b	0.01124693
129	0x3ce3d91a	0.027813483
130	0xbb0e9d00	-0.002176106
131	0xbc335eee	-0.010947926
132	0x3c66bb62	0.0140827615
133	0x3b971499	0.0046106097
134	0xbd517045	-0.05113246
135	0xbd0c7110	-0.034287512
136	0xbcef9ed5	-0.029250542
137	0xbc80a87e	-0.015705343
138	0x3c585b6b	0.0132053895
139	0xbc8e731f	-0.017388878
140	0xbce25f7d	-0.027633423
141	0xbc8a43d0	-0.016878039
142	0xbccc39cf	-0.024929909
143	0xbc8e8ca9	-0.017401056
144	0x3c0be559	0.008538567
145	0xbc827c40	-0.015928388
146	0xbc923dcc	-0.017851733
147	0x3a047a4e	0.0005053625
148	0x3c1f6538	0.009728722
149	0xbd19d9c7	-0.037561204
150	0x366f10f9	3.5623655e-06
151	0xbd30b807	-0.043144252
152	0xbb1cf3e7	-0.0023949088
153	0x3cf6309e	0.03005248
154	0xbd064c3b	-0.032787543
155	0x3c3af583	0.011411074
156	0xbc9450a0	-0.018104851
157	0x3c50a94a	0.012735674
158	0xbc58072a	-0.013185302
159	0xbc90343c	-0.017603032
160	0xbc77bd17	-0.015120766
161	0xbc127c16	-0.008940717
162	0xbc701061	-0.014652343
163	0xbba955c7	-0.005167696
164	0xbca1ba6e	-0.019742217
165	0x3b930f2b	0.004487892
166	0xbc44c863	-0.012010667
167	0x3ce7736d	0.028253281
168	0x3a0aaa02	0.00052896154
169	0xbc578b9f	-0.013155847
170	0xbbe83646	-0.007086548
171	0xbbf17598	-0.0073687546
172	0xbc95ca54	-0.018284954
173	0xbbf3212c	-0.007419726
174	0x3d0c04b8	0.034184188
175	0x3c872551	0.016497286
176	0x3ce62923	0.028095787
177	0x3d293133	0.041306686
178	0x3c17c278	0.009262674
179	0xbc27bf19	-0.010238432
180	0xbcb85f10	-0.022506267
181	0xbcb5b71e	-0.022182044
182	0xbd1fd116	-0.03901776
183	0xbc16a084	-0.009193543
184	0x3c6a05c2	0.014283599
185	0x3c712359	0.0147179
186	0xbc902251	-0.017594488
187	0xbcd9e4c3	-0.02659834
188	0xbd0e4f07	-0.034743335
189	0xbcd562e1	-0.026048126
190	0x3c276421	0.010216744
191	0xba017b60	-0.0004939344
192	0x3ce1759a	0.027521897
193	0xbc26d3c1	-0.010182322
194	0x3c507bf4	0.012724865
195	0xbc57ead4	-0.013178546
196	0xba6a1a8f	-0.0008930349
197	0xbd1c6576	-0.0381827
198	0x3c0bacef	0.008525117
199	0xbbf122a6	-0.0073588667
200	0xbc1c1d06	-0.009528404
201	0x3bb19f49	0.0054205996
202	0xbc86ea8b	-0.01646926
203	0x3cb717a7	0.022350146
204	0x3b7f6f84	0.003897638
205	0xba0de294	-0.0005412486
206	0xbcc2f1e3	-0.023796981
207	0xbcb83a56	-0.022488754
208	0x3cebc56e	0.028780665
209	0x3c81a6cc	0.015826605
210	0xbc81358d	-0.015772605
211	0x3cd34ae4	0.025792547
212	0xbbe5aaa3	-0.007008867
213	0xbc0e6a24	-0.008692298
214	0x3c8e95c7	0.017405404
215	0x3c308b6d	0.010775429
216	0xbc7773aa	-0.01510326
217	0x3c9335a4	0.017969914
218	0xbc6ff159	-0.014644944
219	0xbc04f58d	-0.0081151845
220	0xbcd35e18	-0.025801703
221	0xbd1412ce	-0.036150746
222	0xbd498c78	-0.049206227
223	0x3cc3098c	0.023808263
224	0x3b964070	0.0045853183
225	0x3beaaf61	0.00716202
226	0xbd2fd32c	-0.042926
227	0xbc32546e	-0.010884387
228	0xbcafaea6	-0.021445584
229	0x3c8a832d	0.016908253
230	0x3c6f9c29	0.014624634
231	0x3b821c88	0.0039706863
232	0x3bccba16	0.006247769
233	0xbc54caa5	-0.012987767
234	0xbc34eede	-0.0110432785
235	0x3ced0713	0.028934037
236	0xbd053955	-0.03252538
237	0x3c38c0dc	0.01127645
238	0xbc910adc	-0.017705373
239	0x3c191253	0.009342748
240	0x3c54b93f	0.012983619
241	0x3bf67cca	0.0075222002
242	0x3d06c548	0.032902986
243	0xba682046	-0.0008854907
244	0xbcf27d91	-0.02960089
245	0xbc3d0dc8	-0.01153893
246	0x3b53408f	0.0032234525
247	0xbc5931b2	-0.013256477
248	0x3c4f056d	0.012635571
249	0xbbd44860	-0.0064783543
250	0x3c13cf1e	0.009021549
251	0xbc675f0c	-0.014121782
252	0x3d65c03f	0.056091543
253	0x3c41a528	0.0118191615
254	0x392159ea	0.00015387652
255	0x3cbf11b4	0.023323871

stage3.block1.bn1.weight f4 [32]
0	0x3dab52c6	0.08365397
1	0x3dc1084b	0.0942541
2	0x3dceb51d	0.10093138
3	0x3dc62302	0.09674646
4	0x3dbb6a25	0.09151105
5	0x3dae4865	0.08509902
6	0x3dc5f927	0.09666663
7	0x3dbb17ea	0.091354206
8	0x3d9cd198	0.07657164
9	0x3dbb46e7	0.09144383
10	0x3dc8518d	0.097811796
11	0x3da2c60a	0.07947929
12	0x3da6d42b	0.081459366
13	0x3dc08b10	0.09401524
14	0x3dba072b	0.090833984
15	0x3de1cf14	0.11025825
16	0x3dd12829	0.10212738
17	0x3dbbd067	0.09170609
18	0x3db9f915	0.09080712
19	0x3db74e37	0.08950465
20	0x3de53970	0.11192596
21	0x3dd08a4c	0.10182628
22	0x3dbe4a8b	0.09291562
23	0x3dbea38b	0.09308537
24	0x3dd01bdd	0.101615645
25	0x3dd72ff9	0.10507197
26	0x3dff140e	0.12454997
27	0x3dc30413	0.095222615
28	0x3db051b2	0.08609332
29	0x3dd9b8ec	0.10630974
30	0x3dd5f647	0.10447364
31	0x3dbd0a66	0.09230499

stage3.block1.bn1.bias f4 [32]
0	0xbcc33a1c	-0.02383142
1	0xbd6c8fc1	-0.057754282
2	0xbd03768e	-0.032095484
3	0xbd279d64	-0.040921584
4	0xbd15bf62	-0.03655947
5	0xbcd10d60	-0.025519073
6	0xbd30f48d	-0.04320197
7	0xbd08ce65	-0.03339996
8	0xbb2b34b1	-0.0026123936
9	0xbd1d04e7	-0.038334753
10	0xbd7ba34d	-0.061435033
11	0xbcbaf1db	-0.022820404
12	0xbc7595da	-0.014989341
13	0xbd195f12	-0.03744418
14	0xbcc28c60	-0.023748577
15	0xbd4f0c06	-0.050548576
16	0xbd2f8fb1	-0.042861644
17	0xbd128c95	-0.0357786
18	0xbd496c48	-0.04917553
19	0xbd23431b	-0.03985892
20	0xbcb74f76	-0.022376757
21	0xbd5c9c4e	-0.05386
22	0xbc85f1fd	-0.01635074
23	0xbcc777b1	-0.024349065
24	0xbd05ea21	-0.032693986
25	0xbd260098	-0.04052791
26	0xbdbf57e2	-0.09342934
27	0xbd012f8c	-0.031539485
28	0xbd2457dc	-0.04012285
29	0xbd39294b	-0.045205396
30	0xbd2a2b36	-0.041545115
31	0xbd043f1a	-0.03228674

stage3.block1.bn1.running_mean f4 [32]
0	0xbcb63a9e	-0.022244748
1	0xbcbd8403	-0.023134237
2	0xbc1ec90b	-0.009691487
3	0xbcb9bff3	-0.022674536
4	0xbc28c1c8	-0.010300107
5	0xbab45962	-0.0013759548
6	0xbc5c5f82	-0.013450505
7	0xbb6318ac	-0.0034652157
8	0xbc8abd2c	-0.016935907
9	0xbcbc5e02	-0.022994045
10	0xbccd844c	-0.025087498
11	0xbcc1b188	-0.023644224
12	0x3b5c789c	0.0033641225
13	0xbbf4f01b	-0.007474912
14	0xbcb5331b	-0.022119096
15	0xbcb0e01b	-0.021591237
16	0xbc85b868	-0.016323283
17	0xbc303e31	-0.010757015
18	0xbcef5875	-0.029216984
19	0xbc9969ce	-0.01872721
20	0xbca67e7c	-0.020323984
21	0xbcdd34e1	-0.027002754
22	0xbd0496cb	-0.03237037
23	0xbd09dc74	-0.033657506
24	0xbce5e137	-0.028061492
25	0xba622e37	-0.00086281024
26	0xbcf12032	-0.029434297
27	0xbc8ac43a	-0.016939271
28	0xba101f8a	-0.0005497864
29	0xbc4f7dec	-0.012664299
30	0xbc3e584f	-0.011617734
31	0xb9548f3b	-0.00020271253
