experiments/mpiigaze/resnet_preact/exp00/00/checkpoint_0020.pth (torch, 642256 bytes, 64 tensors)

conv.weight f4 [16, 1, 3, 3]
-0.17533024 -0.032433216 0.07908215 -0.08019524 0.05474503 0.1254163 -0.054760795 -0.04682424
0.0040067085 -0.03537601 -0.024019478 0.12602429 -0.11568148 -0.05857692 0.11000241 -0.023584532
-0.08512558 0.015182136 0.054617852 0.11686628 0.17330498 -0.090477645 0.013613286 0.060146037
-0.1270411 -0.06794463 -0.030557182 0.04342702 0.015375189 0.024941377 0.03272846 -0.0006037826
-0.004428759 0.026579894 0.014940837 0.0033472767 0.026751863 0.0071525397 -0.03411398 0.009880153
0.008818121 0.07514274 -0.056838028 -0.01071636 0.04911869 -0.005383349 -0.08403058 -0.09849323
-0.052131414 -0.0421866 -0.034739353 0.07769812 0.084116 0.055312973 0.034883812 0.032835346
0.004927703 -0.03780136 -0.05729323 -0.035365593 -0.04787354 -0.003531995 -0.031664576 0.034022346
-0.016262399 0.02183942 0.104365274 0.04138741 -0.04188284 0.042404488 -0.015472075 -0.012818395
0.048729356 -0.05421782 -0.07390952 -0.02729472 -0.09839072 -0.078526944 0.04375569 0.03600452
0.055593714 0.16837302 0.07190338 0.116567574 0.055625495 -0.06817823 -0.10259232 -0.005907382
-0.12707052 -0.18415593 -0.06187605 -0.04906822 0.05500081 -0.013051912 0.0073448378 0.086678244
0.041187797 0.027001789 0.063734554 0.014940924 0.011542302 -0.016383158 -0.08117095 -0.022957694
0.00046936894 -0.05972431 0.030879995 -0.0077450825 -0.07738792 -0.08801075 -0.127145 0.08816693
0.045895427 -0.06473682 0.21450317 0.0694058 -0.044579584 0.05462247 0.032221723 -0.035912063
0.0038886564 0.06345315 -0.004520713 -0.027450874 0.028173534 0.0069833933 0.091871805 -0.07133864
-0.12806393 0.16111054 -0.005889449 -0.121421 0.0765604 -0.054574717 -0.04683832 0.0077758143
-0.014437262 -0.044335872 -0.0049440963 -0.013283845 -0.008784761 -0.03434616 -0.055030767 -0.001182925
00000000: c589 33be b1d8 04bd d2f5 a13d 673d a4bd
00000010: 533c 603d 216d 003e db4c 60bd c6ca 3fbd
00000020: b54a 833b 6fe6 10bd 7fc4 c4bc 830c 013e
00000030: 69ea ecbd 5aee 6fbd f248 e13d 5934 c1bc
00000040: 5256 aebd 7ebe 783c f8b6 5f3d 9757 ef3d
00000050: dc76 313e 584c b9bd 430a 5f3c b15b 763d
00000060: 1017 02be 8e26 8bbd 0e53 fabc 88e0 313d
00000070: 37e8 7b3c dc51 cc3c 470e 063d 2a47 1eba
00000080: 201f 91bb 14be d93c 6aca 743c fc5d 5b3b
00000090: b926 db3c da5f ea3b 1abb 0bbd 5ee0 213c
000000a0: e179 103c 70e4 993d fece 68bd ac93 2fbc
000000b0: ae30 493d ce66 b0bb 3a18 acbd d2b6 c9bd
000000c0: c087 55bd dbcb 2cbd da4a 0ebd 3120 9f3d
000000d0: 0245 ac3d db8f 623d 54e2 0e3d 5b7e 063d
000000e0: 9278 a13b 99d5 1abd 4eac 6abd 83db 10bd
000000f0: 0c17 44bd 0b79 67bb b7b2 01bd 045b 0b3d
00000100: b938 85bc 95e8 b23c 76bd d53d d885 293d
00000110: 578d 2bbd 54b0 2d3d 967e 7dbc 3f04 52bc
00000120: 6f98 473d 8113 5ebd e05d 97bd 2d99 dfbc
00000130: 1381 c9bd bcd2 a0bd 2b39 333d 7a79 133d
00000140: 3cb6 633d fa69 2c3e 1442 933d fbba ee3d
00000150: 8fd7 633d 07a1 8bbd ec1b d2bd b692 c1bb
00000160: c61e 02be 5f93 3cbe be71 7dbd c2fb 48bd
00000170: 8848 613d b0d7 55bc f7ac f03b 5d84 b13d
00000180: 89b4 283d db32 dd3c 4387 823d c7ca 743c
00000190: ec1b 3d3c f935 86bc f43c a6bd c611 bcbc
000001a0: a215 f639 7aa1 74bd 0bf8 fc3c 76ca fdbb
000001b0: 8f7d 9ebd fb3e b4bd 4d32 02be dd90 b43d
000001c0: d8fc 3b3d bd94 84bd b8a6 5b3e a124 8e3d
000001d0: 1599 36bd d0bb 5f3d edfa 033d 8718 13bd
000001e0: d4d8 7e3b baf3 813d 7d22 94bb a8e0 e0bc
000001f0: 2fcc e63c f3d4 e43b 4927 bc3d fe19 92bd
00000200: 3123 03be 29fa 243e 47fc c0bb 93ab f8bd
00000210: b3cb 9c3d bd89 5fbd 8ad9 3fbd 42cc fe3b
00000220: 448a 6cbc 8899 35bd 1602 a2bb 7ca4 59bc
00000230: f5ed 0fbc 8fae 0cbd f167 61bd 600c 9bba

stage1.block1.bn1.weight f4 [16]
0.11252947 0.07369145 0.10831844 0.08315488 0.050991226 0.07790926 0.07457969 0.09807165
0.13472348 0.13640748 0.10958094 0.12743221 0.09447481 0.07308309 0.07948299 0.07427178
00000000: da75 e63d 8beb 963d 0fd6 dd3d 1b4d aa3d
00000010: 2ddc 503d e48e 9f3d 3dbd 983d cad9 c83d
00000020: f4f4 093e 67ae 0b3e f96b e03d 977d 023e
00000030: 027c c13d 96ac 953d fac7 a23d ce1b 983d

stage1.block1.bn1.bias f4 [16]
-0.024480615 0.03164945 0.005382912 -0.04457038 0.0051730433 0.0153297335 -0.03809807 -0.047279492
-0.08315321 0.043576326 -0.038033053 -0.11012006 0.025816435 -0.038579475 0.025128933 -0.008232797
00000000: 928b c8bc dba2 013d 2363 b03b 6e8f 36bd
00000010: a282 a93b 9029 7b3c b90c 1cbd 24a8 41bd
00000020: 3b4c aabd 177d 323d 8cc8 1bbd a086 e1bd
00000030: fd7c d33c 8305 1ebd 31db cd3c dae2 06bc

stage1.block1.bn1.running_mean f4 [16]
-0.05563223 -0.054989383 0.039492846 0.074781716 0.03988433 -0.046339244 -0.06992961 0.076951176
-0.075168826 -0.031139093 0.07615336 -0.06918169 0.008240698 0.06215121 -0.045194555 -0.08134687
00000000: 9fde 63bd 8c3c 61bd 40c3 213d 2827 993d
00000010: c05d 233d 38ce 3dbd 4137 8fbd 9498 9d3d
00000020: 1df2 99bd 6917 ffbc 4bf6 9b3d 21af 8dbd
00000030: fe03 073c 4492 7e3d ed1d 39bd 3099 a6bd

stage1.block1.bn1.running_var f4 [16]
0.0027606583 0.002504282 0.0053143403 0.0017972835 0.00063482986 0.0030231765 0.0018002447 0.002158605
0.002822153 0.006478513 0.0025449942 0.0016043487 0.0047606784 0.0012947846 0.002947755 0.0020615044
00000000: 29ec 343b e11e 243b eb23 ae3b d492 eb3a
00000010: b66a 263a 7c20 463b 30f6 eb3a 6277 0d3b
00000020: dff3 383b b549 d43b ebc9 263b 0249 d23a
00000030: 77ff 9b3b c3b5 a93a 1f2f 413b 4e1a 073b

stage1.block1.conv1.weight f4 [16, 16, 3, 3]
-0.0028106968 -0.0020451054 0.012106117 -0.03771942 -0.031857867 -0.039583683 -0.038897645 -0.029550374
-0.027843906 -0.00063205377 0.0026084224 0.0074955327 -0.025528524 -0.020228323 -0.007279642 -0.029558234
-0.03241289 -0.015310884 0.023200877 0.022441356 0.027015388 -0.017638624 -0.0060817082 0.0011181692
-0.044064794 -0.02583946 -0.033537284 -0.004795578 0.010335491 0.030514449 -0.0021567112 0.00913033
0.009596551 -0.0204751 -0.011787176 0.010685571 0.008384659 0.0032644982 0.021208737 0.023140348
0.010339977 0.011815626 -0.013431645 0.017018227 0.00838304 0.009875371 0.009603249 -0.0046571093
-0.0071116774 0.015104996 -0.025883673 -0.012686495 -0.015575505 -0.017584063 0.007347583 -0.0034453208
-0.0056951502 -0.011616433 0.000564151 0.0044867527 0.005820937 0.007908095 0.014893613 -0.013124413
0.021960026 0.011558557 -0.038934946 -0.00643809 0.021462873 -0.039462924 -0.0024433718 -0.005405771
0.003962258 0.021413151 -0.01428434 -0.0021300546 -0.031129044 -0.020341132 -0.009941717 -0.010171733
-0.017267069 0.018372234 -0.01781049 -0.035579234 -0.02267999 -0.01235881 -0.011888976 -0.019227728
0.014944396 -0.051665403 -0.021775914 -0.013021731 -0.0041510235 -0.034934513 -0.0072510117 0.005645678
0.0107571175 0.006716921 0.016116159 0.0059556677 -0.005883595 0.014169956 0.0029342035 -0.00021650195
0.0024584627 0.015716188 0.023723885 0.0050111553 -0.0189388 0.00033175293 -0.048521504 -0.01072743
0.018899998 -0.012825315 0.028555797 0.027046315 -0.017619308 0.00012161059 0.027507242 0.021740824
-0.03439046 -0.011205231 -0.007294017 -0.04125004 0.00013942982 0.00020690833 -0.010492852 -0.0018042411
-0.048544277 -0.040476006 0.013875361 -0.019889077 -0.012396421 0.012302594 -0.003591187 -0.0056694215
-0.013263941 0.0054100603 -0.017351598 -0.03844471 -0.011207491 0.007706329 -0.021523155 -0.0030130795
-0.0075294683 -0.026005056 -4.0819577e-07 -0.012654522 -0.0066421707 -0.021484977 0.047669236 0.008135473
-0.005669042 0.011960096 -0.010765928 -0.0022788346 0.027629443 -0.00727799 0.0018489459 0.031606168
0.017897075 0.006761063 0.060251962 0.0104096485 0.019691218 0.05160518 0.013780328 0.033803128
-0.031698182 -0.009167524 0.012297892 0.022440236 0.01704061 0.018273734 -0.02121307 -0.0012140065
0.010882105 -0.0119480705 -0.015794933 -0.021264289 0.04553026 0.05130537 0.017134072 -0.015966704
0.017499147 0.009032252 -0.0047075227 -0.0027428379 -0.020030234 -0.013563644 -0.0012742586 -0.02593619
0.00078327383 -0.019603048 0.0018886711 0.024345564 0.018774536 0.014653604 -0.004998073 -0.012570694
-0.030528082 0.02304436 0.0078011234 -0.009043129 0.0057015056 0.033616196 0.0058866655 0.0016324273
0.0450008 0.017554404 -0.03264909 0.0011000799 -0.012798853 -0.015336391 -0.0048291306 -0.035720866
-0.015320806 -0.02284949 -0.04615173 0.009857222 0.002985777 -0.033912905 -0.0030785839 0.0024295575
0.004637064 0.03597756 0.021115834 0.009520074 0.010102202 0.017139727 0.015833061 -0.03919286
-0.008025585 0.0052522295 0.019196955 0.032958645 0.0069521763 -0.007829032 -0.0072710956 -0.03399237
-0.011730852 -0.014960378 -0.04180495 0.022309009 0.002340299 0.017515603 0.055252682 0.035168685
0.011930969 0.04810435 0.021834917 0.024839934 -0.0140368445 -0.02060891 -0.032266814 -0.0021627774
00000000: ab33 38bb 2d07 06bb bc58 463c ae7f 1abd
00000010: 657d 02bd 8022 22bd 2353 1fbd a013 f2bc
00000020: e718 e4bc 69b0 25ba 11f2 2a3b 169d f53b
00000030: 3221 d1bc deb5 a5bc 108a eebb 1c24 f2bc
00000040: 61c3 04bd 81da 7abc c40f be3c efd6 b73c
00000050: 604f dd3c e07e 90bc 1149 c7bb 888f 923a
00000060: 497d 34bd 46ad d3bc 645e 09bd 3924 9dbb
00000070: 3156 293c 70f9 f93c 9c57 0dbb 6197 153c
00000080: da3a 1d3c 66bb a7bc 001f 41bc 8812 2f3c
00000090: cf5f 093c 31f1 553b f2bd ad3c d490 bd3c
000000a0: 0269 293c 5496 413c 6710 5cbc cf69 8b3c
000000b0: 0559 093c 4fcc 213c f256 1d3c aa9a 98bb
000000c0: 1309 e9bb f27a 773c ff09 d4bc 04db 4fbc
000000d0: 6730 7fbc 740c 90bc fec3 f03b e4ca 61bb
000000e0: 629e babb da52 3ebc 88e3 133a 9c05 933b
000000f0: 8fbd be3b f490 013c 5704 743c c707 57bc
00000100: 83e5 b33c 1a60 3d3c 407a 1fbd 9df6 d2bb
00000110: e8d2 af3c e0a3 21bd fa20 20bb e522 b1bb
00000120: d4d5 813b a26a af3c dd08 6abc 6398 0bbb
00000130: 5602 ffbc 72a2 a6bc 95e2 22bc 57a7 26bc
00000140: ab73 8dbc 5e81 963c 4ee7 91bc 88bb 11bd
00000150: 63cb b9bc 9b7c 4abc fbc9 42bc 7883 9dbc
00000160: 57d9 743c 1a9f 53bd 6763 b2bc 1959 55bc
00000170: 4f05 88bb 7e17 0fbd e599 edbb 61ff b83b
00000180: 9f3e 303c 9e19 dc3b 0906 843c c327 c33b
00000190: 2ccb c0bb 1a29 683c c44b 403b cd04 63b9
000001a0: 291e 213b 3cbf 803c 9858 c23c 9e34 a43b
000001b0: 8b25 9bbc 20ef ad39 7cbe 46bd 1ac2 2fbc
000001c0: 2bd4 9a3c 4521 52bc d9ed e93c 3c90 dd3c
000001d0: 5e56 90bc 3009 ff38 de56 e13c d019 b23c
000001e0: 03dd 0cbd 2596 37bc a602 efbb cdf5 28bd
000001f0: e833 1239 88f5 5839 36ea 2bbc 497c ecba
00000200: 5dd6 46bd 2bca 25bd 7b55 633c 6bee a2bc
00000210: 5c1a 4bbc d290 493c 1f5a 6bbb 8ec6 b9bb
00000220: 0051 59bc e046 b13b f024 8ebc 3378 1dbd
00000230: a09f 37bc 6085 fc3b 5451 b0bc 1677 45bb
00000240: c2b9 f6bb 8e08 d5bc 0026 dbb4 ea54 4fbc
00000250: 91a6 d9bb 4301 b0bc d140 433d a64a 053c
00000260: 5fc3 b9bb 47f4 433c 9363 30bc 8058 15bb
00000270: 2457 e23c 357c eebb 5458 f23a 7875 013d
00000280: e39c 923c e88b dd3b c3ca 763d 3b8d 2a3c
00000290: 7a4f a13c f45f 533d e3c6 613c 2675 0a3d
000002a0: f4d5 01bd 6233 16bc 197d 493c 96d4 b73c
000002b0: c098 8b3c ccb2 953c 08c7 adbc 4c1f 9fba
000002c0: db4a 323c d7c1 43bc 6064 81bc 7232 aebc
000002d0: f07d 3a3d 9425 523d c15c 8c3c 9bcc 82bc
000002e0: 5f5a 8f3c 03fc 133c 9041 9abb 2fc1 33bb
000002f0: 7216 a4bc 0c3a 5ebc 0605 a7ba 2278 d4bc
00000300: 9e54 4d3a 9296 a0bc 498d f73a 5970 c73c
00000310: 0ecd 993c ab15 703c e0c6 a3bb 50f5 4dbc
00000320: 0716 fabc 87c7 bc3c 91a0 ff3b a229 14bc
00000330: b2d3 ba3b 23b1 093d eee4 c03b 2cf7 d53a
00000340: c252 383d 41ce 8f3c 0dbb 05bd 8e30 903a
00000350: 48b2 51bc 7c45 7bbc af3d 9ebb 0b50 12bd
00000360: 1e04 7bbc db2e bbbc 9909 3dbd 3080 213c
00000370: 07ad 433b 42e8 0abd 11c2 49bb 3639 1f3b
00000380: 83f2 973b 355d 133d 1dfb ac3c 16fa 1b3c
00000390: b583 253c 9d68 8c3c 56b4 813c b188 20bd
000003a0: be7d 03bc e51a ac3b ef42 9d3c a5ff 063d
000003b0: 15cf e33b 5745 00bc 5f42 eebb 953b 0bbd
000003c0: c232 40bc 601c 75bc ab3b 2bbd 62c1 b63c
000003d0: b45f 193b e27c 8f3c a350 623d 0a0d 103d
000003e0: 1c7a 433c 1109 453d 24df b23c 1e7d cb3c
000003f0: cbfa 65bc 04d4 a8bc 352a 04bd 62bd 0dbb

stage1.block1.bn2.weight f4 [16]
0.1728296 0.19481875 0.15199153 0.13993995 0.1275487 0.20645647 0.21782984 0.19188632
0.12139975 0.18533553 0.18682075 0.14532553 0.18539311 0.15340577 0.15330268 0.1782414
00000000: 3efa 303e 917e 473e aba3 1b3e 6b4c 0f3e
00000010: 209c 023e 5369 533e c90e 5f3e d97d 443e
00000020: 6fa0 f83d 99c8 3d3e f04d 3f3e 37d0 143e
00000030: b1d7 3d3e 6716 1d3e 61fb 1c3e ea84 363e

stage1.block1.bn2.bias f4 [16]
-0.014359937 0.010517902 -0.021977471 -0.0046316492 0.016597712 0.064388454 0.0009896227 -0.043458495
-0.049549025 0.033521485 0.017267605 0.041973583 0.06658069 -0.021557454 0.008484423 -0.021769715
00000000: f145 6bbc 4753 2c3c 190a b4bc 17c5 97bb
00000010: edf7 873c 18de 833d 3ab6 813a 8901 32bd
00000020: ebf3 4abd d34d 093d cb74 8d3c 7eec 2b3d
00000030: 755b 883d 4299 b0bc 4002 0b3c 6756 b2bc

stage1.block1.bn2.running_mean f4 [16]
-0.033725724 0.00983228 0.029325427 0.011413024 0.004268702 -0.00741497 -0.0047991406 0.0032282225
0.005912927 -0.009997687 0.0022286621 -0.022896882 -0.029421581 0.018820629 -0.0138920285 0.0064048334
00000000: fc23 0abd 9217 213c e13b f03c b1fd 3a3c
00000010: 78e0 8b3b 47f9 f2bb 1c42 9dbb 9690 533b
00000020: 3ac1 c13b 57cd 23bc bf0e 123b 3e92 bbbc
00000030: 8705 f1bc b82d 9a3c 649b 63bc a3df d13b

stage1.block1.bn2.running_var f4 [16]
0.0005106907 0.00078721956 0.00037080667 0.0002368447 0.00055005506 0.0003121167 0.0006048324 0.00038331802
0.0003343457 0.0006003498 0.00058479764 0.000761522 0.0007597903 0.00034419025 0.00035942934 0.0003471658
00000000: dfdf 053a 695d 4e3a d468 c239 8459 7839
00000010: 9231 103a 98a3 a339 9e8d 1e3a 13f8 c839
00000020: 1f4b af39 cb60 1d3a 1b4d 193a e0a0 473a
00000030: aa2c 473a 6f74 b439 ca71 bc39 ce03 b639

stage1.block1.conv2.weight f4 [16, 16, 3, 3]
-0.0073537864 0.0001764642 0.009886937 -0.0011360139 0.0063158916 -0.005792501 -0.0015905931 -0.0010329298
0.025329566 0.024612708 0.037061155 0.0119348345 0.008468771 0.013297176 -0.010872802 -0.008438427
-0.004337071 0.007922814 0.011480854 0.014022286 0.00142542 0.0004064671 -0.0053504216 0.0023336336
0.013075714 -0.015387782 0.011522398 0.012162146 -0.0043365066 0.018272083 0.0028376882 0.01489467
-0.0034721284 0.018407123 -0.018947814 -0.022988483 0.030889982 0.017093059 -0.005723052 0.015534668
-0.001833876 0.026453618 -0.002904266 0.006591718 0.014619086 -0.03532108 -0.004869791 0.037808724
-0.05684508 0.006941798 0.02460765 -0.033177275 0.01754465 0.030542599 -0.02317929 -0.011718409
-0.02746823 0.012982814 0.0055061067 -0.014825692 0.0371303 0.006677291 0.022272594 -0.0003821928
-0.013988849 -0.01572319 0.013447395 -0.0050201276 0.014276988 0.0084723765 0.02806938 0.0053664967
0.038219914 0.01971578 -0.0071331686 0.013969954 0.005732371 -0.0017712323 0.020754924 0.042914953
0.01839278 0.018194249 0.03904301 0.024569416 0.018578948 0.0004898146 0.001271163 0.00951079
0.0038613542 -0.0017735924 0.00066600257 -0.006940882 0.030392706 -0.024869157 -0.04036482 -0.008779178
0.00036827452 -0.032290336 -0.009189609 0.017096449 -0.00013001179 0.0026399887 0.007227826 -0.017009364
-0.019943962 0.03272848 0.008668339 0.0022951101 0.03782467 0.0064074923 0.008506516 0.029134646
-0.019033723 -0.009509283 0.00988712 -0.002261111 0.0096531585 0.010909885 0.0065399664 0.0059724743
-0.01611208 0.0016076617 0.006077216 0.00042129666 0.039102267 0.016366025 0.017868154 0.010837203
0.023143863 0.009432914 0.021490641 0.0036398696 0.0133067425 0.00037761193 -0.01101517 0.004172122
-0.002151024 0.00961439 0.017678041 -0.002741751 0.030490292 -0.017394677 -0.006349102 0.023827244
-0.0010306113 0.021579687 0.005367746 0.00059350894 -0.0020700279 0.016882444 -0.0008018599 -0.006137082
0.0076580737 0.045746338 0.0049867188 -0.030985754 -0.008274732 0.0034852945 -0.0024520506 -0.018883096
0.02518529 0.04488938 -0.0048969924 0.007080814 -0.03316508 0.019021515 0.043739144 0.01255068
-0.028269812 0.032004092 0.044957962 -0.0061639636 -0.0032665168 0.010716493 -0.013492736 0.011333747
0.012941377 0.027019052 -0.0051791016 -0.01800872 -0.02137175 -0.029793287 -0.00507364 -0.009445299
0.014926163 -0.011566402 0.0021820778 0.0076508503 0.036708504 -0.043781325 -0.0044576223 0.026885813
-0.008092856 0.026261358 -0.018670885 0.0015093153 7.430233e-05 -0.056203388 -0.019719627 -0.010912001
-0.044875532 0.024385553 0.0049404707 -0.0005699489 0.1011137 0.063719936 0.031133998 -0.003917424
-0.009089646 -0.029732853 -0.014724359 0.032865763 -0.018928641 -0.033113 0.006603816 -0.002358045
0.010636139 0.027400512 -0.027730385 -0.00014891167 0.020848965 0.02901449 -0.013779746 0.020752307
0.04739692 0.00086113845 -0.016680444 0.06630983 -0.0060433997 -0.006473171 0.07692264 -0.02132801
0.010333437 0.082080625 -0.0029575522 -0.028177373 -0.0063707107 -0.006071751 -0.00038100342 -0.018004213
-0.021854002 0.011299926 0.00011417155 -0.06971307 -0.019436134 -0.002236494 -0.017967144 -0.042307638
-0.022602344 0.0045171254 -0.014356543 -0.022297848 0.021491671 0.029440876 0.035888597 -0.009659806
00000000: 08f8 f0bb 3f09 3939 d2fc 213c 4de6 94ba
00000010: 8af5 ce3b 05cf bdbb 737b d0ba 5f63 87ba
00000020: f37f cf3c 97a0 c93c 70cd 173d 538a 433c
00000030: 9ac0 0a3c 66dc 593c d623 32bc 5441 0abc
00000040: fd1d 8ebb b1ce 013c 311a 3c3c bbbd 653c
00000050: 29d5 ba3a 171b d539 9752 afbb e0ef 183b
00000060: 853b 563c 091d 7cbc 71c8 3c3c bd43 473c
00000070: 4119 8ebb 56af 953c 82f8 393b c608 743c
00000080: a68c 63bb 89ca 963c 7238 9bbc 5852 bcbc
00000090: fd0c fd3c be06 8c3c 7188 bbbb 1f85 7e3c
000000a0: ab5e f0ba 42b5 d83c 7f55 3ebb 57ff d73b
000000b0: e484 6f3c d6ac 10bd c592 9fbb 52dd 1a3d
000000c0: 63d6 68bd 0678 e33b fb95 c93c e5e4 07bd
000000d0: ccb9 8f3c 7934 fa3c 7fe2 bdbc 92fe 3fbc
000000e0: 0e05 e1bc deb5 543c 926c b43b 76e7 72bc
000000f0: f115 183d 2dcd da3b 0475 b63c 0d61 c8b9
00000100: 7c31 65bc ebcd 80bc 7652 5c3c e27f a4bb
00000110: 07ea 693c b9cf 0a3c c2f1 e53c 70d9 af3b
00000120: 7c8c 1c3d fd82 a13c 5bbd e9bb 3ce2 643c
00000130: 9dd6 bb3b b228 e8ba 3b06 aa3c 97c7 2f3d
00000140: 75ac 963c 1b0c 953c 90eb 1f3d cd45 c93c
00000150: e132 983c e766 003a 279d a63a 25d3 1b3c
00000160: c60e 7d3b e377 e8ba ad96 2e3a 5770 e3bb
00000170: 20fa f83c 67ba cbbc 9555 25bd 8bd6 0fbc
00000180: f814 c139 df42 04bd 0490 16bc da0d 8c3c
00000190: c653 08b9 a903 2d3b 66d7 ec3b 3957 8bbc
000001a0: 8561 a3bc 4c0e 063d a605 0e3c 8f69 163b
000001b0: 0bee 1a3d f1f5 d13b ea5e 0b3c c8ab ee3c
000001c0: 9cec 9bbc d3cc 1bbc 96fd 213c 262f 14bb
000001d0: 4828 1e3c 60bf 323c 374d d63b bfb4 c33b
000001e0: 7bfd 83bc 2db8 d23a 6223 c73b 7be1 dc39
000001f0: b329 203d 0b12 863c 3c60 923c 868e 313c
00000200: 3398 bd3c 828c 1a3c 240d b03c e18a 6e3b
00000210: 8604 5a3c 37fa c539 f978 34bc 4cb6 883b
00000220: 32f8 0cbb ad85 1d3c 8ad1 903c f3ae 33bb
00000230: c7c6 f93c 487f 8ebc 210c d0bb 5a31 c33c
00000240: 9415 87ba e2c7 b03c ebe3 af3b b695 1b3a
00000250: 4ea9 07bb 0d4d 8a3c e833 52ba 9319 c9bb
00000260: 94f0 fa3b 8360 3b3d a167 a33b d6d5 fdbc
00000270: be92 07bc 8a69 643b 95b2 20bb b9b0 9abc
00000280: 6251 ce3c eddd 373d f376 a0bb 2c06 e83b
00000290: 1bd8 07bd 02d3 9b3c d127 333d 5ea1 4d3c
000002a0: 1896 e7bc b916 033d d725 383d 13fb c9bb
000002b0: 0f13 56bb 3b94 2f3c a310 5dbc 2eb1 393c
000002c0: 1208 543c 0f57 dd3c 74b5 a9bb 0687 93bc
000002d0: cf13 afbc 0d11 f4bc c740 a6bb 75c0 1abc
000002e0: dd8c 743c 0281 3dbc 3101 0f3b fcb3 fa3b
000002f0: a85b 163d 0c54 33bd 3f11 92bb a33f dc3c
00000300: e697 04bc 0f22 d73c aff3 98bc 38d4 c53a
00000310: c2d2 9b38 8635 66bd 0e8b a1bc 40c8 32bc
00000320: 68cf 37bd 36c4 c73c ace3 a13b a068 15ba
00000330: b314 cf3d 997f 823d ba0c ff3c bc5d 80bb
00000340: bdec 14bc 5092 f3bc 703e 71bc 409e 063d
00000350: 3d10 9bbc 7fa1 07bd d364 d83b 6e89 1abb
00000360: 3343 2e3c 0a77 e03c d52a e3bc 2c25 1cb9
00000370: 73cb aa3c ccaf ed3c 72c4 61bc be00 aa3c
00000380: 4623 423d 06be 613a 6da5 88bc 73cd 873d
00000390: b607 c6bb e51c d4bb 9e89 9d3d 14b8 aebc
000003a0: 934d 293c e319 a83d 7ed3 41bb 3cd4 e6bc
000003b0: 65c1 d0bb 8af5 c6bb 6ac1 c7b9 927d 93bc
000003c0: 2a07 b3bc 5323 393c 626f ef38 bac5 8ebd
000003d0: 8738 9fbc 2592 12bb d52f 93bc c64a 2dbd
000003e0: 8d28 b9bc 6504 943b b537 6bbc faa9 b6bc
000003f0: 4d0f b03c fe2d f13c ecff 123d 2a44 1ebc

stage2.block1.bn1.weight f4 [16]
0.111380436 0.15079759 0.14233969 0.09795505 0.15775467 0.13108939 0.13157913 0.11412387
0.11007091 0.12893362 0.13103345 0.16906114 0.12664518 0.115156606 0.12771925 0.10619474
00000000: 6d1b e43d af6a 1a3e 7fc1 113e a89c c83d
00000010: 718a 213e 4c3c 063e aebc 063e c7b9 e93d
00000020: db6c e13d 2d07 043e a22d 063e 5d1e 2d3e
00000030: 46af 013e 3ad7 eb3d d6c8 023e a17c d93d

stage2.block1.bn1.bias f4 [16]
-0.020477744 -0.016287755 -0.020372897 0.007201438 -0.026828563 0.0050822375 0.017241646 0.00020615559
-0.049540203 0.013368892 0.0036322349 0.012706527 0.02571076 -0.047030568 -0.011881036 -0.023704655
00000000: f1c0 a7bc e66d 85bc 10e5 a6bc 0afa eb3b
00000010: 93c7 dbbc e688 a63b 5a3e 8d3c 782b 5839
00000020: abea 4abd 3209 5b3c ca0a 6e3b 092f 503c
00000030: 5f9f d23c 20a3 40bd ada8 42bc 4430 c2bc

stage2.block1.bn1.running_mean f4 [16]
0.07324941 0.058413066 0.024348103 0.041579105 0.052968163 -0.0040439283 -0.009924356 0.014058164
0.03487248 0.03214189 0.1065374 -0.063469686 0.045991246 0.04344804 0.044627044 0.017818483
00000000: c903 963d 8a42 6f3d ac75 c73c da4e 2a3d
00000010: 25f5 583d ee82 84bb c499 22bc 3754 663c
00000020: 72d6 0e3d 37a7 033d 4830 da3d 65fc 81bd
00000030: 5161 3c3d 92f6 313d d9ca 363d 11f8 913c

stage2.block1.bn1.running_var f4 [16]
0.0069531268 0.005710068 0.005739745 0.002399612 0.0049278946 0.0076449295 0.00477151 0.0036225307
0.0031509476 0.006918148 0.004050644 0.005662407 0.0071717496 0.0031868392 0.005680651 0.0038061098
00000000: 0ed7 e33b 861b bb3b 7914 bc3b cf42 1d3b
00000010: 2d7a a13b 5182 fa3b 545a 9c3b fb67 6d3b
00000020: 2180 4e3b a2b1 e23b 44bb 843b b68b b93b
00000030: ff00 eb3b 4ada 503b c124 ba3b ed6f 793b

stage2.block1.conv1.weight f4 [32, 16, 3, 3]
0.021608459 0.00079594954 -0.006309337 0.037013147 0.006824457 0.01544729 0.011568226 0.002501353
0.003985236 -0.014475942 -0.014318526 -0.020366872 0.007936675 0.031846393 0.023557113 -0.030410688
-0.00095768785 -0.0018816772 -0.027990319 -0.029568367 -0.0015888518 -0.026084611 -0.016252067 0.01436148
-0.007136704 -0.022111785 -0.008335913 0.0068705017 0.023420513 0.009364262 0.027792914 0.01713111
-0.0008538525 -0.0003229257 -0.043697216 -0.04806547 0.016452488 0.04003131 0.020480402 -0.017165206
0.0052794977 -0.0126149515 -0.012236796 0.026783349 0.0009918615 -0.009377655 -0.030855106 -0.04514743
0.010935521 0.0035356814 -0.030172879 -0.028680993 -0.032811895 -0.034766316 -0.07962102 -0.054751314
0.0011642757 -0.07200676 -0.036391094 0.016256671 -0.040074836 -0.036009744 0.02111643 -0.026076544
-0.0022942997 -0.012076952 -0.033219688 0.023206105 -0.02084003 -0.015484482 0.0046824072 -0.035124548
-0.016170356 -0.03189584 -0.025127433 -0.0009697472 -0.005828669 -0.016988726 0.019687572 0.009575066
-0.0031951352 -0.006735689 0.005782809 0.014298373 0.003984711 0.02612353 0.047667313 -0.013623744
-0.016109044 -0.0055741784 -0.005910972 -0.013005731 -0.020093463 -0.01881386 -0.01072508 -0.030261986
0.01423158 0.034114927 0.006384062 -0.03057061 -0.03265639 -0.045636 -0.03363747 -0.047150135
-0.019898025 -0.015084563 -0.027359797 -0.0043662465 -0.0051486334 0.014886483 -0.010258072 0.010349498
0.030338766 0.008168259 0.017333679 0.023348045 -0.0041923663 -0.01760872 -0.024499169 -0.009035527
-0.049621034 0.0018322068 0.017840644 -0.018736111 0.04007342 0.05793184 -0.017546594 -0.05538844
-0.05680326 0.036407597 0.0075023007 0.008007076 0.04626306 0.025997484 -0.009306947 0.007628912
-0.011566766 -0.010797713 0.0060179885 0.0015197718 -0.01955145 0.008775671 0.0071208817 0.008505997
-0.016152296 -0.007926936 -0.0331781 0.0025574104 -0.018194577 -0.02560954 -0.00089015695 -0.011083071
-0.02167953 -0.009900161 0.0035964786 -0.006253175 -0.0031889747 -0.012964439 -0.009628341 -0.024721647
-0.021671029 -0.026831089 -0.02038217 0.0028231414 0.0127842305 0.006050508 0.038083807 0.04217371
0.0048929555 0.033426464 0.023621194 -0.011094167 -0.022215039 0.030089283 0.0070600957 0.0075034644
0.03645515 0.0039472533 0.008569396 0.0454849 -0.0028007037 -0.010858493 0.017943487 0.0043560076
0.00500392 0.021149931 0.0132615045 0.015733436 0.03277304 -0.020778036 -0.016214922 -0.016070198
-0.005641518 -0.024291294 -0.021291316 -0.028549258 -0.021464007 -0.047761172 0.0039275596 -0.019874955
-0.0063184467 -0.015529658 -0.0214068 -0.016301457 -0.0040483163 -0.015606908 0.0015897718 -0.035444472
0.0013349794 -0.007003333 -0.019188872 -0.012136973 0.0017023186 -0.03590554 0.00800166 0.0008005146
-0.008499314 -0.019666726 -0.005105025 -0.011237645 -0.001209529 0.017495774 -0.005851382 -0.009001067
0.008945286 -0.03186545 -0.0154388035 -0.009043493 0.01838778 -0.0044206777 0.0064777103 -0.0052311304
-0.018796464 -0.010580714 0.0044758553 0.013674524 0.009312709 -0.007455364 0.022754718 -0.0024972667
0.021556789 0.029420447 0.023713024 0.011024609 -0.0025966621 0.003255754 -0.008970943 -0.0070802253
0.01822489 -0.0033594652 0.009564509 0.009652828 0.025463056 -0.014891093 0.022209404 -0.016467618
00000000: 3904 b13c 45a7 503a 8ebe cebb 199b 173d
00000010: b29f df3b a116 7d3c a888 3d3c bded 233b
00000020: 9596 823b 802c 6dbc 4098 6abc 6dd8 a6bc
00000030: d408 023c 5d71 023d d9fa c03c d61f f9bc
00000040: 580d 7bba 9ca2 f6ba f44b e5bc 5c39 f2bc
00000050: 0541 d0ba 65af d5bc 0e23 85bc 6a4c 6b3c
00000060: 03db e9bb c623 b5bc 5a93 08bc f221 e13b
00000070: 60dc bf3c 906c 193c f7ad e33c 8b56 8c3c
00000080: 12d5 5fba 5b4e a9b9 dafb 32bd 4ce0 44bd
00000090: 5ec7 863c dff7 233d 84c6 a73c 0c9e 8cbc
000000a0: a3ff ac3b f1ae 4ebc d87c 48bc c168 db3c
000000b0: 5901 823a bca4 19bc d9c3 fcbc 83ec 38bd
000000c0: e62a 333c e4b6 673b 1d2d f7bc 67f4 eabc
000000d0: c465 06bd 2067 0ebd 5810 a3bd ea42 60bd
000000e0: 9c9a 983a 4878 93bd d40e 15bd b62c 853c
000000f0: 8325 24bd f47e 13bd 5dfc ac3c 7a9e d5bc
00000100: f65b 16bb 68de 45bc 5e11 08bd bb1a be3c
00000110: b6b8 aabc a0b2 7dbc e16e 993b c2de 0fbd
00000120: b277 84bc 36a5 02bd 0cd8 cdbc a236 7eba
00000130: 6bfe bebb f12b 8bbc d547 a13c bde0 1c3c
00000140: 7965 51bb 0eb7 dcbb b87d bd3b b943 6a3c
00000150: 2e92 823b 0301 d63c cd3e 433d 2036 5fbc
00000160: 1df7 83bc 99a7 b6bb d4b0 c1bb fd15 55bc
00000170: 0c9b a4bc 861f 9abc 3fb8 2fbc fce7 f7bc
00000180: 932b 693c 18bc 0b3d 6531 d13b 376f fabc
00000190: b5c2 05bd d0ec 3abd 72c7 09bd 8020 41bd
000001a0: 2f01 a3bc 3e25 77bc a721 e0bc bb12 8fbb
000001b0: deb5 a8bb 6fe6 733c 7911 28bc f190 293c
000001c0: 0189 f83c 29d4 053c 5cff 8d3c 6644 bf3c
000001d0: 1e60 89bb 2a40 90bc 7bb2 c8bc bf09 14bc
000001e0: 6d3f 4bbd a926 f03a 8b26 923c 797c 99bc
000001f0: 0724 243d f049 6d3d e0bd 8fbc fdde 62bd
00000200: 89aa 68bd 2220 153d dcd5 f53b 1c30 033c
00000210: 567e 3d3d adf8 d43c 2a7c 18bc f4fb f93b
00000220: 8882 3dbc e4e8 30bc 8c32 c53b 1433 c73a
00000230: 5d2a a0bc d5c7 0f3c 4956 e93b bd5c 0b3c
00000240: d251 84bc fbdf 01bc c2e5 07bd 3a9a 273b
00000250: cb0c 95bc 19cb d1bc 6c59 69ba c595 35bc
00000260: 4599 b1bc 4934 22bc e6b2 6b3b 6fe7 ccbb
00000270: 1efe 50bb cc68 54bc 30c0 1dbc 0d85 cabc
00000280: 7187 b1bc dfcc dbbc 82f8 a6bc 7404 393b
00000290: f374 513c 5743 c63b c4fd 1b3d 57be 2c3d
000002a0: 1655 a03b 30ea 083d 3c81 c13c 4fc4 35bc
000002b0: 50fc b5bc cd7d f63c 6058 e73b 9fdf f53b
000002c0: ff51 153d f657 813b a766 0c3c 604e 3a3d
000002d0: 038c 37bb d2e7 31bc 38fe 923c d7bc 8e3b
000002e0: ecf7 a33b 9f42 ad3c c846 593c 68e3 803c
000002f0: 063d 063d b336 aabc 28d5 84bc a6a5 83bc
00000300: 7cdc b8bb 89fe c6bc 206b aebc 22e0 e9bc
00000310: 49d5 afbc 38a1 43bd c2b2 803b cdd0 a2bc
00000320: f90a cfbb 1b70 7ebc 505d afbc a28a 85bc
00000330: bda7 84bb 1eb4 7fbc e45f d03a 392e 11bd
00000340: 7afa ae3a 377c e5bb fb31 9dbc 28da 46bc
00000350: 5520 df3a b011 13bd 6519 033c a0d9 513a
00000360: b540 0bbc 1d1c a1bc 0e48 a7bb 191e 38bc
00000370: 0f89 9eba 4c53 8f3c f3bc bfbb 3679 13bc
00000380: 408f 123c 5985 02bd 09f3 7cbc 292b 14bc
00000390: f8a1 963c 55db 90bb f942 d43b e769 abbb
000003a0: 0bfb 99bc bb5a 2dbc 32aa 923b 1c0b 603c
000003b0: 5594 183c 204c f4bb 1a68 ba3c 2fa9 23bb
000003c0: dd97 b03c 2603 f13c d141 c23c 90a0 343c
000003d0: c32c 2abb 7d5e 553b ddfa 12bc 3c01 e8bb
000003e0: 5d4c 953c 792a 5cbb 75b4 1c3c e526 1e3c
000003f0: e697 d03c c5f9 73bc 7ff0 b53c 19e7 86bc

stage2.block1.bn2.weight f4 [32]
0.1260528 0.12858692 0.13714267 0.09361479 0.117398575 0.11226315 0.10714634 0.14023603
0.1307856 0.12768897 0.13514002 0.1538742 0.13231485 0.11263323 0.12949273 0.12481928
0.123421125 0.13977352 0.094220236 0.11500361 0.12526065 0.12212604 0.11363845 0.11770512
0.11796611 0.113313206 0.12791246 0.13014005 0.106489144 0.134831 0.08817063 0.13533819
00000000: fc13 013e 4aac 033e 216f 0c3e 1cb9 bf3d
00000010: aa6e f03d 39ea e53d 8a6f db3d 099a 0f3e
00000020: a9ec 053e e6c0 023e 2562 0a3e 3391 1d3e
00000030: 8b7d 073e 40ac e63d be99 043e 40a1 ff3d
00000040: 37c4 fc3d ca20 0f3e 8af6 c03d 0387 eb3d
00000050: 5444 003e 381d fa3d 47bb e83d 620f f13d
00000060: 3798 f13d c110 e83d 7cfb 023e 6f43 053e
00000070: fb16 da3d 2311 0a3e ce92 b43d 1896 0a3e

stage2.block1.bn2.bias f4 [32]
-0.0008041954 -0.01717207 -0.025492925 -0.043717083 -0.04044794 -0.011741097 -0.042703077 -0.05048344
-0.023118386 -0.0027591945 -0.042398117 -0.044079926 -0.038353503 0.0002577197 -0.029563125 0.0018109692
-0.034428015 -0.03937241 -0.004073858 -0.033342563 0.009938025 -0.008698416 -0.022323133 -0.041330066
-0.005936226 -0.0139531335 -0.010496821 -0.018656865 -0.011918891 0.0011534594 -0.009495318 0.009699717
00000000: a4d0 52ba 71ac 8cbc 8ad6 d0bc af10 33bd
00000010: bdac 25bd bb5d 40bc 6ce9 2ebd b9c7 4ebd
00000020: c562 bdbc 9ad3 34bb a6a9 2dbd 278d 34bd
00000030: 9018 1dbd 8d1e 8739 5e2e f2bc 0b5e ed3a
00000040: 6404 0dbd f744 21bd ff7d 85bb 3692 08bd
00000050: 19d3 223c cd83 0ebc 01df b6bc b749 29bd
00000060: ac84 c2bb af9b 64bc dcfa 2bbc 48d6 98bc
00000070: 7447 43bc ad2f 973a 4092 1bbc 90eb 1e3c

stage2.block1.bn2.running_mean f4 [32]
-0.04709417 -0.008288887 -0.043288685 0.01759505 0.01994572 -0.02304234 0.011487751 -0.0052453363
-0.011693424 -0.005676768 -0.013983813 -0.029318957 -0.0056648925 0.008449554 -0.01746409 -0.00603424
0.01381442 -0.038455144 0.040009953 0.0024801344 -0.043945134 -0.010319212 0.001499368 -0.029642927
-0.01593885 -0.0013304515 -0.029662522 -0.020291466 0.022516323 -0.024917958 -0.010260732 -0.028230624
00000000: d1e5 40bd 1dce 07bc 7a4f 31bd 7f23 903c
00000010: 3565 a33c 4ac3 bcbc 1f37 3c3c 12e1 abbb
00000020: c695 3fbc 2e04 babb 5d1c 65bc 4f2e f0bc
00000030: 90a0 b9bb 0070 0a3c da10 8fbc e0ba c5bb
00000040: e155 623c 2483 1dbd 7ae1 233d c089 223b
00000050: d0ff 33bd ea11 29bc 7186 c43a b9d5 f2bc
00000060: 3192 82bc 8b62 aeba d1fe f2bc 4a3a a6bc
00000070: 2774 b83c bf20 ccbc a11c 28bc e943 e7bc

stage2.block1.bn2.running_var f4 [32]
0.0010060997 0.0012093193 0.0014878333 0.00064993737 0.0012370883 0.0008531135 0.0007466369 0.000923715
0.0014157176 0.0007964483 0.0006568984 0.001163453 0.0012821596 0.0009202703 0.0008629517 0.0009869495
0.0011778076 0.000978542 0.00084904104 0.0008719213 0.001431602 0.0009853503 0.00079692487 0.0009013916
0.0006481028 0.0007601878 0.0012365797 0.000857561 0.00085105974 0.0009705161 0.0010060801 0.001336313
00000000: 1bdf 833a 0682 9e3a 6703 c33a 8f60 2a3a
00000010: cc25 a23a 7aa3 5f3a f4b9 433a 7725 723a
00000020: 9a8f b93a bec8 503a b533 2c3a 017f 983a
00000030: 230e a83a 4b3e 713a b537 623a 885c 813a
00000040: aa60 9a3a 6c42 803a 2e92 5e3a a691 643a
00000050: 98a4 bb3a df26 813a b9e8 503a 5e4b 6c3a
00000060: 71e5 293a 5747 473a bb14 a23a f2cd 603a
00000070: a719 5f3a 3c6a 7e3a 72de 833a 3927 af3a

stage2.block1.conv2.weight f4 [32, 32, 3, 3]
-0.016662009 -0.020833308 -0.012725652 0.03748815 0.013089272 -0.013614848 0.012365021 -0.00087354024
-0.017789178 -0.027817447 -0.008821469 -0.0062507954 -0.021190118 0.017499276 0.019143708 0.01895188
0.0058810567 0.013751149 -0.002005651 -0.038778488 0.008976096 -0.028774679 -0.015448019 -0.038066126
-0.01943464 -0.0023385985 -0.0015151302 0.00023846273 -0.0110360095 -0.0045222603 -0.0010952482 0.0020500247
0.009146757 0.017708154 0.008072634 0.009568228 -0.016274288 -0.014534789 0.0056830556 -0.014598688
0.003998793 -0.02340303 0.0112025505 -0.013971742 -0.030087039 -0.02079497 -0.00882801 -0.0061778603
-0.032856297 -0.015236166 0.0009968134 -0.007653792 -0.0022891536 0.025812203 -0.00521563 -0.008534136
-0.0031866399 -0.004111634 -0.007990924 -0.014818663 0.016219465 0.009504 0.0020933305 -0.012859612
-0.005668014 0.040503066 -0.0035363673 0.0068251183 -0.003499723 -0.018367322 -0.009656088 -0.023897855
-0.0049468875 0.002454795 0.031144606 0.016707 0.034390394 -0.01908219 0.018613344 -0.0018450222
-0.055838 0.0061062174 -0.029198833 -0.03646611 -0.0001652838 -0.014754748 -0.006227941 -0.008484968
-0.0074583357 0.022865314 -0.010477274 -0.015422636 -0.007420124 -0.0053558624 -0.008761657 0.019678855
0.023526907 0.008251298 0.007337553 -0.009803396 0.0013348407 -0.0030180083 -0.010473904 -0.020200236
0.012099621 -0.02279959 -0.023761462 0.015111055 -0.010173153 -0.01580324 -0.02630323 -0.0033341525
-0.01698364 -0.035929717 0.019084709 -0.00025482368 -0.010319581 0.025056522 0.00948088 -0.028223407
0.014781331 0.0027889693 0.011450391 -0.004079017 -0.011265868 -0.009188139 0.021627441 0.0076720673
0.010447846 0.013069617 0.009714156 -0.004299951 0.009521606 -0.0035945526 0.019189648 0.011380641
0.030382562 0.018825572 0.008615653 0.009829351 0.007216101 0.009791358 0.012521733 -0.017056148
0.01760618 0.0057495167 -0.0006110228 0.0092476895 0.0064238682 -0.02060804 -0.008179329 0.0035613573
-0.017812962 -0.019205546 -0.021141803 -0.022200486 0.012443943 0.015781594 -0.008046155 -0.02302168
-0.021215115 0.01093239 0.04401038 -0.012370635 -0.014628358 0.020698069 -0.024689581 -0.031693317
0.005534134 -0.0095552765 -0.0454891 0.006477028 -0.0026613218 -0.0027652585 -0.012808046 0.005139364
-0.03553538 -0.008839362 0.002297927 -0.0061186794 -0.0025786185 -0.00632902 0.023735564 -0.0006933893
0.002027618 0.007782634 -0.0060048527 -0.027324084 -0.02728203 0.010613007 -0.010383078 -0.030473815
-0.01174636 -0.015125803 -0.017166724 0.0048296037 -0.027254656 -0.043295305 0.030221863 -0.0057394626
-0.007536684 0.014948157 0.028804207 -0.0122416625 0.020276697 -0.00735838 -0.009259671 -6.4632724e-05
0.005860702 0.012974687 -0.0043616793 0.007872743 0.014182614 0.0039788145 0.0077619515 0.006965533
0.007970372 0.0005305022 -0.020782562 0.011986513 0.018102178 0.019623242 -0.030211058 -0.007113581
0.01999039 -0.012305202 -0.004642655 0.0063887862 0.0054775435 0.030804131 0.012222935 0.005532761
0.0042488948 0.011252535 0.0177157 -0.008919844 -0.02976396 -0.008923603 0.01452886 -0.030712666
0.021128649 -0.0058983676 -0.028743995 -0.03686864 -0.019494703 -0.035803523 -0.012269184 -0.0052841757
-0.0106296595 -0.005857154 0.027185604 0.027304385 -0.044046585 -0.018203842 -0.0034907581 -0.023908155
00000000: c47e 88bc 9daa aabc 417f 50bc 2d8d 193d
00000010: 6374 563c d010 5fbc a896 4a3c 4bfe 64ba
00000020: 9cba 91bc 6ae1 e3bc ec87 10bc 79d3 ccbb
00000030: e696 adbc a45a 8f3c 44d3 9c3c f940 9b3c
00000040: e1b5 c03b 804c 613c 3d71 03bb 31d6 1ebd
00000050: 7a10 133c e0b8 ebbc b019 7dbc 3aeb 1bbd
00000060: 6535 9fbc 2c43 19bb 5597 c6ba da0b 7a39
00000070: 61d0 34bc 782f 94bb 6e8e 8fba b559 063b
00000080: 48dc 153c b110 913c 1543 043c 0fc4 1c3c
00000090: a851 85bc 5323 6ebc ed38 ba3b 562f 6fbc
000000a0: 4f08 833b b6b7 bfbc e78a 373c bce9 64bc
000000b0: 1879 f6bc 375a aabc 5ca3 10bc a66f cabb
000000c0: 5394 06bd 1da1 79bc 82a7 823a a9cc fabb
000000d0: a005 16bb 1d74 d33c e0e7 aabb c3d2 0bbc
000000e0: f2d6 50bb e3ba 86bb 5dec 02bc fac9 72bc
000000f0: afde 843c aab6 1b3c 4230 093b 1fb1 52bc
00000100: bfba b9bb 8be6 253d 66c2 67bb 3ea5 df3b
00000110: 9c5b 65bb 1177 96bc 9234 1ebc 6fc5 c3bc
00000120: 8019 a2bb a0e0 203b f922 ff3c 1edd 883c
00000130: f1dc 0c3d 4152 9cbc 037b 983c acd4 f1ba
00000140: 63b6 64bd aa16 c83b 6432 efbc 7d5d 15bd
00000150: 0850 2db9 e6bd 71bc c113 ccbb 8904 0bbc
00000160: 0e65 f4bb 0a50 bb3c dfa8 2bbc 39af 7cbc
00000170: 8324 f3bb 3b80 afbb 0e8d 0fbc 8d35 a13c
00000180: 80bb c03c 7430 073c db6f f03b 6c9e 20bc
00000190: d2f5 ae3a c7c9 45bb bd9a 2bbc f77a a5bc
000001a0: 7d3d 463c 35c6 babc 66a7 c2bc 5c94 773c
000001b0: 4cad 26bc cc75 81bc df79 d7bc cc81 5abb
000001c0: 4621 8bbc 0a2b 13bd 8957 9c3c db99 85b9
000001d0: 7613 29bc 5643 cd3c b155 1b3c c634 e7bc
000001e0: 652d 723c 24c7 363b 6c9a 3b3c 46a9 85bb
000001f0: 7a94 38bc d989 16bc 082c b13c f765 fb3b
00000200: 712d 2b3c f221 563c 2028 1f3c 9ae6 8cbb
00000210: 8300 1c3c 9692 6bbb 9c33 9d3c de75 3a3c
00000220: dae4 f83c 1638 9a3c ab28 0d3c 490b 213c
00000230: 0b75 ec3b ef6b 203c f427 4d3c 56b9 8bbc
00000240: d63a 903c 7166 bc3b 0c2d 20ba 9f83 173c
00000250: 507f d23b 31d2 a8bc 9802 06bc a965 693b
00000260: 7dec 91bc f354 9dbc 9331 adbc cbdd b5bc
00000270: aee1 4b3c 6748 813c 05d4 03bc f697 bcbc
00000280: 52cb adbc c41d 333c 3a44 343d 34ae 4abc
00000290: c8ab 6fbc ff8e a93c ce41 cabc dad0 01bd
000002a0: ae57 b53b bc8d 1cbc c752 3abd 403d d43b
000002b0: 9269 2ebb 5739 35bb d7d8 51bc 1c68 a83b
000002c0: 8c8d 11bd f9d2 10bc d198 163b 347f c8bb
000002d0: 0afe 28bb ab63 cfbb 1671 c23c 91c4 35ba
000002e0: c9e1 043b 7705 ff3b 5bc4 c4bb c2d6 dfbc
000002f0: 907e dfbc 2de2 2d3c c91d 2abc 39a4 f9bc
00000300: ce73 40bc 37d2 77bc 3ba1 8cbc a741 9e3b
00000310: 2845 dfbc 6b56 31bd d793 f73c 1a12 bcbb
00000320: 4af6 f6bb 1de9 743c cdf6 eb3c 4191 48bc
00000330: 511b a63c 911e f1bb e0b5 17bc 6e8b 87b8
00000340: 220b c03b c893 543c 6bec 8ebb adfc 003c
00000350: 325e 683c b760 823b f857 fe3b 203f e43b
00000360: 2a96 023c 6611 0b3a 3140 aabc 1463 443c
00000370: 054b 943c ecc0 a03c 2e7d f7bc 0b19 e9bb
00000380: e3c2 a33c c29b 49bc 6a21 98bb 0659 d13b
00000390: f77c b33b f258 fc3c b542 483c 2a4c b53b
000003a0: 503a 8b3b 8d5c 383c 8420 913c 8a24 12bc
000003b0: 8cd3 f3bc 4e34 12bc 750a 6e3c 2199 fbbc
000003c0: fd15 ad3c 1847 c1bb 8778 ebbc 9203 17bd
000003d0: 5bb3 9fbc b7a6 12bd b004 49bc e126 adbb
000003e0: 0628 2ebc 5eed bfbb 58b4 de3c 72ad df3c
000003f0: 316a 34bd 3920 95bc 34c5 64bb 09db c3bc

stage2.block1.shortcut.conv.weight f4 [32, 16, 1, 1]
0.006026158 -0.024607379 0.030312482 -0.0032996475 0.037707236 -0.059285052 -0.03344255 0.032194637
0.0019630026 -0.032626066 -0.0114643965 -0.048001446 0.038628913 -0.006320625 -0.00032431894 -0.006401978
0.005166626 0.011463802 -0.009409318 0.020909203 0.03282979 0.00816992 -0.01604144 -0.0041610883
0.023171386 0.024331715 -0.016422218 0.0037609483 0.019885894 0.013264939 0.02553785 0.0108153
0.011632145 -0.0021034973 0.0030123256 0.0016979226 -0.001855319 -0.009309426 -0.0046858415 0.046814993
-0.031062055 0.0043936367 -0.034021262 0.05420721 0.0065767383 -0.044269282 -0.03450706 0.0024695406
-0.003767082 0.02638882 -0.010466445 -0.03277502 -0.014000472 -0.0028801167 0.034357715 -0.012774244
-0.054371685 -0.011140524 0.004724572 0.005432884 0.004564421 0.009230121 -0.035973746 -0.00193808
0.011137451 -0.035640854 0.000105321895 -0.045647174 0.0058191614 0.020522762 -0.06645529 -0.047266733
0.015714858 -0.012785494 0.021833636 -0.05493141 -0.02196935 -0.00066625926 0.019956892 -0.02372517
0.0070582754 -0.025056073 -0.020163104 0.01774395 0.014571232 0.04334254 -0.00016237756 -0.037153877
0.019012833 0.02311021 -0.0037885003 0.042757902 0.016206022 -0.013949422 -0.03613491 -0.0025013098
-0.019375572 -0.04803088 -0.017062197 -0.008519874 -0.06589424 -0.00955249 -0.05168281 -0.022566078
0.02382886 -0.027857767 0.03473103 -0.0037916342 -0.03142891 -0.0014045782 0.042859428 -0.0025860802
0.010840409 -0.06441924 -0.021915738 -0.02415532 0.008290857 0.030505758 -0.04071698 -0.0010511373
-0.020827755 0.040927336 0.026165402 0.018866692 -0.014711891 0.019864671 0.004047952 -0.023252264
0.017132735 0.02824184 -0.0200832 -0.017488021 0.006668369 0.0007893853 -0.06249831 -0.053555228
-0.03904808 -0.033984944 0.037727408 -0.024341477 -0.019338693 -0.020042691 -0.034982625 -0.017333498
0.031281546 -0.02913653 -0.045044016 0.03456638 0.033104334 -0.027661884 0.034517072 -0.048992883
-0.005781218 0.02305695 -0.027654605 0.031871505 -0.05251466 0.023899054 -0.029135829 -0.034059457
-0.034784988 -0.0018024753 -0.02798002 0.01737243 -0.019784013 -0.026159575 -0.013920889 0.024552146
0.007792553 -0.016291568 -0.0035873186 0.008798556 -0.009451562 -0.01352441 0.05699007 0.0048099477
0.04147304 0.06916567 -0.014979361 -0.033267003 -0.04577004 -0.03106615 -0.058002982 -0.0011514691
0.012171178 -0.0019511961 -0.020886002 -0.05426216 -0.050609887 -0.05100873 0.031132545 -0.009945258
0.02922018 -0.027957488 0.004153521 -0.006332524 -0.013809103 -0.06962952 0.024108063 0.0024247554
-0.009720334 0.029163437 -0.0075409934 0.025558567 0.010734937 -0.040059455 -0.023748275 -0.04018529
0.030075736 0.030645872 -0.022566196 0.015447695 0.012149273 -0.0048175473 -0.0037489396 0.010641116
-0.0072272867 -0.007577178 -0.066199064 0.0062829354 -0.022475263 -0.057267237 -0.04425974 0.0016710067
-0.017749371 0.016280424 -0.04809229 -0.04596402 -0.020768039 0.018118873 0.01830197 0.039282892
0.013903363 -0.0075561856 -0.009615176 0.022503668 -0.026089996 0.011379359 -0.009331657 0.021384366
0.018873116 0.02149357 0.042211756 4.117028e-05 -0.039061096 -0.0064228247 0.018004816 -0.014957882
0.0016095 -0.021659158 0.017806035 -0.007976261 0.07972994 0.004578911 0.023995146 0.050058108
00000000: 1477 c53b 6a95 c9bc e251 f83c e63e 58bb
00000010: e772 1a3d e2d4 72bd 0efb 08bd 86de 033d
00000020: b8a5 003b e9a2 05bd 2ad5 3bbc 2a9d 44bd
00000030: 5a39 1e3d 3f1d cfbb 5a09 aab9 afc7 d1bb
00000040: cd4c a93b acd2 3b3c 8a29 1abc c749 ab3c
00000050: 8878 063d 21db 053c 5769 83bc bd59 88bb
00000060: ebd1 bd3c 4e53 c73c e387 86bc 3e7a 763b
00000070: bee7 a23c 3055 593c c134 d13c a832 313c
00000080: c194 3e3c d4da 09bb 706a 453b d48c de3a
00000090: 2d2e f3ba 9086 18bc b08b 99bb 14c1 3f3d
000000a0: da75 febc 7ff8 8f3b e159 0bbd 6108 5e3d
000000b0: ae81 d73b b553 35bd 4657 0dbd 04d8 213b
000000c0: 26e1 76bb 5e2d d83c 747b 2bbc 193f 06bd
000000d0: 3c62 65bc 57c0 3cbb adba 0c3d 104b 51bc
000000e0: d8b4 5ebd bf86 36bc 95d0 9a3b 5606 b23b
000000f0: 2391 953b ef39 173c 3559 13bd 2c07 feba
00000100: db79 363c 25fc 11bd 43e0 dc38 88f8 3abd
00000110: aaae be3b 5a1f a83c b619 88bd c39a 41bd
00000120: 72bc 803c 407a 51bc 74dc b23c c2ff 60bd
00000130: 11f9 b3bc e7a7 2eba a37c a33c 4a5b c2bc
00000140: 1b49 e73b 6542 cdbc 182d a5bc c35b 913c
00000150: 2dbc 6e3c f287 313d e543 2ab9 aa2e 18bd
00000160: cdc0 9b3c a051 bd3c 7d48 78bb e922 2f3d
00000170: 7ec2 843c 1e8c 64bc 3302 14bd 04ed 23bb
00000180: 85b9 9ebc 07bc 44bd 05c6 8bbc f196 0bbc
00000190: 8ff3 86bd 0c82 1cbc 5bb1 53bd 7fdc b8bc
000001a0: be34 c33c f935 e4bc 2042 0e3d 117d 78bb
000001b0: 9abb 00bd d319 b8ba 5e8d 2f3d 3a7b 29bb
000001c0: f99b 313c 3cee 83bd a288 b3bc 61e1 c5bc
000001d0: 60d6 073c 36e7 f93c d9c6 26bd 51c6 89ba
000001e0: f89e aabc 6ca3 273d d358 d63c 528e 9a3c
000001f0: 250a 71bc 3cbb a23c afa4 843b 887b bebc
00000200: f359 8c3c 6e5b e73c 8685 a4bc 0a43 8fbc
00000210: 5582 da3b c0ee 4e3a 3afe 7fbd ba5c 5bbd
00000220: e1f0 1fbd cc33 0bbd 0e88 1a3d c767 c7bc
00000230: 2e6c 9ebc 9230 a4bc f149 0fbd fbfe 8dbc
00000240: 1421 003d bbaf eebc 1380 38bd 7a95 0d3d
00000250: 6998 073d 2d9b e2bc c661 0d3d c3ac 48bd
00000260: 5f70 bdbb eee1 bc3c e98b e2bc b28b 023d
00000270: 9d19 57bd f3c7 c33c 43ae eebc ee81 0bbd
00000280: b47a 0ebd 0941 ecba 5b36 e5bc a050 8e3c
00000290: 1512 a2bc 9b4c d6bc 7114 64bc 9521 c93c
000002a0: ac58 ff3b e575 85bc 3819 6bbb d227 103c
000002b0: b9da 1abc 7d95 5dbc 6b6e 693d c49c 9d3b
000002c0: a2df 293d bba6 8d3d fe6b 75bc fb42 08bd
000002d0: 5e79 3bbd 707e febc 8994 6dbd e4ec 96ba
000002e0: 9f69 473c 47bf ffba 1f19 abbc 0042 5ebd
000002f0: 504c 4fbd 88ee 50bd ae09 ff3c 6ff1 22bc
00000300: 295f ef3c 1a07 e5bc 421a 883b 1081 cfbb
00000310: 933f 62bc ec99 8ebd 467e c53c a5e8 1e3b
00000320: 0942 1fbc 29e8 ee3c 701a f7bb 3360 d13c
00000330: 97e1 2f3c 6215 24bd be8b c2bc 5599 24bd
00000340: 6461 f63c 0d0d fb3c bedc b8bc 5418 7d3c
00000350: bf0d 473c 84dc 9dbb c5b0 75bb 1358 2e3c
00000360: e0d2 ecbb fa49 f8bb 6093 87bd 15e1 cd3b
00000370: 0b1e b8bc 0d91 6abd b349 35bd ae05 db3a
00000380: 2167 91bc 865e 853c 6cfc 44bd c544 3cbd
00000390: bc21 aabc 086e 943c 03ee 953c 19e7 203d
000003a0: eeca 633c e199 f7bb f988 1dbc 9d59 b83c
000003b0: b0ba d5bc 7e70 3a3c cee3 18bc 442e af3c
000003c0: cb9b 9a3c 4913 b03c 3ce6 2c3d 40ae 2c38
000003d0: 87fe 1fbd 8f76 d2bb d67e 933c e811 75bc
000003e0: dcf5 d23a 8c6e b1bc f6dd 913c ddae 02bc
000003f0: 7349 a33d b00a 963b 7891 c43c bb09 4d3d

stage3.block1.bn1.weight f4 [32]
0.09257509 0.11236025 0.10612455 0.0963734 0.093502335 0.102015965 0.112969965 0.109599344
0.08366822 0.09441488 0.09070999 0.08715878 0.08463062 0.0999523 0.119310856 0.11662283
0.11450579 0.086636916 0.095203824 0.102253005 0.12573837 0.114056 0.124470934 0.10595201
0.114325844 0.122634575 0.14646931 0.11155432 0.09470046 0.13705297 0.11793842 0.10574867
00000000: 0298 bd3d 211d e63d d457 d93d 6b5f c53d
00000010: 277e bf3d bfed d03d cc5c e73d 9f75 e03d
00000020: 3e5a ab3d 975c c13d 29c6 b93d 4d80 b23d
00000030: d252 ad3d cbb3 cc3d 4059 f43d f3d7 ee3d
00000040: 0382 ea3d b26e b13d 39fa c23d 066a d13d
00000050: 8fc1 003e 3196 e93d 9eea fe3d 5efd d83d
00000060: ab23 ea3d d627 fb3d 0dfc 153e 9776 e43d
00000070: 51f2 c13d 9d57 0c3e b389 f13d c292 d83d

stage3.block1.bn1.bias f4 [32]
-0.012069517 -0.052474234 -0.021335421 -0.035457313 -0.025764612 -0.012338461 -0.04187549 -0.018417578
-0.0010481655 -0.03264227 -0.038872633 -0.013594434 -0.008149556 -0.040519 -0.022677956 -0.041074574
-0.04061349 -0.032982912 -0.036321577 -0.034118325 -0.024667284 -0.039355796 -0.0098953135 -0.017272107
-0.027623674 -0.040068094 -0.091099665 -0.018626979 -0.056030393 -0.04292288 -0.05855244 -0.045060717
00000000: 39bf 45bc 39ef 56bd 9fc7 aebc b03b 11bd
00000010: 4f10 d3bc 4227 4abc a285 2bbd 76e0 96bc
00000020: 9962 89ba e7b3 05bd e938 1fbd 30bb 5ebc
00000030: b785 05bc 40f7 25bd 1fc7 b9bc d03d 28bd
00000040: 555a 26bd 1719 07bd efc5 14bd a8bf 0bbd
00000050: 0b13 cabc 8b33 21bd f41f 22bc 3c7e 8dbc
00000060: 0b4b e2bc 711e 24bd 7692 babd 9b97 98bc
00000070: 2080 65bd e7cf 2fbd afd4 6fbd 9691 38bd

stage3.block1.bn1.running_mean f4 [32]
-0.03180889 -0.03399806 -0.004852999 -0.024802566 -0.010039303 -0.010984368 -0.027048878 -0.0050495537
-0.020999363 -0.018894179 -0.03738047 -0.030560764 -0.005150458 -0.0064246124 -0.03127748 -0.01823654
-0.026119847 0.00075672596 -0.047530867 -0.022678696 -0.0136164995 -0.03461053 -0.037731916 -0.043800108
-0.03873853 -0.006360037 -0.034227982 -0.039536122 -0.0041525573 -0.017053492 -0.02089962 -0.013742751
00000000: 0a4a 02bd 8d41 0bbd e805 9fbb c02e cbbc
00000010: e47b 24bc c7f7 33bc 9c95 ddbc ba76 a5bb
00000020: db06 acbc f7c7 9abc 441c 19bd 915a fabc
00000030: 2cc5 a8bb 8e85 d2bb d11c 00bd cc64 95bc
00000040: 4af9 d5bc 055f 463a baaf 42bd acc8 b9bc
00000050: bd17 5fbc c5c3 0dbd c88c 1abd be67 33bd
00000060: 4bac 1ebd db67 d0bb a432 0cbd a1f0 21bd
00000070: 2d12 88bb c4b3 8bbc ae35 abbc 4729 61bc

stage3.block1.bn1.running_var f4 [32]
0.0009246276 0.0009851626 0.0010529816 0.0013694889 0.0019584172 0.0011592972 0.0010551143 0.0010587467
0.0009833649 0.00095453893 0.0009748021 0.0010175782 0.0014079548 0.0010568716 0.0012981561 0.0013366848
0.0014683345 0.0011548713 0.001087413 0.0010762884 0.0016346836 0.0009929404 0.0011207915 0.0013118592
0.0018921897 0.001395937 0.0016495605 0.001302134 0.0011985373 0.0015301054 0.0011803962 0.0011552908
00000000: b562 723a 9220 813a 3304 8a3a 6c80 b33a
00000010: ca58 003b 8ff3 973a c34b 8a3a a5c5 8a3a
00000020: 40e4 803a 063a 7a3a dd89 7f3a 4260 853a
00000030: 208b b83a ba86 8a3a e426 aa3a b333 af3a
00000040: 2175 c03a 0d5f 973a 8787 8e3a 3f12 8d3a
00000050: e142 d63a 8d25 823a 86e7 923a b1f2 ab3a
00000060: 5a03 f83a e0f7 b63a 1136 d83a 5eac aa3a
00000070: 3d18 9d3a d18d c83a 86b7 9a3a 206d 973a
