experiments/mpiigaze/resnet_preact/exp00/00/checkpoint_0030.pth (torch, 642256 bytes, 64 tensors)

conv.weight f4 [16, 1, 3, 3]
00000000: 411b 1ebe 94cb 43bd 1988 913d 2e23 c7bd
00000010: 0e64 f83c 3929 f93d ab69 3ebd a97d bebc
00000020: 8a57 553c 5f02 36bd 616f 7abc 7cb2 013e
00000030: d9ce bcbd e9f2 40bd 5d63 f93d b486 30bd
00000040: a05e b8bd 6726 19ba 46c1 813d f94b c13d
00000050: 232a 143e cb14 b7bd 64f7 edbc 1e80 073d
00000060: bc86 c5bd d770 84bd 8a34 e7bc f0fb 473d
00000070: 3fff 033d a9d9 173d bbd6 cf3b 585a 7b3b
00000080: 4650 e7ba 6353 933b d630 273c b685 523b
00000090: a278 993c 1f5d 333c 0a8f 22bc 1077 5f3c
000000a0: 0f96 903b cde6 803d 38ed e2bc af7b c5bb
000000b0: aea1 723d a5e4 8abc 1d16 c1bd fdd5 babd
000000c0: 3367 5fbd 3358 3bbd 3b97 23bd eb45 b63d
000000d0: fdda dc3d 0481 b03d bf18 913c 07e3 db3c
000000e0: e147 a4ba 2528 2cbd 5fbb 30bd 2cdb f7bc
000000f0: 9585 28bd 5e0a f4ba 9288 fbbc 8d30 103d
00000100: 8f04 ecba 52de 853c cb97 ab3d 3ae3 f63c
00000110: b033 ccbc 0fea 353d 7ba4 c8bb a724 2fbb
00000120: 33d8 1c3d 6527 57bd 89b7 a0bd 2f4b 0cbc
00000130: ffa9 dbbd c35b aabd 2968 2b3d 80c8 013d
00000140: 1b92 ed3c 0a95 313e 8e4a c63d 075b cb3d
00000150: 2500 443d b1d9 6abd bfbc ccbd 4af6 ac3b
00000160: d8e1 f0bd 0508 2bbe 328a a3bd cd79 53bd
00000170: c884 473d dc03 3cbc cd27 593c 4060 a43d
00000180: 934c cf3c 8539 8e3c e50a 8f3d 2fac 073c
00000190: 9567 bebb 14dd 3a3c 9ef2 9cbd 75eb 8abd
000001a0: b896 34bc b994 b3bc 7ff9 db3c 9706 26bc
000001b0: 1882 21bd 5383 bcbd 21c4 f9bd 9460 cd3d
000001c0: 60ea de3c d2ae 9ebd c750 343e 6945 8d3d
000001d0: eb97 2bbd 8311 033d 8b33 473d a655 e8bc
000001e0: 8931 c5bb b360 5b3d 4576 723b d11f f2bc
000001f0: a5ad e23c b9ff d83b 1da6 c83d 9be0 79bd
00000200: 49fc ebbd 7db9 193e a8c7 02bd cd03 10be
00000210: 7807 a13d 651b 56bd 64ac 84bd 0beb 7a39
00000220: 15cc a8bc 8b06 2fbd d08d 3e3b bccf cdbb
00000230: a33f a2bc f35d 98bc 2dfc 10bd 4f94 e8bc
-0.15440084 -0.04780157 0.07106037 -0.09723507 0.030321147 0.12166066 -0.04648749 -0.023253279
0.013021359 -0.044435855 -0.015285344 0.12665743 -0.092191406 -0.047106657 0.12177155 -0.043097213
-0.09002423 -0.0005842209 0.06335692 0.09438319 0.14469199 -0.08939513 -0.02904863 0.033081166
-0.09644839 -0.06466835 -0.028223295 0.04882425 0.032225844 0.03707281 0.0063427365 0.003835341
-0.0017647825 0.0044960245 0.0102045145 0.0032123155 0.01873428 0.010947495 -0.0099217985 0.013639227
0.0044124196 0.06294022 -0.027701005 -0.006026707 0.05923622 -0.01695473 -0.09428046 -0.09122846
-0.054541778 -0.04573841 -0.039939146 0.089000545 0.10783956 0.08618358 0.017711995 0.026841654
-0.0012533629 -0.042030472 -0.04314744 -0.030255876 -0.04114302 -0.0018618812 -0.03070477 0.03520255
-0.001800673 0.016341362 0.083785616 0.030137647 -0.02492699 0.04441267 -0.006123123 -0.0026724727
0.03829212 -0.052527804 -0.078475066 -0.008562847 -0.107257836 -0.083182834 0.04184738 0.031685352
0.029000333 0.1734201 0.09682189 0.099294715 0.0478517 -0.057336513 -0.09996938 0.0052783834
-0.11761826 -0.16702278 -0.07985343 -0.05162983 0.048710614 -0.0114755295 0.013254118 0.08026171
0.025305068 0.017361412 0.069845 0.008280798 -0.005810688 0.011405248 -0.07663463 -0.06783191
-0.011022262 -0.021921502 0.026852367 -0.010133407 -0.039430708 -0.092047356 -0.12195612 0.100281864
0.027211368 -0.07748188 0.17608939 0.068980046 -0.041892927 0.031999122 0.04863314 -0.028361153
-0.006017868 0.053559016 0.0036996764 -0.029556187 0.02767069 0.0066222814 0.097973086 -0.061005216
-0.11522729 0.15012164 -0.03192869 -0.1406395 0.07862753 -0.05227222 -0.064781934 0.00023929418
-0.020605126 -0.04273085 0.0029076226 -0.0062808674 -0.019805735 -0.018599486 -0.035396744 -0.028391032

stage1.block1.bn1.weight f4 [16]
00000000: c0c7 963d d2f1 673d d86a a93d ff39 d03d
00000010: 6243 5e3d 3100 a73d 52d4 8a3d b675 b03d
00000020: 893d 0c3e 630d d33d 5818 d43d 7bff e03d
00000030: f89e af3d 8a9a 9e3d 087b ac3d 570e 7e3d
0.07362318 0.056627102 0.08272332 0.10167312 0.05426348 0.081543334 0.06778778 0.086162016
0.13695349 0.10305288 0.10356206 0.10986229 0.08575243 0.0774432 0.08421904 0.062025394

stage1.block1.bn1.bias f4 [16]
00000000: d102 c9b9 d3b7 e43c 765d 84bc d66d dabd
00000010: de79 8dbc e22a 223d 1036 a5bc 2346 15bd
00000020: e699 d5bd 2142 5f3d b607 66bd f0aa 0bbe
00000030: 26e0 f53c 6fed 76bd bf95 b63c 8195 82bc
-0.00038339806 0.027919685 -0.016157847 -0.10665481 -0.017270025 0.039591677 -0.02016738 -0.03644384
-0.104297444 0.054506425 -0.056159697 -0.13639426 0.030014109 -0.060285028 0.022288201 -0.01594043

stage1.block1.bn1.running_mean f4 [16]
00000000: 28d5 6fbd b51c 15bd e0d4 0c3c 5c49 8c3d
00000010: 7866 803d 6290 d6bc c6b5 94bd 988e a93d
00000020: 3ed4 bdbd a211 30bc e86b 603d 9451 97bd
00000030: 9379 b93b 8b42 653d e4d5 88bd 9ea9 a7bd
-0.05855289 -0.03640433 0.008595675 0.0684993 0.06269544 -0.026191894 -0.07261233 0.08279151
-0.092689976 -0.0107463915 0.054790407 -0.07388607 0.0056602447 0.055971663 -0.066814214 -0.08186649

stage1.block1.bn1.running_var f4 [16]
00000000: e09c 323b 18e1 0f3b a4e3 613b 1bef cf3a
00000010: 5919 ab3a 28f1 683b 1a9f e93a f50c 183b
00000020: f4ed 6d3b 313d c13b bc93 e83a 88d0 ed3a
00000030: ca2f 813b f3b5 873a 18d8 733b 2da0 083b
0.002725415 0.0021954235 0.003446796 0.0015864106 0.0013053819 0.003554413 0.0017823905 0.0023201082
0.0036305161 0.005897187 0.0017744224 0.0018143812 0.0039424645 0.0010353908 0.003720766 0.0020847425

stage1.block1.conv1.weight f4 [16, 16, 3, 3]
00000000: 83f2 a5bc 2c63 0a3c 2b72 533c a935 b6bc
00000010: 08c8 3fbc 818e a5bc 4879 f2bc 0e0c b9bc
00000020: 0299 dabc d568 043c 144c 603c d45d 833c
00000030: 662c adbb 0497 94bb 6cf7 ccba 4f59 d5bc
00000040: 8e14 debc a074 abbc de6b 9e3c 9f43 443c
00000050: 0886 373c 0982 9fbc 2099 33bc 8c2d 4bbb
00000060: 3cf6 3fbd 7343 fdbc 03d4 f7bc e287 adba
00000070: 2e02 a53c e030 303d 4979 5ebc 1cca 7f3b
00000080: 50d3 9f3c 3ca5 cdbc 8c0a 3bbc 4684 013c
00000090: 5a54 d23b 7f95 1e3c 501b fc3c b984 8ebb
000000a0: b6c5 97ba b23c 6f3c f7eb 90bc b61c 2dbb
000000b0: 766b e43b 243f 3dbb fa6c 963a fe77 b4bc
000000c0: c8fb 113c 84d0 463c 7e70 8cbc 6786 a93b
000000d0: 78c7 04bc b45a c9bc e31b 06bc a877 1cbc
000000e0: 3555 f5bb 5d54 4cbc d67c b5bb 5ffd 60bb
000000f0: b14f 823b 181d db3b ccad f63b e5e4 c3bc
00000100: a317 373c c0cf b03c c307 0ebd 8382 d4bb
00000110: ab0e 413c 8000 efbc 7389 b5bb 8faa b0ba
00000120: a081 84bb 774e b0bb 109a 46bc 3cdf 20bc
00000130: ee3a b2bc 7c89 46bc e5ba f0bb c8c2 0abc
00000140: 55f1 b8bb e651 a33b 623a 65bb 9968 07bd
00000150: 7d75 a8bc db6f 69bb d72c 94bc 87ca d8bc
00000160: 75dc b23a cb11 1fbd bd47 18bd 4001 3dbc
00000170: 23ee 3a3c cebf cebc a437 d0bb f447 ed3b
00000180: 9449 e63b 824a c43b 303e 813c 663f ec3b
00000190: af69 383a 9115 d93b a3c7 f739 b3ca ed3a
000001a0: 48fb 6d3b 4688 e13b 812d 393c 14d9 c33b
000001b0: 1ba7 c1bc c51f abba abb3 3ebd aa09 26bb
000001c0: d91b 9e3c 6992 48bc cc17 d03c 2b77 aa3c
000001d0: 0a4d 58bc 3678 b2bb 9519 c43c 2018 003d
000001e0: a380 04bd b85e 5dbb dc48 093c 7679 1abd
000001f0: 5c08 bdbb bb20 363b aeb1 d2bb 2608 373c
00000200: ca63 18bd a2fd 06bd 0280 b93b 68ff a2bc
00000210: ccdd ffbc 64dd a4bb 50e1 6fbc b5b8 07bc
00000220: 628c 35bc 0a04 cabb 03c6 50bc 7310 8ebc
00000230: c688 08bc 50ad 173b af5a 9bbb ce9e 173a
00000240: 5710 f13a d4be 99bc 9dfe 80bc d767 383b
00000250: c95a 6fbb 5ed7 5abc a932 313d 5a51 d73c
00000260: 51d3 b43b c43f 523c 202c 72bb e8cd 943a
00000270: 7595 cc3c 7ab8 6f3b 08a6 b63b 31df de3c
00000280: 3f0d 583c 5b67 da3b 3592 f03c 9200 9e3a
00000290: 6555 ceb9 cef6 153d 0afe 983c 089f a33c
000002a0: 8327 a4bc 2f53 a8bb a547 f43b f730 f73c
000002b0: 75bc f43c a8a9 ca3c 0a9b dc3a cac2 fa3b
000002c0: 0602 e83b 4979 44bc d8d9 acbc 75d9 efbc
000002d0: b7c7 193d abf1 1d3d 8f5d a23c 9873 473a
000002e0: e677 473c 2561 603b b1f3 bcba fe5d 95bb
000002f0: 2b19 8bbc 75e2 d1bc 1f17 3cbd e50c 9cbd
00000300: 8209 183c c33d b7bb f737 1abc d527 d93c
00000310: ac1f ea3c c539 d13c 8e24 33bc cc79 8ebc
00000320: 8b71 19bd c76d 4a3c fc7d 363a 4bd7 97bc
00000330: 7030 8d3c 3061 803c bf3a 96bb 05bc a63c
00000340: ad68 e83c 3ba0 b33c 9b19 65bb 9c2e 8fbb
00000350: 1b36 22bc 21c2 38ba 784c 5cbc 8a80 f7bc
00000360: fc42 a2bc 2818 abbc 2cbb 35bd aeb4 973c
00000370: 5ac3 633c f2bd 9dbc ac30 693c 9b2d 183c
00000380: bd1c 24bc cff2 f53c d2aa a73c 89e9 a93c
00000390: 28d2 353c 0de4 b23c 36fb ee3c b0d1 47bd
000003a0: e095 79bc 1540 af3c 1a21 c23c 22ae dd3c
000003b0: 10bc 0c3b c64f 94bb 4324 88bc a80f 47bd
000003c0: 4a78 53bc 00b6 c2bc 5aa9 3dbd 3d68 e93b
000003d0: bdd9 1fbb 4ae8 153b 3a54 063d ddc8 d73c
000003e0: 3866 4c3c ecb9 203d 9e8f cf3c f1da 7e3c
000003f0: 1975 e3bc 4cc0 52bd 2bf8 8dbd 0f59 a3bb
-0.02025724 0.008446496 0.012905638 -0.022242384 -0.011705406 -0.020209553 -0.029598847 -0.022588756
-0.026684288 0.0080816345 0.013690013 0.016035952 -0.0052848337 -0.004534604 -0.0015637702 -0.026043562
-0.02710941 -0.020929635 0.019338544 0.011979013 0.011201389 -0.019471185 -0.010961801 -0.003100249
-0.046865687 -0.030915951 -0.030252462 -0.0013239349 0.02014264 0.04301536 -0.013578721 0.0039030379
0.019509941 -0.025103204 -0.011416089 0.007905072 0.006418747 0.009679197 0.030774742 -0.004349318
-0.0011579308 0.014601873 -0.017690642 -0.0026414818 0.006970818 -0.0028876746 0.0011476569 -0.022029873
0.008910127 0.012134675 -0.017143484 0.0051734927 -0.008104198 -0.024579383 -0.00818536 -0.009550013
-0.007486964 -0.012471286 -0.0055385632 -0.0034330708 0.003976785 0.006686818 0.0075280424 -0.023912856
0.011175069 0.021583438 -0.03467537 -0.006485285 0.011783282 -0.029175043 -0.005540067 -0.0013478565
-0.004043773 -0.0053804475 -0.012121692 -0.009818848 -0.021756615 -0.01211774 -0.0073464983 -0.008469291
-0.0056440034 0.0049841283 -0.0034977426 -0.033058736 -0.020563835 -0.003561965 -0.018087788 -0.02646376
0.0013646024 -0.038835328 -0.03717779 -0.011535943 0.011409315 -0.025237944 -0.006354289 0.0072412435
0.007027814 0.0059903273 0.015776724 0.007209706 0.0007034791 0.0066248854 0.00047260252 0.0018142074
0.0036313105 0.0068827 0.011302353 0.0059768055 -0.023639252 -0.0013055733 -0.046558063 -0.002533535
0.019300388 -0.012241938 0.025401972 0.020808777 -0.013201961 -0.005446459 0.02393798 0.031273007
-0.03234924 -0.003377838 0.008379187 -0.03771349 -0.005768819 0.0027790505 -0.0064298725 0.011171376
-0.03720454 -0.032956727 0.0056610117 -0.019897178 -0.03123369 -0.0050312746 -0.014641121 -0.008283784
-0.011080833 -0.0061650323 -0.012742522 -0.017341828 -0.008333391 0.0023144074 -0.004741035 0.00057838566
0.001839171 -0.018767752 -0.01574641 0.0028138065 -0.0036522618 -0.013357012 0.043261204 0.026283909
0.005518355 0.012832586 -0.003695257 0.0011352869 0.02497361 0.0036578462 0.0055739917 0.027206035
0.013186752 0.006665153 0.029366592 0.0012054613 -0.00039355006 0.036612324 0.018675823 0.019973293
-0.020038372 -0.0051368694 0.0074548298 0.030174715 0.02987502 0.024739102 0.0016830873 0.007652615
0.0070803193 -0.011991807 -0.02109997 -0.029278496 0.03754398 0.03856055 0.019820003 0.00076084724
0.012174582 0.003423759 -0.0014415887 -0.004558324 -0.016979774 -0.025620678 -0.045920487 -0.07619647
0.009279611 -0.0055920794 -0.009412757 0.026508251 0.028579555 0.025540242 -0.010934008 -0.017392062
-0.0374618 0.0123552745 0.0006961522 -0.018535277 0.01723501 0.015671343 -0.00458464 0.020353327
0.028370226 0.02192699 -0.003495789 -0.00436957 -0.009900595 -0.00070479704 -0.013445966 -0.03021266
-0.019807331 -0.020885542 -0.044367954 0.018518772 0.013901556 -0.019255612 0.014232796 0.009288217
-0.010016617 0.030023007 0.020467196 0.020741241 0.011097468 0.021837259 0.029172521 -0.048783958
-0.015233487 0.021392861 0.023697425 0.027060572 0.0021474399 -0.0045261113 -0.016618853 -0.048598915
-0.012907097 -0.023768425 -0.046304084 0.007123022 -0.0024391257 0.002287405 0.03279517 0.026340896
0.012475543 0.03923981 0.025337037 0.015555129 -0.027765797 -0.05145292 -0.069321 -0.004984982

stage1.block1.bn2.weight f4 [16]
00000000: dd01 173e 88e1 3b3e 3af2 f33d 045f 063e
00000010: 6b99 e83d 1256 363e acfb 373e 2e14 2e3e
00000020: 701f e63d 0429 1e3e 4f27 223e db94 063e
00000030: ae8e 283e 60e3 f83d 2334 0f3e cd5f 2a3e
0.14746805 0.18347752 0.119114354 0.13122183 0.11357387 0.1780627 0.17967099 0.16999885
0.11236465 0.15445334 0.15835308 0.13142721 0.16460678 0.12152743 0.13984732 0.16638108

stage1.block1.bn2.bias f4 [16]
00000000: 33b7 e93b 6fae 053d 05c7 64bc d52d e8bc
00000010: e4e3 a53c 4c88 9d3d f151 7f3c a347 44bd
00000020: 0e71 e9bc bdfb c63c 5103 ca3c 6351 1a3d
00000030: e4b6 993d bc65 d53a c063 ec3c d243 63bc
0.0071324348 0.032637056 -0.013963466 -0.028342167 0.020250268 0.07692012 0.015583501 -0.04791988
-0.028496291 0.02428996 0.024659785 0.037675273 0.07505587 0.001628093 0.028856158 -0.01387115

stage1.block1.bn2.running_mean f4 [16]
00000000: 145d f8bc a05b 0339 14b6 973c dc16 4e3b
00000010: ec6b d2ba 8dea f3bb 1230 933a 62ea 9d3b
00000020: 8cb0 1e3b 8c41 77bc 30a1 1d3c 42bd d5bc
00000030: c830 dcbc 9838 ca3c 67df 87bc 8694 603c
-0.03031782 0.00012527267 0.018519439 0.003144673 -0.0016053892 -0.007443732 0.0011229536 0.0048192004
0.0024214117 -0.015091311 0.00962095 -0.026091222 -0.02687873 0.02468519 -0.016586019 0.013707286

stage1.block1.bn2.running_var f4 [16]
00000000: 0a0c ad39 2333 423a db0a 3339 434d 0c39
00000010: 0a76 9a39 1779 8939 5c09 a539 21dc 8839
00000020: 8bfa 1439 f06f e539 84e7 d139 dff2 b639
00000030: c7d6 e339 fa8d 6439 029a 9d39 a052 a739
0.000330061 0.00074081327 0.00017074814 0.00013380223 0.00029461115 0.00026220895 0.00031478226 0.0002610395
0.00014207714 0.00043761684 0.0004003608 0.00034894698 0.00043456836 0.00021796665 0.00030060118 0.00031914283

stage1.block1.conv2.weight f4 [16, 16, 3, 3]
00000000: b12d a7bb 8323 2a3b 551a 373c 7906 a5bb
00000010: 6320 833b 6fe3 e93b 7859 ee39 f353 fd3b
00000020: 2d6f a93c 9863 a03c 2310 ce3c 235e 093b
00000030: 6d34 923c dde4 803c 9f12 c0bb 747b 37ba
00000040: 8f1f 743b 35a3 fa39 f564 1c3c 0dd7 263c
00000050: 0628 893b 8061 13bc fdbc 03bc db23 a63a
00000060: 7074 e8ba f5f6 45bc ef34 613b 5fbc 203c
00000070: cf2c 0db9 b82f 763b e0a5 813a 367e d639
00000080: 0aca a5bb 87a3 2abb 8e6c a6bc 7ffb acbc
00000090: cbff 173d 0cb1 a43c bd57 78bb 88c5 d63c
000000a0: 4909 323c 0fb9 093c 4ec1 413c e41b f53b
000000b0: 5f81 7739 7229 12bd 99d2 9fbc 9b8a a83c
000000c0: 9184 2dbd 9a5d 823b 932a 1c3d 3e1d 01bd
000000d0: af0b 7b3c a26c e93c 46b1 f3bb 1ea4 6dbc
000000e0: d61d 53bc 8ea7 873b 16dc 89bb 85cb ebbb
000000f0: 817a a93c 4809 b439 4a30 633c 4ca7 a53b
00000100: fc7f 953b 8e39 09bc 1a77 5dbb 188e af3b
00000110: e8de 273c 719e 54bb 3e23 963c 73f5 2a3c
00000120: 447f 153d bcb0 d03c a983 5dbb 857a a13c
00000130: 4a33 7f3c afd4 94b8 776b 353c f767 a73c
00000140: fbe4 b63a d7e7 9a3c b06e 793c 37ae 343c
00000150: f1de 893c 33a2 093c a83e c33b 0d17 1c3c
00000160: 9c2b 1c3c 9acc 3f3b c03e 3b37 314d 13bc
00000170: 686a 953c 37f3 b2bc 6a53 ebbc fb9d e1bb
00000180: 9eda 13bc d552 a1bc dba5 77bb e3a9 8b3b
00000190: 6f2a cf38 7ef7 e0bb 7f85 573b b79b e9bb
000001a0: a94e b5bc c0a4 b43c a875 ba3b f0bf 64bc
000001b0: 4b7f ef3b 2b6b e43b 5ce4 fd3b d319 a23c
000001c0: 0895 09bb e1b8 8538 876c b83c 9e61 46ba
000001d0: d0ac e13b 0060 bc3c c7a0 c33c 4a0d e63c
000001e0: caa2 78bb 3b8b 843b c61f 7c3b f886 863b
000001f0: 9ab8 a13c 4f84 143c 0ac5 52bb a199 173b
00000200: e97b 963c a5d3 b7ba abf6 353c 9aa9 5b3c
00000210: 61a1 3f3c 7f20 a13b 7d53 de3b b3e5 293c
00000220: ba4b abbb 3bac f63b 8f2a 033c 3edc 25bc
00000230: 16a7 e73b fc88 ecbb 3c0a 08bc dca0 293c
00000240: ea6a 69ba 70db 323c cb19 f13b 547d 333b
00000250: 7813 663b 30ce a33b cc6d 58bc 78ad 14bb
00000260: 6fb8 973b 6c4f 243d 4eb7 d33b bd4d e9bc
00000270: 0043 1abb 28ec 883c ee5c a93c dba9 ecbc
00000280: 210c 803c 94b9 603d aea0 483c cf7c 0bbb
00000290: 4b47 b6bc 4e05 b83c 9182 093d 11e0 8a3c
000002a0: 9a45 d7bb bd43 a83c 683d b53c e493 99bb
000002b0: 17fd 903b 3ca7 8e3c f322 b03a 306a 4d3c
000002c0: 866b aa3c 5542 3d3c 2b1a 373a 5437 1bbc
000002d0: 4084 91bc 02ec 46bc e046 5abb 9b8d 35bc
000002e0: cc26 003c b6a6 1f3c 3af3 f83a 9bbd c33b
000002f0: dec3 cf3c 6c3d fbbc 363f 413c d257 d23c
00000300: d315 5ebc 5f04 553c aab1 a5bc d639 cdb9
00000310: 8094 5ebc 6429 84bd 6f9a 9abc 614f bfbc
00000320: beb9 46bd 3291 003d 3a33 673c af7e bd3b
00000330: 0fcf 913d dc6f 903d 7665 533d 1c5c dcbb
00000340: 8a83 23bc 8476 20bd 5d56 85bb e101 d23c
00000350: d2f3 85bc d001 b9bc 357e 3d3c 9286 e4bb
00000360: 279c 583c 895e cc3c 46e5 84bc 7fe3 f63b
00000370: 9d11 ed3c 274c c43c 97e5 ec3a 0342 d23c
00000380: 35e5 103d c80a 79ba 0a6a dcbb b1bb 253d
00000390: 7a10 a4bb d493 e33b 5374 933d 5c2d 88bc
000003a0: 405b ed3b 0562 943d 4a06 853b 2b49 90bb
000003b0: 31b3 e9bb a974 d4ba 246c 163b 799f b4bc
000003c0: e090 13bc ecf5 343c c8bc 1bbb 70ba 44bd
000003d0: bde5 8ebc 1dd7 e2b8 64a6 9cbc f880 bdbc
000003e0: ddbb 4ebc 80e3 953b a6cb 1fbc 4cf3 d4bc
000003f0: 71b3 0e3d 1c26 b73c dcb6 5b3d ef1b b2bc
-0.0051018824 0.0025961108 0.011175712 -0.005036172 0.0040016635 0.007137708 0.00045461557 0.007730955
0.020682896 0.01957874 0.025154179 0.002096065 0.017847264 0.01573413 -0.005861595 -0.0006999292
0.0037250256 0.00047805315 0.009545554 0.010183108 0.0041856794 -0.008995414 -0.008040664 0.0012675481
-0.0017734896 -0.012082805 0.0034363826 0.009810536 -0.000134635 0.0037565064 0.0009891354 0.00040911295
-0.0050594853 -0.0026037411 -0.020315435 -0.021116016 0.037109178 0.020103954 -0.0037894093 0.026217237
0.010866472 0.008405938 0.011825873 0.0074801315 0.0002360395 -0.035684057 -0.0195096 0.020573905
-0.042362753 0.0039784433 0.03812654 -0.03152203 0.01532261 0.028494183 -0.007436904 -0.014504461
-0.012885531 0.004139847 -0.0042071445 -0.0071958923 0.020688297 0.0003433919 0.0138664935 0.0050553437
0.004562376 -0.0083755385 -0.0033792914 0.005357515 0.010246016 -0.0032443071 0.018327352 0.010434496
0.036498323 0.025474899 -0.00338004 0.019711742 0.015576193 -7.096805e-05 0.011072985 0.020435316
0.001395374 0.018909378 0.015224144 0.011027864 0.01682994 0.008400488 0.005958397 0.00952698
0.009531882 0.002926624 1.1160679e-05 -0.008990572 0.018239215 -0.02184449 -0.028726298 -0.006885288
-0.00902429 -0.019692818 -0.0037788067 0.0042621954 9.878433e-05 -0.006865441 0.0032885966 -0.0071291584
-0.022132235 0.022051215 0.0056902952 -0.013961777 0.0073088757 0.006970783 0.00774817 0.019787705
-0.002099337 6.3763706e-05 0.022512687 -0.00075676467 0.006887056 0.022994995 0.023880376 0.028082509
-0.0037938827 0.004044918 0.0038471087 0.004105445 0.019741345 0.009064748 -0.0032160901 0.0023132341
0.018369632 -0.0014024867 0.0111061735 0.013407135 0.011696191 0.004917204 0.006784855 0.010369706
-0.005227533 0.0075278557 0.008005752 -0.010123311 0.0070694787 -0.0072184782 -0.008303221 0.010353293
-0.0008904176 0.010916576 0.007357811 0.0027387934 0.003510682 0.0049989447 -0.013209771 -0.0022686403
0.0046301405 0.040114805 0.0064610606 -0.028479451 -0.002353847 0.01671417 0.020674195 -0.028889587
0.015630784 0.05486448 0.01224534 -0.0021284109 -0.022250792 0.022463467 0.033571783 0.016952546
-0.0065695764 0.020540113 0.022124007 -0.0046868194 0.004424702 0.017413728 0.001343815 0.012537524
0.020803224 0.011551459 0.00069847953 -0.0094736405 -0.017763257 -0.01214123 -0.0033306405 -0.011081125
0.00782175 0.009744337 0.0018993386 0.0059735305 0.025361951 -0.030668937 0.011794856 0.025676642
-0.013555008 0.01300153 -0.020226318 -0.00039143738 -0.01358521 -0.06453207 -0.018872468 -0.02335328
-0.04851698 0.03138847 0.014111334 0.005782924 0.071195714 0.070525855 0.051610433 -0.0067248475
-0.009980092 -0.039175525 -0.004069133 0.025635662 -0.016351614 -0.022583872 0.011565735 -0.00697405
0.013220823 0.024947422 -0.016222607 0.007534444 0.028939063 0.023962094 0.0018073794 0.025666242
0.03537484 -0.0009500203 -0.006726508 0.0404622 -0.005006847 0.0069451127 0.071999215 -0.016623192
0.007243544 0.07245258 0.0040595876 -0.0044032536 -0.007131957 -0.0016209084 0.002295264 -0.022048699
-0.009006709 0.0110449605 -0.0023763645 -0.048029363 -0.017443532 -0.00010816588 -0.01912231 -0.023132786
-0.012618032 0.0045742393 -0.009753143 -0.02599492 0.034839097 0.02235704 0.053641185 -0.021741835

stage2.block1.bn1.weight f4 [16]
00000000: a902 c13d 74cf 0a3e e126 ff3d 8856 b43d
00000010: 2401 0a3e 564c f73d 9a3f 0a3e 7ea3 ca3d
00000020: b408 bc3d 2d6b da3d 7fed d03d caa5 133e
00000030: ee22 ed3d f943 d53d 3c67 f63d 8f19 d33d
0.094243355 0.135557 0.124585874 0.08805567 0.13476998 0.12075107 0.13500825 0.09894465
0.091813475 0.106649734 0.10201549 0.14418712 0.11578928 0.104133554 0.12031409 0.10307609

stage2.block1.bn1.bias f4 [16]
00000000: 7c79 3cbc c968 1ebd 1aa1 d5bc 5fe0 e23c
00000010: e98f 92bc b041 f13a 7403 c63a 6cb2 cdbc
00000020: 688b 71bd 3fe2 ac3c 6ed0 b53b 4e53 af3c
00000030: a06c 5f3c 0cf7 1ebd 5c78 adbc 3807 dfbc
-0.0115035735 -0.03867415 -0.026077796 0.02769488 -0.017890887 0.0018406417 0.001510723 -0.025109492
-0.05897084 0.021103976 0.0055485284 0.021402027 0.013636738 -0.03880982 -0.021175556 -0.027225122

stage2.block1.bn1.running_mean f4 [16]
00000000: 20e0 7a3d b7a3 773d fcc1 ec3b c62b f73c
00000010: f096 a53c 3f5f 5d3c 7c00 843b b474 b33c
00000020: 84df 1f3d f6d5 f63c 17e9 903d e83f 96bd
00000030: 74dc f33c 2e40 dd3c a699 323d 9372 2aba
0.0612489 0.060458865 0.007225273 0.03017224 0.020213574 0.013511478 0.004028378 0.021906234
0.03903152 0.030131321 0.07075708 -0.07336408 0.029768206 0.027008142 0.04360356 -0.0006502058

stage2.block1.bn1.running_var f4 [16]
00000000: 2914 783b 839c 923b 4315 5d3b ee06 e03a
00000010: 1af2 953b b4f3 c63b 5074 aa3b f3b6 173b
00000020: 91b7 3c3b e35b 953b 50d0 353b c946 8a3b
00000030: 47c9 9e3b ac4e 0f3b 429e c53b 8c0b 363b
0.0037853813 0.004474224 0.0033734597 0.0017091909 0.00457598 0.006071532 0.005201854 0.0023149818
0.0028795938 0.004558073 0.0027742572 0.004219864 0.0048457715 0.002186696 0.0060308287 0.0027777879

stage2.block1.conv1.weight f4 [32, 16, 3, 3]
00000000: f08d 4e3c d3a8 b3bb dc52 5cb9 8b4b b23c
00000010: ba4d f4bb 2eb7 07bb cb79 d43c 227e b6bc
00000020: 062f 0ebc a319 04bd e610 0fbc 9985 0dbc
00000030: 0574 bbbb f2c9 8c3c 8759 233d a958 2bbd
00000040: 2479 5cbb bf93 283c 4e0a cdbc 0296 23bd
00000050: 9480 463a fbbe 77bc 6a04 d2bc 8d7d a23c
00000060: 5892 10bb 3e99 33bc 6b75 863c 501d f23a
00000070: 6932 693c fc76 3a3c 8cb6 f63c 7211 d03b
00000080: 4305 35bc 5382 e3b9 3b91 37bd f106 4cbd
00000090: 8862 843a b3ce f03c 129f 88bb 37f0 92bc
000000a0: 18ed 0cba 36e6 abbc 5b42 35bb 8c9d 0d3c
000000b0: ebe6 35bc e196 023c 781e cfbc 66a8 45bd
000000c0: 14da d8ba cd2e 28bb 6704 84bc 1815 21bd
000000d0: f09f d4bc fbe0 a2bc 34b5 93bd 48a6 2dbd
000000e0: 705e c13c d02c 92bd c822 ffbc 841f 043d
000000f0: 9370 26bd 0f03 bfbc 51ed 123d df29 87bc
00000100: 531d a33b 6139 283b 54b9 95bc 51c1 4a3c
00000110: 2df5 abbc dcb7 4ebc 2415 36bb 2e30 07bd
00000120: 7b8b 5ebc a43a 15bd 36f4 0ebd bcf1 793b
00000130: 9e4d b8bb e2d6 67bc 85a4 793c e381 c83b
00000140: 919b fdbb c566 543c 394d 033c 0093 893c
00000150: 3ab4 1f3c f457 793c 1834 fc3c 001a 89bc
00000160: 0ab1 edbc bfd4 88bc 6aec a7bb bcc7 56b8
00000170: d691 77bc ed19 0dbb af6d e23b d5a5 92bc
00000180: 8b9f ed3b 7a98 0e3d 936b d13b 7d0c f6bc
00000190: 7d69 edbc abb7 1ebd 6589 1abd e449 d9bc
000001a0: 10ac 78bc 4ad5 77bc a03c 72bb 4930 62b8
000001b0: fe65 013b bafc ae3c 11f4 00bc 5424 a33c
000001c0: 459f 983c b46c a3bb e946 86bb 1a73 a83c
000001d0: bed7 6abb 6de6 a5bc 2865 08bd b05e 0cbb
000001e0: 7d94 e1bc 1e1a 21bc c34c bf3c b768 e9bb
000001f0: d971 003d 0b94 543d 0ba4 81bc dade 3abd
00000200: be53 5ebd c031 2b3d 4a12 223c c806 c7bb
00000210: 4ff8 053d 0582 823c 9710 7abb 3fb3 dcba
00000220: 5b72 77bc c073 d6bc 1f2c 6d3c b351 f93b
00000230: 719f e7bb eb9d 1b3c b0c5 fd3b 38ed bd3b
00000240: 996f 2dbb 21a1 9fbc a462 0bbd 74a2 583c
00000250: d990 e1bb 3bff 8cbc b886 463c 8c87 9e39
00000260: 0edf 4dbc 640e 0fbc 8b4d 31bc 0fbd a1bb
00000270: 55c1 92bb 042a fdbb 91b0 19ba b982 82bc
00000280: 814d 36bc c25c bebc 8283 10bc 5a71 843c
00000290: f18a 853c 1dbd 6ebb 56d0 1d3d a512 2c3d
000002a0: 12c3 93bc 1f07 0b3d eea2 e53c e981 68ba
000002b0: 842a 82bc e3c1 c13c bdbd 34bb 14f2 b2bb
000002c0: 2fad dc3c 0d01 ffbb 323d a53b 6c71 f83c
000002d0: 14f6 353c f0db d2bc 42dc 893c 556d c83c
000002e0: 9b1b 41bc d904 c03c 1197 1d3d e7b7 8b3c
000002f0: 97a6 233d 2b55 e7bc 7c34 b3bc be4d 5dbc
00000300: c7ba bfbc ad8b afbc 4932 c6bc 5f13 d3bc
00000310: d27f dfbc 406c 45bd 8ee0 233c 3d46 b9bc
00000320: 165a 99bc 2908 b1bc 40d6 2ebd 9add 11bd
00000330: 56b5 fcb9 ecb9 26bc 6453 87bc c765 dabc
00000340: f480 76bc 473c 53bc eaff 49bc f595 4bbb
00000350: cf8a 09ba 0725 0cbd 585f 47bb 36b2 0bbc
00000360: 47aa d1bb 53f1 d9bb 4554 2d3b ab19 28bc
00000370: a061 7bbb 5b7c 123c 781a 08bc 1a70 8abb
00000380: 1e0f 563c 1990 19bb 7dd3 1cbc 0b4f 2bbc
00000390: 62ed 8b3c 50c3 ad3b 6145 d4bb d0c3 ebbb
000003a0: 7eeb 6bbc 4356 6fbc 025d 633c cb53 1e3c
000003b0: 47e1 e83b a5a9 6dba 22eb b23c 389c b5b8
000003c0: 7ba1 4e3c d6a3 f03c cb43 003d 08aa 473c
000003d0: f5e1 093c e19e 313c 2631 15bc ebe6 dbbb
000003e0: a52b 273c 7729 653b 6138 6f3c f5fe 353c
000003f0: 377e 073c 9257 7bbc 1849 b43c 4da1 c2bb
0.012607083 -0.005482772 -0.00021011702 0.021764537 -0.007455555 -0.002070855 0.025936982 -0.022276942
-0.008678203 -0.03225101 -0.008732056 -0.008637809 -0.0057206177 0.017186139 0.0398803 -0.0418326
-0.0033641541 0.010289132 -0.025029328 -0.03993798 0.000757226 -0.015121217 -0.02563687 0.019835258
-0.0022059884 -0.010961829 0.016413411 0.001847187 0.01423321 0.011380907 0.030116342 0.006349736
-0.011048618 -0.00043393913 -0.044816237 -0.049811307 0.0010100165 0.029395437 -0.0041693533 -0.017936809
-0.0005375906 -0.020983797 -0.002765796 0.008643519 -0.011102418 0.007970543 -0.025283083 -0.0482563
-0.0016544485 -0.002566266 -0.01611538 -0.039326757 -0.02595517 -0.01988267 -0.07212296 -0.042394906
0.023604602 -0.071374536 -0.031144515 0.03225662 -0.040634703 -0.023316888 0.035870854 -0.016499458
0.004977861 0.0025668966 -0.018276848 0.012375192 -0.020990932 -0.012617078 -0.0027783597 -0.033004932
-0.013583059 -0.036432877 -0.034900866 0.003813847 -0.005624487 -0.014150353 0.015236978 0.0061189993
-0.007739492 0.012963955 0.008014017 0.016793728 0.009747559 0.015218724 0.030786559 -0.01673603
-0.029015083 -0.016703008 -0.0051246183 -5.1207593e-05 -0.015110454 -0.0021530346 0.006910048 -0.01790134
0.007251685 0.03481338 0.0063909977 -0.030035252 -0.028980965 -0.03874938 -0.037728686 -0.026524492
-0.015177742 -0.015126536 -0.0036962405 -5.3927568e-05 0.001974463 0.021360744 -0.00787069 0.019914784
0.018630633 -0.0049873237 -0.0040978086 0.020562697 -0.0035834159 -0.020251477 -0.033299595 -0.0021418743
-0.027536625 -0.009832887 0.023352033 -0.0071230787 0.031358574 0.051898997 -0.015825292 -0.045622684
-0.05427908 0.041795492 0.009892056 -0.0060738064 0.03270751 0.015931139 -0.003815686 -0.0016838087
-0.015102948 -0.02617824 0.014475851 0.0076086163 -0.0070685674 0.0094981 0.0077445135 0.005796101
-0.0026464222 -0.019486012 -0.034029618 0.013222326 -0.0068837223 -0.017211547 0.01211708 0.000302371
-0.012565387 -0.008731458 -0.01082171 -0.0049358676 -0.0044786134 -0.007725956 -0.0005862797 -0.015931474
-0.011126877 -0.02323759 -0.008820416 0.016167331 0.016301604 -0.0036428638 0.038528763 0.04200997
-0.018037353 0.033942338 0.028031792 -0.0008869456 -0.015889414 0.023652023 -0.0027578913 -0.005460987
0.02693805 -0.0077821077 0.0050426954 0.030327521 0.011106033 -0.02573964 0.01682866 0.024466196
-0.011786367 0.023439812 0.038474146 0.017055465 0.039953794 -0.028238853 -0.021875612 -0.013507305
-0.023404492 -0.021428907 -0.0241939 -0.025766073 -0.02728263 -0.04819894 0.0100022685 -0.0226165
-0.018719714 -0.021610336 -0.042684793 -0.035611726 -0.0004820029 -0.010176163 -0.016519256 -0.02665986
-0.015045393 -0.012892789 -0.012329081 -0.0031064723 -0.00052468193 -0.034215 -0.003042182 -0.0085263755
-0.0063984725 -0.0066510825 0.0026447934 -0.010260026 -0.003835775 0.0089407815 -0.008307092 -0.0042247893
0.013065128 -0.0023431836 -0.009571907 -0.010455857 0.017080966 0.005302824 -0.006477997 -0.0071949735
-0.014399407 -0.014607969 0.013877155 0.0096635325 0.0071069333 -0.00090661115 0.021840636 -8.6598506e-05
0.012611742 0.029374998 0.031314652 0.012186535 0.008415689 0.010841102 -0.009105956 -0.006710877
0.010203277 0.0034967342 0.014600844 0.01110815 0.008269838 -0.015340703 0.02200751 -0.0059396387

stage2.block1.bn2.weight f4 [32]
00000000: 5dce d93d 4ad5 e53d 1b8c e73d 790b be3d
00000010: 8db3 db3d 9794 dd3d e937 ba3d 9c8d fd3d
00000020: ba7a ed3d 394d db3d 028c ed3d cd53 113e
00000030: f943 fa3d ed86 c23d fd1a e43d 3a8d ff3d
00000040: 7da8 ed3d ec05 083e b42d ac3d c675 ba3d
00000050: c3f8 e23d d8d1 ff3d 4c81 c23d 7ccd de3d
00000060: f4b8 f03d db3e bc3d f5e7 cb3d 5d45 d83d
00000070: 5461 bb3d 2f45 e13d b398 a73d aed0 e43d
0.10635064 0.11222322 0.1130602 0.09279532 0.10727606 0.10819357 0.09092695 0.123805255
0.11595674 0.107080884 0.1159897 0.14192124 0.12219996 0.09498391 0.1113796 0.12478109
0.11604402 0.13283509 0.08407155 0.09104495 0.11082604 0.124911964 0.09497318 0.10879037
0.11754027 0.09191676 0.09956352 0.10560105 0.09149423 0.10999524 0.08183422 0.11172615

stage2.block1.bn2.bias f4 [32]
00000000: 3058 113c d6a1 82bc 0860 b0bc aafc 8cbd
00000010: 5ba3 19bd f892 37bc 8419 16bd 7ae2 3cbd
00000020: e4ef 05bd f0cf e6ba 5e06 5dbd 52d2 3bbd
00000030: a938 3abd ba3d af3b 431f 20bd 6c5e 10bd
00000040: fb48 febc 8303 24bd 93fd 7bbc c425 0bbd
00000050: 3a99 4b3c c8ae 0bbd 1ffb 6bbc d51b 1ebd
00000060: 2255 90bc 2d64 01bc a4d1 ce3b 304b cabb
00000070: 3e31 92bc 39d5 d7bb 4c51 77bc dbcf d43b
0.008871123 -0.01594631 -0.021530166 -0.06884129 -0.037509304 -0.011204474 -0.036645427 -0.046114422
-0.03269948 -0.0017609578 -0.05396115 -0.045854874 -0.04546419 0.0053479346 -0.039092313 -0.035246298
-0.03104066 -0.04004241 -0.015380281 -0.033971563 0.012426669 -0.03410223 -0.014403134 -0.03860076
-0.01761872 -0.007897419 0.006311612 -0.006173514 -0.017845746 -0.0065866974 -0.015095066 0.006494505

stage2.block1.bn2.running_mean f4 [32]
00000000: 881e 21bd 0070 0fbb b67a 25bd 8287 3d3c
00000010: 9da0 063c dd4d c7bc 2334 e93b d32d 1339
00000020: 9e88 4fbc 7a83 93bb f3d9 81bc e3c5 d8bc
00000030: 26da ebba 28d0 a83c c080 1abc 4ab3 96bb
00000040: 1a26 b83b f9c1 fabc 0c96 0f3d 86a8 2d3a
00000050: 026d 26bd 727f e2bb 1da9 0bbb 312c c3bc
00000060: 0362 a0bc 408c dcba c790 d8bc fcfc 91bc
00000070: f089 a83c 546b a6bc c3c5 90bb 8cb0 f6bc
-0.039335757 -0.0021886826 -0.04040023 0.011567952 0.008217004 -0.02432912 0.007116811 0.00014036083
-0.012666849 -0.004501757 -0.015850997 -0.026461547 -0.001799409 0.02060707 -0.00943011 -0.0045990096
0.0056197764 -0.030610071 0.035055205 0.0006624538 -0.0406313 -0.0069121653 -0.0021310516 -0.023824783
-0.019577986 -0.0016826466 -0.026436223 -0.017820828 0.020573586 -0.02031485 -0.0044181063 -0.030113481

stage2.block1.bn2.running_var f4 [32]
00000000: 1819 173a 92d4 9b3a 4cc8 7b3a dbbb 013a
00000010: 95c3 1b3a 6215 483a 1b68 1a3a 6663 213a
00000020: a282 863a 153f 263a bd54 0f3a 2247 603a
00000030: 4c7d 963a 2492 1f3a 6107 313a ac96 603a
00000040: 26a5 6e3a f491 3e3a cf6e 213a bbd5 4a3a
00000050: a36a 633a 9dc4 2a3a 856f 1f3a 8918 283a
00000060: 501a 3c3a f1a6 0a3a 0ccd 3e3a c68e 303a
00000070: 771d 1e3a cc7a 2d3a 66ae 1d3a ec27 5a3a
0.0005763932 0.0011888912 0.00096047367 0.0004948952 0.0005941925 0.0007632581 0.0005890147 0.0006156474
0.001026232 0.00063417974 0.0005467644 0.00085555215 0.0011481433 0.00060871453 0.00067531137 0.0008567374
0.00091035885 0.00072696735 0.00061581744 0.0007737537 0.0008675253 0.0006514283 0.00060819864 0.00064123474
0.0007175552 0.00052891584 0.0007278479 0.0006735142 0.0006031612 0.00066177244 0.0006015062 0.0008321989

stage2.block1.conv2.weight f4 [32, 32, 3, 3]
00000000: 9ecb b8bc 8f43 71bc f1a1 59bc 337e 133d
00000010: 9a81 233c 48b3 1bbc bc62 613c 7250 063c
00000020: db1e 66bc 9617 12bc 9e6c a43b faa4 27bc
00000030: 7b81 86bc 5759 3d3c 8dbe 413c ccd0 13bc
00000040: 2321 833b 947e ae3c 9adf 12bc 826d 0abd
00000050: cec3 8f3a 0ad5 cdbc 27ae 04bc d2f6 ebbc
00000060: 33d1 72bc 2d81 4b3b b3dd 76bc d5ed 33bc
00000070: 8a09 f1bb 21d1 0fbc a8f5 abb9 911b cd3b
00000080: 2f36 47bb bdab 553c 5b7b d33b 44e6 9f3c
00000090: 922f 103b 937e 8cbc 23c4 83bb 2450 23bc
000000a0: 37bd 32bb ba80 9ebc 7ec2 f23b 2f17 053b
000000b0: f475 a5bc 67ef dfbb f62e 77bb 3ca1 60bc
000000c0: 6573 e3bc f4ef 223b eacf 2a3b 8f1b e1bc
000000d0: 2e33 3b3a dcd2 b13c e9cc 163c 33a7 fcba
000000e0: 238b ffbb 9f2e 8fbb 977b 87bc 9a9f 82bc
000000f0: bf2d 373c c441 febb ba9b 1ebc a281 abbc
00000100: 21e5 7139 a048 123d d7c5 31bc eff7 0bbb
00000110: 0998 cbbc a2d6 84bc ed7b 42bc 5f24 dbbc
00000120: 6cf3 91bc 2afc 153c 2649 cf3c 76ae cb3c
00000130: d911 013d eb76 82bc d15c 8f3b 9454 7cbb
00000140: 7648 04bd 397c 823c 6c10 d3bc 58b9 23bd
00000150: b234 483c dbb4 11bc 373d ad3b 123e 4a3c
00000160: 7e52 7c3c 6c1b d73c 26f0 d6bb 3f69 88bc
00000170: 3df5 36bc ab05 173b 48bb 17bc 6791 b43c
00000180: 318e 183d 5092 153c 8f28 c6bb 50ac cbbc
00000190: 4655 02bc 175e b7ba 7aae 83bc c44d 1ebc
000001a0: 3e94 943c e57d 84bc 1f1d 53bb 973d 983c
000001b0: bdf9 37bb 5e7f 53bc 54e8 c5bc e0f0 513c
000001c0: 9099 7bbc ce41 02bd 8799 ac3c d927 f73b
000001d0: a600 c4bc c031 b03c eda2 bc3b b68f 03bd
000001e0: 0883 36ba c7f9 4c3c 97ab b13a 3e37 cfba
000001f0: 3bd9 d4bc e2ca 23bc 1d97 a33c 0231 523b
00000200: c73d 96bb 2b0d fa3b 7a6a 2b3c b204 0bbc
00000210: 984d ba3c 2464 eebb a37f 50ba 4a2e f23b
00000220: 0242 8f3c 0227 f63c d41e d93b a32d 123c
00000230: 846e 263c af4e 393b 8dea 15bb 7c7b 98bb
00000240: c337 033c 074f 883b 85bf 1c3b 2286 08bb
00000250: 0b39 a6bb 805f 11bc 5a97 86bc f761 be3c
00000260: 2bb1 83bc 6bd1 cfbc 9130 58bc a0df d1bb
00000270: 07ea ae3c 1192 263c 9a31 99bc 1e7c 8abc
00000280: 52ef 0fbd 999e 8dbb 705a 413d 9e09 8a3c
00000290: c61b d1bb f79a a93c 172b 8cbc 9486 dbbc
000002a0: 855c 43bb f4ed 44bc 3c51 26bd da0e 10bc
000002b0: 6b0a 5dbc 8cce 98bc 6715 01bc 090d 023c
000002c0: 4499 09bc 9670 41bb 9983 533b 3290 1b3b
000002d0: d5eb 8abc c0cf 29bc 5fe9 953c 589d 96bc
000002e0: 43ef 1e3c 331a 883b 5c06 3ebc c2c6 01bc
000002f0: 8816 ddbc 5812 373c f63c e9bc 33b9 03bd
00000300: c24b 8bbc 45d6 cabc a691 d5bc ca51 d1bb
00000310: 5e26 b5bc b6c7 21bd 7532 9c3c d279 2a3a
00000320: 0e1e 99bc 7f14 213c 4a56 b33c fb8a e2bb
00000330: e91f 443c d92c bf3b 344e 14bc c91a 23bc
00000340: 0fb5 463c 916d 7d3c 45bc 9ebb 1df8 7a3c
00000350: 2f28 9d3c 536c 04bc 5b1d 623c 091e 94bc
00000360: 9eda c23a a7ed 0a3c 3515 bbbc 2959 223c
00000370: c4b4 003d 160f af3c 04e8 d7bc fa21 68bc
00000380: eb0b 2d3a 75b4 aebc df10 feba 1ef1 cd3b
00000390: 4460 5f3c b80a 5c3c ed80 273c b060 7e3c
000003a0: eb1f 7ebc db32 94b9 1b05 883c 2c6e 3abb
000003b0: 180c 10bd 6315 17bc 964a 8fbb 7091 ffbc
000003c0: 8862 223c 43c0 d3bb 1fca 03bd d586 7bbc
000003d0: ebe2 d0bc 3837 ddbc 3c37 21bc 97a4 563b
000003e0: 2557 a4bc 7dfd 88bb afbc dd3c de61 0c3d
000003f0: 2223 05bd 5dd3 e1bb 7275 8fbc 0901 c1bc
-0.02255803 -0.01472558 -0.013283239 0.036009025 0.00997963 -0.009503193 0.01375645 0.008197891
-0.014045442 -0.008916756 0.005017831 -0.010232205 -0.016419163 0.011556945 0.011825216 -0.009021949
0.004001753 0.021300592 -0.008964444 -0.03379584 0.0010968389 -0.025125999 -0.008098162 -0.028804217
-0.014820385 0.0031052337 -0.015067506 -0.010981997 -0.0073558735 -0.008777888 -0.0003279869 0.0062593897
-0.0030397286 0.013041434 0.006453914 0.019518979 0.002200101 -0.017150199 -0.004021184 -0.0099678375
-0.0027273425 -0.019348491 0.007408439 0.0020308008 -0.020197846 -0.006833959 -0.00377172 -0.013710316
-0.027764985 0.0024862261 0.0026063868 -0.027478961 0.000714111 0.02170699 0.009204128 -0.0019275903
-0.007798569 -0.0043695713 -0.016538424 -0.015945245 0.01118034 -0.0077593047 -0.009680683 -0.020935837
0.00023068908 0.03571379 -0.010850391 -0.0021357497 -0.02485277 -0.016215626 -0.0118703665 -0.026750742
-0.017816268 0.009154359 0.025303435 0.024863463 0.03151116 -0.015925845 0.0043750782 -0.003850256
-0.032295667 0.015928375 -0.025764666 -0.03997168 0.012219595 -0.008893217 0.0052868384 0.0123439
0.015400527 0.026258193 -0.0065593896 -0.016651748 -0.011166868 0.002304415 -0.00926096 0.02204199
0.03724498 0.009129122 -0.0060473154 -0.024862438 -0.007954901 -0.0013989833 -0.016074408 -0.009662095
0.018137094 -0.016173312 -0.0032213402 0.018584056 -0.002807244 -0.012908785 -0.024158634 0.012813777
-0.015356436 -0.031801037 0.021069301 0.007542592 -0.02392609 0.021508098 0.005756727 -0.032119475
-0.0006962274 0.012510723 0.0013555166 -0.001580931 -0.02598249 -0.0099971015 0.019969517 0.0032072668
-0.004585001 0.0076309643 0.010462398 -0.008485006 0.022742078 -0.0072751213 -0.00079535897 0.007390772
0.01748753 0.030047897 0.0066259895 0.008922013 0.010158185 0.002827566 -0.00228754 -0.0046533924
0.0080089 0.0041598114 0.0023917865 -0.0020831903 -0.005072718 -0.008872867 -0.016429592 0.023240073
-0.016075691 -0.025368413 -0.013195173 -0.006404832 0.021351827 0.010166661 -0.01870041 -0.016904887
-0.035140343 -0.004321885 0.04720539 0.016850289 -0.0063814847 0.020703776 -0.01711039 -0.02679757
-0.0029809785 -0.012019623 -0.040604815 -0.008792603 -0.013491253 -0.018653177 -0.007878638 0.007937678
-0.008398358 -0.002951657 0.0032274483 0.002373707 -0.016958157 -0.010364473 0.018299757 -0.018385574
0.009700599 0.004153514 -0.011598196 -0.007920923 -0.026988283 0.011173807 -0.028471451 -0.03215904
-0.017003898 -0.024760375 -0.026070427 -0.006387924 -0.022113021 -0.0394971 0.019067029 0.0006503138
-0.018691089 0.009831547 0.021891732 -0.0069135404 0.011970499 0.0058342037 -0.009051848 -0.009955117
0.012128129 0.015468017 -0.004844221 0.015317944 0.0191842 -0.008082467 0.013800944 -0.018080728
0.0014866178 0.008479512 -0.02283726 0.009908953 0.03142239 0.021369498 -0.02635575 -0.014168257
0.0006601202 -0.021326283 -0.001938369 0.006284847 0.013633791 0.01343029 0.010223609 0.015525982
-0.0155105395 -0.0002826665 0.016603997 -0.0028447015 -0.035167783 -0.009221408 -0.004372905 -0.03119728
0.009911187 -0.0064621284 -0.03217518 -0.015351971 -0.025498828 -0.02700387 -0.009839829 0.0032751912
-0.020061085 -0.004180609 0.02706751 0.03427302 -0.03250421 -0.0068916515 -0.017512057 -0.023560064

stage2.block1.shortcut.conv.weight f4 [32, 16, 1, 1]
00000000: 32be 803c dddc 4dbc 0c1d dc3c 1ab1 413c
00000010: c5e8 1a3c 445f 1fbd 83b3 f4bc 4fa5 0d3d
00000020: 6aee aebb 349b f8bc 0e7c d73a fd6a 25bd
00000030: ae74 e23c 1d77 edbb e1d0 393c 2c72 c73b
00000040: 3e10 a339 3946 2f3b 5292 78bc bcba 8a3c
00000050: 6feb a23c 9659 3bbc 2ea0 0bbc b1a5 f5bb
00000060: 22f1 9b3c baeb 653c 0fe1 fcbc 762f 633c
00000070: ab6a b13c a78c 733b f0c0 ca3b 434d 083b
00000080: cc3a 16bc d86a 7a3b 4803 8fbb e452 a93b
00000090: e63c acbb fb99 7cbc aa3f 813c 1ed3 423b
000000a0: 0923 bcbc 45a7 513b 8ce0 09bd 9441 053d
000000b0: 333a 73bc e78f e4bc aa74 e5bc d917 ec3a
000000c0: 277f da3c 827b 333d 5cfd 14bc 8a84 85bc
000000d0: 235d 41bc 5068 1dbc 4b27 0d3c 5144 86bc
000000e0: 1ba4 b6bc cf16 1bbc 9ffe e63a 1e38 01bd
000000f0: 2ef4 52bb ce16 8d3b cd30 f0bc b9d8 93bc
00000100: 3650 9a3c 9ffa 37bc d922 0fbc 190f 20bd
00000110: 2278 f5bb bcaa 373c fd44 35bd 043f b8bc
00000120: c48d 253b a2ac 3fbc 4ccf 303c 65b1 f7bc
00000130: 8f14 d0bb 1741 feba 4c77 2e3c cab3 8ebc
00000140: 09cc 9a3c 5f3a b1bc 5d1e 04bc 10ce 50bb
00000150: e1ef 033c ac83 313d 055f 003c b4a3 e4bc
00000160: 2dd4 943b 8ade ef3b a4e1 ae3b 4082 0e3d
00000170: 5eaa ac3b 5702 1bba 0ade e6bc 82b7 4bbb
00000180: 6471 0f3b aada fabc 9f25 a4bc 9dca 67b9
00000190: 6dd6 b5bc 0c51 5b3b 63ab f4bc c83b 24bc
000001a0: df4c 983c a3df 02bd 1721 ad3c 1740 6ebb
000001b0: c781 babc 8dd3 863c 86bd 083d 5f74 cbba
000001c0: cd45 ea3b 7591 f3bc 5f70 c8bc f057 b5bc
000001d0: 56fe de3b d655 bf3c 6ac3 c5bc 9119 553b
000001e0: 74c0 bdbc 042c ab3c 2307 913c d83f 663c
000001f0: e408 bbbb 5947 c73c 6cea 323c bf8d 85bc
00000200: 7013 873c c247 033d 7432 8abb 172e 4fbc
00000210: e8a7 423c 0488 5fba a9c6 47bd cd17 0fbd
00000220: cb62 10bd 4de1 51bc 1cd5 713c 801b adbc
00000230: ee53 e7bc f14b 90bc b497 00bd 23fd afbc
00000240: 6839 123c f06e a4bc 6229 afbc 02b9 bf3a
00000250: b988 1b3c 3348 12bd 58e7 eab9 6404 3cbd
00000260: 3ed7 5bba 4f6e e93c 2f41 0dbd d1be 563c
00000270: 6deb 94bc 7682 333c 1ffe 3cbc b114 81bc
00000280: 8939 4cbc 6824 bbbb 12cb 66bc 6e4a 06bb
00000290: 169a a4bc 2ff5 f63b 9988 8fbc cb36 d33c
000002a0: 8197 123b c01a 85bc 338e eabb d921 cbbb
000002b0: fda6 9dbc e607 bcbb 8849 153d ba06 833c
000002c0: e096 053d f607 383d 056b 083c 8c37 3dbc
000002d0: d986 bfbc 1f50 aebc 2d2e 27bd 2acd 63bc
000002e0: c59d 703c 2799 7a3c a764 9fbc 9e97 01bd
000002f0: 393c 20bd ebf7 e6bc bf3f 273c f084 0e3a
00000300: 8ba6 e23c 2c59 0ebc a5cb 493c 64bc 6abc
00000310: 2dce 64ba a06e 2fbd a8eb fc3b a30f fabb
00000320: 5f2f 12bc d1bd 053c cf8f 91bc ae3b ac3c
00000330: a1bb a33a bc0c b738 e2f9 d8bc a7a8 d6bc
00000340: d49c fc3c b72f c33c fb3e 79bc 7486 053d
00000350: dedc 86bb b29f ffbb cc53 b53c 9dbe 1c3c
00000360: 67c2 95bc c28a a73c 37e7 b7bc 478e 13bc
00000370: e54a d0bc f1f0 26bd 379e 50bd 5c5b c93c
00000380: 5931 193b 43cd e63b adce 2fbd 9d66 5cbc
00000390: 6d26 b8bc 0cd7 663c a2d1 643c 1fbe a53b
000003a0: fd5c e13b 00d1 71bc f018 47bc 7247 fb3c
000003b0: 0139 08bd 854b 293c 92bb 97bc ecfd 203c
000003c0: 02d8 743c 8a9d 033c 6883 1f3d 82e1 b7ba
000003d0: 658a f4bc fabc 27bc c2fd 523a e16e abbc
000003e0: 1224 113c bbbe d8bb 5b97 3e3c c92e 65bc
000003f0: 2fed 663d 39f2 3e3c c066 3fb8 eea0 c83c
0.015715692 -0.012564865 0.02686932 0.011822009 0.009454911 -0.03890921 -0.029870754 0.03458148
-0.0053384798 -0.030347444 0.001644017 -0.040385235 0.027643528 -0.0072468654 0.0113413045 0.0060866084
0.00031101884 0.0026744737 -0.015171604 0.016934745 0.019887654 -0.011434933 -0.0085220765 -0.0074965586
0.01903588 0.014033252 -0.030869035 0.013866296 0.021657309 0.0037162693 0.0061875507 0.0020798005
-0.009169292 0.0038210656 -0.004364405 0.005167352 -0.005256283 -0.015417571 0.015777428 0.0029727886
-0.022965925 0.003199057 -0.03366141 0.032533243 -0.014845419 -0.02790065 -0.028009731 0.0018012478
0.02667196 0.043818958 -0.009093609 -0.016298551 -0.011801991 -0.00960739 0.008615325 -0.016389998
-0.022295048 -0.009465887 0.001762349 -0.03154766 -0.0032189 0.004305697 -0.029320145 -0.018047677
0.018837076 -0.011229186 -0.008736336 -0.0390769 -0.0074911276 0.01121014 -0.044255245 -0.022490986
0.00252615 -0.011698874 0.010791611 -0.030235955 -0.006350107 -0.001939806 0.01064856 -0.017419714
0.01889612 -0.021634279 -0.00806388 -0.0031861104 0.008052797 0.043338463 0.007835154 -0.027910091
0.004541895 0.00732023 0.005336957 0.034792185 0.005269333 -0.00059131294 -0.028182048 -0.003108472
0.0021887654 -0.030621845 -0.02003747 -0.00022105356 -0.022196973 0.0033465056 -0.02986688 -0.010024019
0.018591342 -0.031951558 0.021133943 -0.0036354118 -0.02276696 0.016458297 0.03338387 -0.0015522352
0.007149434 -0.029732445 -0.024467645 -0.022136658 0.0068052216 0.02335636 -0.024141032 0.003251646
-0.023163058 0.020895012 0.017703598 0.0140533075 -0.005707847 0.024326013 0.010920148 -0.016302941
0.01648876 0.032050855 -0.0042174403 -0.012645266 0.011880852 -0.0008527043 -0.04877344 -0.034934808
-0.035250466 -0.012810064 0.014760282 -0.021131277 -0.028238263 -0.017614337 -0.031394675 -0.02148301
0.0089248195 -0.02007243 -0.021382038 0.001462728 0.009493046 -0.035713386 -0.00044804323 -0.045902625
-0.00083862606 0.028494982 -0.034485992 0.013107018 -0.018178666 0.010956397 -0.011535197 -0.015756937
-0.012464889 -0.005711127 -0.014086502 -0.002049114 -0.020093005 0.0075365524 -0.01752119 0.025782963
0.0022368135 -0.016248107 -0.0071580647 -0.0061991033 -0.019244665 -0.0057382463 0.036447078 0.015994418
0.03261459 0.044929467 0.008326297 -0.011548888 -0.02337973 -0.02127844 -0.04081552 -0.013903895
0.014686053 0.015295303 -0.019457174 -0.031638734 -0.039119933 -0.028194388 0.010208069 0.00054366793
0.027667305 -0.008688252 0.012316619 -0.014327142 -0.00087282324 -0.04283011 0.007718522 -0.0076312586
-0.008922427 0.008162932 -0.017768769 0.021024551 0.0012491831 8.728492e-05 -0.02648634 -0.026203467
0.0308365 0.023826463 -0.01521277 0.032598928 -0.004115685 -0.0078010196 0.022134684 0.00956693
-0.018281175 0.020451907 -0.022449119 -0.0090060895 -0.025426337 -0.040757123 -0.050932135 0.024579696
0.002337536 0.007043512 -0.04292171 -0.013452199 -0.02247926 0.014089357 0.013965996 0.0050580646
0.00687754 -0.014759302 -0.012151942 0.030673716 -0.03325749 0.010332947 -0.018522058 0.009826165
0.014944078 0.008033166 0.03894368 -0.0014028999 -0.029851148 -0.010237927 0.0008048677 -0.020926895
0.0088586975 -0.0066145337 0.011632766 -0.013988205 0.05637854 0.01165443 -4.5633642e-05 0.0244908

stage3.block1.bn1.weight f4 [32]
00000000: 95f6 b13d 4514 dc3d a042 da3d 9054 d73d
00000010: 1c21 c63d 0830 b83d 4ae0 e53d 1af3 ca3d
00000020: c7f2 a43d deb6 bf3d 906f cf3d f0ea ab3d
00000030: 498d a73d 7f6f c73d 6a3c cd3d 4b51 e23d
00000040: ca8f d23d e407 d13d f017 dd3d e020 b53d
00000050: e51d ed3d d3f8 da3d e41d d23d 0fac d03d
00000060: 79ed ef3d 3ed0 ec3d 9e87 0d3e 4cc6 c93d
00000070: f6ba b63d b375 e93d fa14 f33d d46a ce3d
0.0868961 0.107460536 0.10657239 0.10514176 0.09674284 0.08993536 0.1122442 0.09909649
0.080541186 0.09361051 0.10128701 0.0839442 0.08181245 0.09738063 0.10021289 0.11050662
0.10281332 0.10206583 0.10795581 0.08844161 0.115779676 0.10691991 0.102596074 0.101890676
0.11715216 0.115631565 0.13821265 0.09852275 0.08922379 0.113994025 0.11869235 0.100789696

stage3.block1.bn1.bias f4 [32]
00000000: 78f3 a2bc 25aa 6bbd 16a4 07bd ccb3 2bbd
00000010: 0585 18bd 21d6 babc 69c8 2bbd a6b5 0ebd
00000020: d247 1b3c bdc8 33bd 0f09 86bd 5885 b4bc
00000030: 9143 09bc 3733 12bd 77c7 aabc 1089 3dbd
00000040: 9e4d 3fbd 18a4 0dbd 0316 49bd 71eb 33bd
00000050: 546f a6bc af1e 81bd c45b 77bc cf62 f2bc
00000060: 31a6 debc 409f 0ebd 258c c4bd aedf 12bd
00000070: 166a 1cbd 8fb3 58bd 6686 26bd 6cda dbbc
-0.019891486 -0.05753531 -0.03311547 -0.041919515 -0.037236232 -0.022807183 -0.041939173 -0.034841202
0.0094775725 -0.04389261 -0.065446965 -0.02203624 -0.0083779255 -0.035693374 -0.020847065 -0.04627329
-0.04670488 -0.03458032 -0.049093258 -0.043925706 -0.020316757 -0.063046806 -0.015097562 -0.029588131
-0.027178856 -0.03481984 -0.09597043 -0.03585785 -0.03818711 -0.052905615 -0.040655516 -0.02683755

stage3.block1.bn1.running_mean f4 [32]
00000000: d313 e8bc 19fb dcbc 8219 29bc 5ba9 e3bc
00000010: b9c8 33bc 2d85 c739 09b7 a6bc f662 e9ba
00000020: 8156 b5bc c408 d2bc 8fa2 fcbc 371d e0bc
00000030: 7a25 1d3b db5c cdbb 7e7e efbc 1224 b6bc
00000040: 7867 8bbc 84bc 43bc 582e 07bd d655 9bbc
00000050: 4578 d1bc 88cc 17bd 2ac7 1bbd a39d 26bd
00000060: 20b3 19bd 0f43 913a b6e4 00bd 22b8 c0bc
00000070: bd9a 93bb 54d1 a5bc 2219 9abc c6ea 13bb
-0.028329765 -0.026975201 -0.010321023 -0.027790716 -0.010973149 0.00038055461 -0.02035095 -0.0017805982
-0.022135975 -0.025638945 -0.030839233 -0.02735768 0.0023978637 -0.0062671728 -0.02923512 -0.022233997
-0.017017111 -0.011946801 -0.03300318 -0.018961828 -0.025570044 -0.03706029 -0.038031735 -0.040677678
-0.037524343 0.0011082607 -0.031468116 -0.023525301 -0.00450453 -0.020241417 -0.018810812 -0.0022570356

stage3.block1.bn1.running_var f4 [32]
00000000: df2c 263a fdd8 223a b8dd 353a eb25 473a
00000010: fdc8 a93a 4c90 463a af30 433a cf65 4b3a
00000020: ea60 4a3a d792 3e3a e3e9 513a f3b7 333a
00000030: 5db0 6c3a b1f7 343a ba1f 833a 1a20 623a
00000040: 9b76 7b3a 5d8c 403a 5cbd 3d3a 665d 5b3a
00000050: 66c9 b63a 20b0 3e3a 23b7 4c3a a973 5d3a
00000060: 117a a63a 6ea7 833a d531 893a e8a6 493a
00000070: ad5d 403a 5253 963a 18a1 613a 222b 343a
0.0006339084 0.00062121433 0.0006937641 0.0007596898 0.0012953576 0.00075746025 0.0007445914 0.0007759006
0.000772013 0.00072698056 0.0008007569 0.00068557187 0.0009028966 0.0006903364 0.0010003962 0.00086259993
0.0009592564 0.00073451345 0.00072379946 0.00083681045 0.001394552 0.00072741695 0.0007809272 0.00084477157
0.0012701174 0.0010044405 0.0010467122 0.00076924125 0.00073381775 0.0011468923 0.00086070737 0.00068728824
